detector/models/best/32_1_32_5_256_0.001_covert_detector_5.pth (torch, 8445 bytes, 6 tensors)

rnn.weight_ih_l0 f4 [32, 3]
00000000: c2c9 b9bd 4acf 07bc 7cac c8bd 2be7 1cbe
00000010: fe89 d83a d7d9 c8be a7b1 9d3b 3f78 4c3c
00000020: 9330 643d cb0b 20be 678f 86be a157 e13d
00000030: bf9c 4e3e 4d7d 89bc 2839 ae3d 44a6 083e
00000040: 85df 933c 6078 1e3e fd63 633e b38e a03c
00000050: aa16 6f3e f0ff 8bbe 2922 aebc 433f 80bc
00000060: 3f80 403d fdfe 9cbc aa79 a3bd 7706 e43e
00000070: 14ed e03b 996f a83e 3056 583e c84d 36bc
00000080: c0a0 0a3e f33e 8fbd 49ad c5bc cbe6 9dbc
00000090: 6a7f 4e3b ef60 7d3c a310 963e 4d5e 523e
000000a0: 781c 993c 383e d53d 0148 18be 2e47 cb3c
000000b0: 521c e53d a738 b33d 892c 4f3e 6b56 0f3e
000000c0: 9b44 67be 522a 51bc 2bcd dbbd 00b5 f8bd
000000d0: 6cec 9dbc ff1a 233d 673e 313e c84a be3c
000000e0: 226e acbb ea83 113b 0012 c3bc ca98 81bd
000000f0: f373 6a3e 60b4 933e 5f9b be3d 23dd 4fbd
00000100: f7e7 f63b 6d55 803d d0ac 063e 759e 423c
00000110: 274d a33d fa3c be3d 000e f03b 2766 ac3e
00000120: 2a73 25bb e680 86bc 00c1 3abd 2b7d e9bc
00000130: f771 9cbc b131 c4bc 98a5 d5bd 07ab 6fbc
00000140: 765b 39be d5d5 453e 5c3e b43c 3324 453e
00000150: d342 cd3e a7a0 d1ba 736b 9c3e c8f7 a53c
00000160: 22e7 383c 87b0 9a3e 4e4d ae3d cec9 9d3c
00000170: 73fd 643c cacf a43e d952 273c b165 8b3e
-0.090716854 -0.008289168 -0.09798524 -0.15322559 0.0016520617 -0.392287 0.0048124376 0.012479841
0.055710386 -0.15629499 -0.26281282 0.11003042 0.20176981 -0.01678338 0.085069954 0.13344675
0.018050918 0.15475607 0.22206111 0.019599294 0.2334849 -0.27343702 -0.021256523 -0.015655166
0.046997305 -0.019164557 -0.0798219 0.44536182 0.0068641994 0.32897642 0.21126628 -0.011126943
0.13537884 -0.069944285 -0.02413048 -0.01927509 0.003150905 0.015465005 0.29309568 0.20543785
0.018690333 0.10412258 -0.14871217 0.024814215 0.11187042 0.0875104 0.20231833 0.1399781
-0.22584765 -0.012766438 -0.10732492 -0.12143898 -0.019277774 0.039820667 0.17308961 0.023229018
-0.0052621523 0.002220387 -0.023812294 -0.0632797 0.22895794 0.28848553 0.093069784 -0.050748
0.0075349766 0.06266294 0.1315186 0.011878599 0.079737 0.09288974 0.0073258877 0.33671686
-0.0025245645 -0.016418885 -0.045594215 -0.028502068 -0.019097311 -0.023949476 -0.10431975 -0.014628178
-0.18101296 0.19319852 0.022002392 0.1925209 0.40090045 -0.0015993313 0.30550727 0.020259753
0.011285575 0.30212805 0.085108384 0.019261267 0.013976443 0.3218978 0.0102126235 0.27226022

rnn.weight_hh_l0 f4 [32, 32]
00000000: 47a8 a73e 3144 233d ecdd 453e f2fc 423e
00000010: 67d7 863d a8b7 83bd ef74 46be 0628 eebd
00000020: 7487 d1ba 1301 433c 165e 253e fd0f babd
00000030: 8eea 323d 8862 9fbc da9a 023e d9e7 3abe
00000040: 469e b0bd 50be 31be c9b4 4b3e 399c 40be
00000050: 428c cdbe e184 c03d bf4c 36be 0d5e 7dbd
00000060: a369 c23d c002 63bc 8bd2 86bd 55f7 543e
00000070: 4d4d ed3d 10d8 bc3d 2159 20bd 1c5c 163e
00000080: 49b8 8e3e 20e6 28be 0d19 e5bd fde1 9d3e
00000090: 619e 1a3f dd24 23bf 5074 443e 1ab2 d13e
000000a0: c106 f83e dc23 9ebe 98f8 0c3f 2188 e43e
000000b0: 245c d4be 6c78 3e3d a196 98bd 7672 d5be
000000c0: 6b9a 9d3e ff4a 203f 83e7 0abf 8148 053e
000000d0: 648f 04bf a48e dabe e10c e1be c6a7 233e
000000e0: aabd 953e 854f 113f 4bc1 113f 3cc6 04bf
000000f0: 77cb 15bf b426 27bf 1462 09bf 1f62 dfbe
00000100: 96a5 82be 0d8c 93bd c933 ae3d e34b 853d
00000110: 734c a8be 10b6 da3d f896 a4be 3baf 8bbc
00000120: 05a5 99be 9ed3 ce3d 4415 03be 3e09 88bc
00000130: 689f 3f3d 35c1 1ebd e13e 71bd 4369 4dbe
00000140: 91cb 29be 9676 0fbe 2fd2 9f3e a37f 04be
00000150: d9b5 dabd 8e2e 093e ca9f e73d 2c37 2dbd
00000160: 4be4 353e 9b2a 66be b71b 75bc 41f5 173e
00000170: 80e0 4ebc 7dc4 e4bd 0a09 3c3e ed00 1e3d
00000180: 54e7 883c ded2 b63d d974 f1bd 4ea1 f53d
00000190: a5f8 de3d 8643 853d 80ac 08be 1273 6f3c
000001a0: 0dd4 c3bd 1a88 1dbd 25ee fa3d f320 5c3d
000001b0: 257c 04bd a09c f73d 4be0 50bc e36e c0bc
000001c0: fd74 abbd 6e2a 233e 35e6 1d3e 00b0 45be
000001d0: 3259 93bd 5f12 22be 4249 a6bd ec50 fa3c
000001e0: fc1b 8dbe ff18 a83d dc90 203e 67ac 28bc
000001f0: 4395 c73d 3218 ecbd a0af 3ebd c2cf 06be
00000200: dbcc f33c 92be 93be b053 283b ac89 e53d
00000210: 0447 ebbd 1ecf 9abd a3e1 273e c46f c23d
00000220: ac5e af3d d7a6 483d 8aed fc3c 7ac2 75be
00000230: 64aa 92bd b6bf d13c ebec e53d a6b4 4b3d
00000240: 5723 3e3e 2e2f 7d3d a85c f23d 480e 2dbe
00000250: 5ae4 f0bb 7c29 9c3d e85e 2dbd 5f4b 123e
00000260: f54c 40be fac3 003a 87e6 453e 79b3 413c
00000270: ef59 5c3e 5d27 2a3e 399d 2bbe 57e8 d6bc
00000280: 4021 26bc cd96 6d3e 7383 1fbe 0464 adbd
00000290: 04aa 25be 2142 2a3d 572e 7dbe c690 e2bc
000002a0: 80c2 87be ab06 f43c 999a 4cbe 6b52 613e
000002b0: 92ec 613e 621c 1ebe 532e 40be 5bf5 70bb
000002c0: 2722 92be ed30 81be c04c 6e3e d869 413d
000002d0: a86a ea3d 6f32 253e 0d00 a7bb fad2 3cbe
000002e0: a2e0 17bd ca45 9ebe 6122 47be 37f2 053e
000002f0: f433 1bbe 517f f7bb 0bb6 ab3c 861f 893e
00000300: 4bda 973d 7dc2 79be 7cce 4a3c 8859 f5bc
00000310: 0d85 7bbe 6b4b e93d 7d32 a63d bb82 5fbe
00000320: fa73 4bbd 811a 5b3e 4962 15bd 206d adbd
00000330: 72ae 69bd f076 85bd 37ab 843e 4b24 c4ba
00000340: 65f2 6d3d ff20 97be 64cf 013e 9e78 dd3c
00000350: 9527 0bbb 3aaf 383e 7eae 1b3d e5cb 8f3e
00000360: 1b57 afbd 4233 c3bd f64e 2f3d 986c 443e
00000370: 5a05 203e ab91 983e dec9 203e dce3 853e
00000380: fa39 b63e d2f6 a2bd 3011 a53e 1844 213c
00000390: 1ee0 52b9 6675 cbbd 0641 9a3e 4023 69be
000003a0: 2616 6d3e f4e0 52be 954e b23d 393f abbc
000003b0: a184 c0be 5568 e03d 8c68 963e 6e13 42be
000003c0: 397d 063e a921 2ebd 208e e63d b551 f43c
000003d0: 9595 64be 6bf0 20be d301 69be ecd7 9d3d
000003e0: 39e0 51bd b53e 8d3d a7a4 093e fd88 163e
000003f0: cd64 403e 2375 8b3e da9d cfbd 8f1a 2bbe
0.32745573 0.039859954 0.19322938 0.19041803 0.065840535 -0.06431514 -0.19380544 -0.116287276
-0.0015985803 0.011902112 0.16149172 -0.09085081 0.04368072 -0.019456163 0.12754384 -0.18252505
-0.08623938 -0.17357755 0.19893183 -0.18809594 -0.4014607 0.09400345 -0.17802714 -0.061857272
0.09492805 -0.013855636 -0.06583127 0.20797475 0.115870096 0.09220898 -0.0391475 0.14683574
0.27874973 -0.16494036 -0.11186419 0.30836478 0.6039792 -0.63728124 0.19184995 0.40956193
0.48442653 -0.30886734 0.55066824 0.44635108 -0.41476548 0.046501562 -0.07450605 -0.4168889
0.30781874 0.62614435 -0.5425951 0.1301594 -0.51781297 -0.4268695 -0.43955138 0.15981969
0.29246265 0.5676196 0.56935567 -0.5186498 -0.5851359 -0.6529343 -0.5366528 -0.43629548
-0.25516957 -0.07204447 0.08505971 0.06508615 -0.32870826 0.10679257 -0.3214643 -0.01705133
-0.30008712 0.100989565 -0.12801081 -0.01660597 0.04678288 -0.038758475 -0.058897857 -0.20059685
-0.1658156 -0.1401008 0.31215045 -0.12939315 -0.10679216 0.13396665 0.11309774 -0.042288944
0.17762868 -0.2247719 -0.014960221 0.1483965 -0.012626767 -0.1117029 0.18362823 0.0385751
0.016711868 0.089269385 -0.11789865 0.11993657 0.10887269 0.0650702 -0.13347054 0.014614837
-0.0956193 -0.038459875 0.12252454 0.05374236 -0.032344956 0.12090421 -0.012748788 -0.023490375
-0.08371923 0.15934154 0.15419848 -0.1930542 -0.07194747 -0.1582732 -0.081194416 0.030556165
-0.27560413 0.082078926 0.1568026 -0.01029501 0.09745266 -0.115280524 -0.046554208 -0.13165191
0.029760769 -0.2885633 0.0025684647 0.112078995 -0.114881545 -0.07559036 0.16394667 0.09493974
0.08562979 0.048987236 0.030874986 -0.23999968 -0.07161406 0.02560411 0.11226829 0.049732827
0.18568169 0.061812572 0.11834079 -0.16899979 -0.0073514404 0.076251 -0.042326838 0.14286564
-0.18779357 0.0004912015 0.1932622 0.011822575 0.21518682 0.16616578 -0.16759194 -0.026233835
-0.010139763 0.23202057 -0.15577488 -0.08466342 -0.16178137 0.04156697 -0.24724708 -0.027656924
-0.2651558 0.029788336 -0.1998085 0.22004096 0.220629 -0.15440515 -0.18767671 -0.0036767337
-0.2854168 -0.2523264 0.23271465 0.04722008 0.11446124 0.1613252 -0.0050964416 -0.18439856
-0.03707946 -0.3091262 -0.19446708 0.13080679 -0.15156537 -0.007553019 0.020960828 0.26781863
0.07414683 -0.24390598 0.012378331 -0.029949918 -0.24562474 0.11391338 0.081150986 -0.21827213
-0.04967115 0.21396829 -0.036470685 -0.084680796 -0.05705113 -0.06516826 0.25911877 -0.001496443
0.058092494 -0.29517362 0.1267677 0.027035054 -0.002123331 0.18035594 0.038008206 0.28085247
-0.08561536 -0.09531261 0.042799912 0.1918205 0.15627041 0.29798636 0.15702006 0.26150405
0.35591108 -0.079572335 0.32239676 0.009842895 -0.00020110651 -0.09934501 0.30127734 -0.22767353
0.2315298 -0.20593625 0.087063946 -0.02090417 -0.37601188 0.109574 0.29376638 -0.18952724
0.13133706 -0.04251257 0.11257577 0.029824117 -0.22322686 -0.15716712 -0.22754602 0.077071995
-0.051239226 0.06896726 0.13441716 0.14700694 0.18788452 0.27237806 -0.1013753 -0.1670935

rnn.bias_ih_l0 f4 [32]
00000000: 209c fdbd 111d 87be 6c7f 883c 262c febd
00000010: 00d8 4c3e 0497 b9bc 32fe 1cbd 0352 8d3b
00000020: 93c9 903d cef4 e43e 846b 173e 69f6 c6bc
00000030: 9686 b33d bb82 593e 3269 17be e929 813e
00000040: f9c0 8ebd 3418 41be b25d 063d cecc f53d
00000050: a673 1c3e 7826 5f3e d755 af3e 9639 f03c
00000060: 8db1 8fbd 0a77 08be 3eb5 8ebe 0feb 97bd
00000070: 2281 213f dd09 543e f774 193d d7b0 303e
-0.12383294 -0.26389363 0.016662322 -0.124107644 0.20004272 -0.022655018 -0.038328357 0.004312755
0.07069697 0.4471802 0.14787108 -0.02428742 0.087659046 0.21241276 -0.14786223 0.25227287
-0.069704 -0.18856889 0.0328042 0.12001954 0.15278491 0.21792018 0.34245178 0.029324334
-0.07016287 -0.1332666 -0.27872652 -0.07417881 0.63087666 0.20706888 0.037465062 0.17254959

rnn.bias_hh_l0 f4 [32]
00000000: 9f23 a2bd dec2 01bf abf9 12be 2eb8 8bbd
00000010: aa39 dc3d 09f1 03be a65c 593e 3a63 923d
00000020: f0d7 8bbd 66d4 ca3e 9289 9c3d 12e5 c13d
00000030: d16d 293e 50c6 e9bd 4e61 88bc 7a29 9f3d
00000040: acba b3bd aeeb 22be f268 4cbd 0e51 14be
00000050: 23b1 173c ae11 4b3e a2a6 c23e dd68 ee3d
00000060: 9b0b a3be efd7 f8bd 7fc0 9ebd b552 7e3d
00000070: 5d2f d33e 8afc 6a3e b4c8 4e3e 756e b83e
-0.079169504 -0.5068797 -0.14353053 -0.06822239 0.10753186 -0.12884916 0.21226749 0.07147832
-0.06828296 0.39615172 0.07643427 0.0946752 0.16545798 -0.11414778 -0.016647961 0.07771583
-0.08775839 -0.15910217 -0.04990477 -0.14484045 0.009258541 0.19830963 0.38017756 0.11641095
-0.31844792 -0.12150561 -0.077515595 0.062090594 0.41247073 0.22947899 0.2019375 0.36021772

fc.weight f4 [2, 32]
00000000: aaec 6e3b e7a8 833f ab21 ecbc 7282 eebd
00000010: 3939 673d e1d8 8dbd c983 c4bd 327d 333e
00000020: 1b41 fc3c f950 89be e0bc 88be cdfd 933d
00000030: 9a63 813d a45a 433c 0585 febd fcd6 e83d
00000040: 9d2f cbb8 f7a5 103c 9b0e 77bb d2be 263d
00000050: 1fbb 1f3e 3e60 8b3c cd88 f53c f54c 54be
00000060: 5956 86bd 66b7 d7bd 2e78 0e3c bbdb 97bd
00000070: e72c cabf a9f8 cebd dd50 41bb 5f47 bfbd
00000080: 33d3 b33d 9c23 6bbf 44a9 763d 90d6 3c3e
00000090: 5c55 063e e4b7 35bb f5b3 a23c 096a fa3d
000000a0: 1d5f 0abb caae 973d 7910 253d 6fec 0dbd
000000b0: 5e20 a1bd 99bd 073e 06bd 9f3c 3ebd 71be
000000c0: c5e8 a53d 06e9 5dbd af1b f73d cc54 21be
000000d0: f431 42be f0f7 4a3c c587 b43c d04f 493d
000000e0: d131 28be 03ee a0bd 94d0 9c3d c8d3 a03b
000000f0: b12a ae3f aaaa 0a3e 204b adbc 9d98 963d
0.003645698 1.028592 -0.028824648 -0.11645974 0.056451056 -0.06926132 -0.095954485 0.17528227
0.030792763 -0.2681959 -0.267066 0.07226143 0.063178256 0.011923466 -0.12427715 0.1136913
-9.688663e-05 0.008828632 -0.0037697915 0.040709324 0.15598725 0.017013665 0.029972458 -0.20732482
-0.06559438 -0.10533027 0.008695645 -0.07414957 -1.5794953 -0.10106022 -0.002949766 -0.09339785
0.087805174 -0.9185121 0.060220018 0.18441224 0.131185 -0.0027728016 0.0198612 0.12227256
-0.002111382 0.07406385 0.040298913 -0.03464931 -0.07867502 0.1325592 0.019499313 -0.23607346
0.08101038 -0.054177307 0.12065827 -0.15755004 -0.18964368 0.0123882145 0.022037396 0.04914838
-0.16425253 -0.07857897 0.076569706 0.004908059 1.3606778 0.13541666 -0.021153986 0.073533274

fc.bias f4 [2]
00000000: 88e4 143e 7a4f c2be
0.14540303 -0.3795126
