detector/models/best/32_1_16_5_32_0.001_covert_detector_5.pth (torch, 8433 bytes, 6 tensors)

rnn.weight_ih_l0 f4 [32, 3]
00000000: b792 093e b14c 0fbd 365b 93bd 833e 65bd
00000010: c56f 0bbd 615c 4e3b c709 2dbe 2d63 0f3d
00000020: 497d 97bd 02f1 343f f94b 113c 060f e83e
00000030: dba5 0d3f d487 0e3c 15fc dd3e 7171 023f
00000040: d6a8 e33b dff5 0e3f 3435 873e 0bcc dd3c
00000050: 837b 633e bb71 0fbe a06c 06bd aac6 3cbd
00000060: db89 bebd fe68 313d 5505 b63d 5621 b3be
00000070: f1a8 a7bd 197b a23c a0a0 0cbd 6af8 1c3d
00000080: 9a20 9cbc fcb4 0a3d 0c7e 1a3d 92f0 d6bd
00000090: 4ab1 0e3e dc12 21bd 4f5f 3abe bb5e 84be
000000a0: e29f 50bd 206c a3be 4228 4cbe 27a0 e53c
000000b0: 59e3 75bd af8d 7d3e 1dbd 043d e618 06bb
000000c0: 6016 0e3f 6631 253c cc1c f73e 9b03 583d
000000d0: 6ba7 0d3d 6180 31be 1fc3 5f3e 85e8 543d
000000e0: 1370 a73e 062c ad3e 4143 963c 5241 e63e
000000f0: 4ef3 c23d 6d29 99bc 66fe 8fbe 2e2c a9bd
00000100: 3adf 353d 35ca 933d f24d 8cbe 553d bebc
00000110: 85d1 47be 0471 2ebe 9c8e 09bd 0268 8d3d
00000120: c9e8 f1bc f7c9 04bd 0d6d 0dbe 0f08 2cbe
00000130: d5f9 bcbc 34f7 03be aef6 45bd 0a3f 183d
00000140: dd0a 7a3d bdf6 5dbc 25f5 04bd 6844 cfbd
00000150: c974 803e e99e d03b f51d b73e 60eb 103e
00000160: 4337 753c 3cd2 dd3d 582e 8dbe 28cb b8bc
00000170: 3b54 aebd 848c 0bbe 6946 98bc 460c 373c
0.13434874 -0.034985248 -0.071951315 -0.05596782 -0.03404214 0.0031488168 -0.16898261 0.03500669
-0.07396943 0.7068025 0.008868211 0.45323962 0.553312 0.008699376 0.43356386 0.5095435
0.006947617 0.5584392 0.26407778 0.027074834 0.22215085 -0.14008228 -0.032818437 -0.0460879
-0.093036376 0.04331302 0.08887736 -0.3498637 -0.0818652 0.019834088 -0.03433287 0.038322844
-0.019058514 0.033864006 0.037717864 -0.10495104 0.13934818 -0.039324626 -0.1820042 -0.25853524
-0.050933726 -0.3191843 -0.19937232 0.028030468 -0.06003127 0.24761079 0.032406915 -0.0020461618
0.5550289 0.010082578 0.48264158 0.052737813 0.03458349 -0.17334129 0.21851777 0.05197956
0.32702693 0.3382265 0.018342616 0.4497171 0.09519063 -0.018696511 -0.28123778 -0.0826038
0.04440234 0.07216302 -0.27403218 -0.023222605 -0.19513519 -0.170353 -0.03358327 0.069046035
-0.029529946 -0.03241917 -0.13811131 -0.16799949 -0.023068348 -0.1288727 -0.048330955 0.037169494
0.061045516 -0.0135475965 -0.03246035 -0.10120469 0.250891 0.0063666 0.35765043 0.14152288
0.014966789 0.10831115 -0.2757442 -0.02255781 -0.085121594 -0.13627821 -0.018588262 0.01117236

rnn.weight_hh_l0 f4 [32, 32]
00000000: a8af 5dbe 1703 97bd 8465 57be d182 45be
00000010: a32d 91bd 570b 2bbe db0c 68bd 063d 8f3e
00000020: fc38 ebbd 9e61 57bd ef8c 77bc cd40 d03d
00000030: ecbd d7bd bbce 1fbe 4c89 75bd ac93 a1bd
00000040: 746e f43c 7173 80bd 9a25 e9bd ef91 3ebe
00000050: a8b8 233e 7db3 123e de73 363e 141d 2ebc
00000060: 721f 103e 4f49 b4bd faa2 8dbd 7c16 a33d
00000070: 644a 30bb 97a9 8d3e 972c a63d 5f08 1d3d
00000080: 666e 1c3e c288 00be c2ad a73d 4b86 633c
00000090: e92b 4fbe b586 cdbd 4f5c 23be f728 0f3e
000000a0: 20f3 263c 710e bc3e a47a 99bd d0aa 14be
000000b0: f397 3f3d 8604 b93e 374a 94bc 545d 583e
000000c0: 7d83 8a3e 17e4 99be d4cc d3bd c2e1 543c
000000d0: dc1a 16be 6f58 edbd 2958 083e 6727 9a3d
000000e0: 70bc 24be 5085 b53e 8b51 3f3e 0b43 f83c
000000f0: 87ed 2f3e eee2 4ebd f018 053e c896 a73c
00000100: 5b26 833e 255c 7a3c e27b 843d 86c4 bcbd
00000110: e52f 2a3d b010 dcbc f24a 79bc 6d8a e73d
00000120: 8e98 de3e a1f0 00bd c210 b63e 9586 a13e
00000130: cf55 173d 3cbb ecbd f050 2dbe b6f8 eb3e
00000140: f319 ef3c 1938 50be 9a65 913d bd9b 30ba
00000150: 9b66 143e 5cff 8b3a 5ffe 94be f09f cfbc
00000160: 7007 88be 4e1d 343e 50d2 08be 579e 483c
00000170: eb3e b6bd bd39 193d bdb8 063f 28b6 b4bd
00000180: b5d5 c43e 054a 81be a8ce 9e3f caf9 633e
00000190: a0fc d23e c3fa 0d3f 44b0 87bf 90ab ce3e
000001a0: 9345 483f 6f43 963f 60ef bd3d e0c1 e5bc
000001b0: 2da5 803f c749 373f d776 a8bf 5ff5 9c3f
000001c0: 9c1d 843f 0819 87bf d413 9c3f 75f9 a0bf
000001d0: 8dea cc3e 25d8 82bf 48bf fdbe e7b5 233f
000001e0: d43d 12bf 4a2f 7c3f 6b9a 62bd 6498 833e
000001f0: 5a67 533e 2a46 7c3f adda 603f 202d 1cbf
00000200: 9a71 fc3e b8e5 f63e 7b4e 1cbf 4184 fe3e
00000210: d507 d33d ec62 023f f18c 313f f351 00be
00000220: cb3d 8abe 0cd6 463e 0397 453e dddd 7fbe
00000230: 10e1 3ebf 5ff9 3bbf 3911 b6be cb65 34bf
00000240: d244 363d 76c2 1abe c1db 163f 07a9 06bf
00000250: 25e0 913e 5095 3bbf c4da f93e 9917 833e
00000260: 9d44 f63e 7c2f 2fbf 4981 5cbe fe82 0fbe
00000270: 194f 073e 53ef d3be 78e4 07be 75e9 0c3f
00000280: dbff 0a3f 1a91 b0be 6212 173f 65e4 0d3f
00000290: 1fc2 273f b1a0 ef3d a5d2 b9be 26e1 593e
000002a0: ca5a 753e 3fee 5d3f 29f0 083f d742 f93e
000002b0: 4018 ff3e d213 043f 9dcf 64bf d526 063f
000002c0: aa61 2e3f 7161 50bf fab8 403f 3e54 13bf
000002d0: 600f e93e 0574 10bf bd59 2fbf 41de a93e
000002e0: c79a 28bf ab92 373e 5946 0abf 7ceb 1b3f
000002f0: c5af 273d 486d fc3e 1705 083f 1ffb 1ebf
00000300: c41d 90be 9ab5 32bd c55b 81be 7608 bfbd
00000310: 085d c3be 1965 ef3e 41eb 63be a760 003e
00000320: 2ecd a03d 446c 41bc 428a f6be cb40 afbd
00000330: 3986 c9bd 1140 843e 6098 313e 7750 89be
00000340: 34a2 123d 00f1 993d 82ad 393d e1a2 1bbe
00000350: ca60 0abf 8f35 b0be a784 0f3f 32ee 993e
00000360: c0a5 293f 5b7e 87bd e7d9 eb3e a783 03bd
00000370: 439d 183e 9f40 50be 401e 0ebf 7e27 233f
00000380: 48be 823d 7e6c 25bd 6bdb 4cbd a08c 95be
00000390: e871 95be 622d 2bbe 1c58 063e 5508 203d
000003a0: 83c0 3c3d 5db2 14be 791a 6cbe 6be6 883b
000003b0: 5e2e 9a3e f941 10bd ca22 943e e52a 91bd
000003c0: 0924 90be 0802 0f3e 74ba c2be f165 a53d
000003d0: 3760 84bd 4ea3 663e de96 2bbd 441c cf3a
000003e0: f0ea 963e adad f83d 7b33 4e3c aff5 f3bd
000003f0: 353f b5be b4e7 b93c 87b2 babd 3877 513e
-0.21649039 -0.07373636 -0.21034819 -0.19288184 -0.07088783 -0.16703545 -0.056652885 0.27976245
-0.11485478 -0.05258333 -0.015109285 0.1016861 -0.105342716 -0.15606205 -0.05994539 -0.07889494
0.029837824 -0.06272019 -0.11384125 -0.18610357 0.1598841 0.14326282 0.17817637 -0.01062705
0.14074495 -0.08803045 -0.06915851 0.07963273 -0.002689981 0.2766845 0.081139736 0.03833806
0.15276489 -0.12552169 0.081874385 0.013886998 -0.20231594 -0.10035459 -0.15953182 0.1398047
0.010189801 0.36729768 -0.07494095 -0.14518285 0.04677577 0.36136264 -0.018101795 0.21129352
0.27053443 -0.3005683 -0.10341802 0.012993278 -0.14658684 -0.11589133 0.1331488 0.07527047
-0.16087508 0.35453272 0.1868345 0.030305406 0.17180453 -0.050509386 0.12997794 0.02045764
0.256152 0.015280758 0.06468941 -0.09217171 0.041549582 -0.026863426 -0.015215622 0.113056995
0.43475765 -0.03147948 0.3555966 0.3154799 0.036947068 -0.115591496 -0.16925406 0.4608819
0.029187178 -0.203339 0.07099457 -0.0006737074 0.14492266 0.0010680961 -0.2910032 -0.025344819
-0.26568174 0.17589304 -0.13361478 0.012244782 -0.088987194 0.03740858 0.5262564 -0.08823806
0.38444296 -0.25251785 1.2406816 0.22263256 0.41208363 0.55460757 -1.0600667 0.40365267
0.7823116 1.1739329 0.09274173 -0.028046548 1.0050408 0.7159695 -1.3161267 1.2262381
1.0321536 -1.0554514 1.2193551 -1.2576128 0.40022698 -1.0222212 -0.4956 0.63949436
-0.5712559 0.9850966 -0.055323046 0.25702202 0.20644894 0.9854456 0.8783367 -0.61006355
0.4930542 0.48222136 -0.6105725 0.49710277 0.10304228 0.5093219 0.69355685 -0.12531261
-0.2700027 0.1941759 0.19295888 -0.24986978 -0.7456217 -0.73427385 -0.35560015 -0.70467824
0.044499226 -0.15113243 0.5892907 -0.52601665 0.2849132 -0.7327471 0.48799717 0.2560394
0.48099223 -0.6843183 -0.21533693 -0.14014813 0.13213767 -0.41393527 -0.13270748 0.5504373
0.54296654 -0.34485704 0.59012425 0.5542663 0.6553058 0.11700571 -0.36293522 0.21277294
0.23960415 0.8669166 0.53491455 0.48683807 0.4982319 0.51592743 -0.8937929 0.52403
0.68117774 -0.81398684 0.7528225 -0.5755042 0.45519543 -0.5642703 -0.68496305 0.3317738
-0.6586117 0.17927043 -0.5401359 0.60906196 0.04093911 0.49302125 0.53132766 -0.6210193
-0.2814771 -0.04363022 -0.25265327 -0.09327786 -0.38156915 0.4675682 -0.22257711 0.1253687
0.07851635 -0.011805598 -0.48152357 -0.0855728 -0.09840054 0.2583013 0.17343283 -0.26819202
0.03579922 0.0751667 0.045331486 -0.15198852 -0.5405394 -0.34415862 0.56061786 0.3006454
0.6626854 -0.06615897 0.46064684 -0.032107975 0.1490374 -0.20337151 -0.5551491 0.63732135
0.063839495 -0.04038667 -0.05001394 -0.2920885 -0.29188466 -0.16716531 0.13119549 0.039070446
0.04608203 -0.14521165 -0.23056974 0.0041778586 0.301135 -0.035219166 0.28932792 -0.070882596
-0.28152493 0.13965619 -0.38032877 0.080760844 -0.06463664 0.22523233 -0.041891925 0.001580127
0.29476118 0.12142501 0.012585516 -0.11912095 -0.35399786 0.022693492 -0.09116083 0.20455635

rnn.bias_ih_l0 f4 [32]
00000000: ef16 373e c493 c5bd 4e0a 503d f454 7b3f
00000010: 396b 0e3f 026b 273f 1d57 2d3e c97a 94bd
00000020: 9bd9 773e 05d8 833e 4a10 83bc 851d f43c
00000030: 5843 78be 7462 99be d3c6 e6be 8bac a03d
00000040: 7030 1d3f 6be0 f3be 8a05 563e c732 663f
00000050: 5028 d13d 667e 42bd a24c b0bd defa f33d
00000060: e15f 34be f93e 53be 91e7 0b3e 26de 56bd
00000070: aadd 203f 5cbd ce3d 26ba 813c 585c bfbe
0.17879842 -0.09647325 0.050791077 0.98176503 0.5563236 0.65397656 0.16927762 -0.07249982
0.24204104 0.25750747 -0.015998978 0.029799232 -0.2424444 -0.29957926 -0.45073566 0.0784541
0.61402035 -0.47632155 0.2090055 0.8992123 0.10212767 -0.047483824 -0.086083665 0.119130835
-0.176147 -0.20629491 0.13662554 -0.05245795 0.6283823 0.10094711 0.015835833 -0.3737514

rnn.bias_hh_l0 f4 [32]
00000000: 58b3 1e3e 7796 1cbd 6030 0e3e c73c a53f
00000010: fae1 153f e0a8 513f f251 4a3e e0cd 193b
00000020: 4548 923d 44d2 833e e3d0 2ebe ebbd a03d
00000030: 3890 f9bd 6b7a b2bd 6545 ecbe e8a8 103e
00000040: 1440 1a3f 33cd 9cbe 2bc6 a33e 1b79 1e3f
00000050: f434 58bd d896 e43a a1c1 81be 6d16 40bd
00000060: ce8a 08be 119e 39be d0b2 7f3e 0e7b 29be
00000070: c3ea 193f 5392 7c3e fc7a a1be d6f9 13be
0.15498102 -0.038229432 0.13885641 1.2909173 0.5854794 0.8189831 0.19757822 0.0023468658
0.071426906 0.25746357 -0.17071871 0.07848724 -0.12185711 -0.087147556 -0.46146694 0.14126933
0.60254025 -0.30625305 0.31987128 0.6190354 -0.052784875 0.0017439974 -0.2534304 -0.046896387
-0.133342 -0.18126704 0.24970555 -0.16550848 0.6012384 0.24665193 -0.31539142 -0.14450774

fc.weight f4 [2, 32]
00000000: bdda 7b3e 240b fabd eb1f db3b 9a0c f5bf
00000010: 3672 33be b1d4 0abe 617c 3c3e b67c 0fbe
00000020: 9bb8 c93d 70c2 9b3d 6c1d e23d ee2d 62be
00000030: e9af 31be 86b3 eabd bddd ccbe 1aed e93b
00000040: ecca 9cbe f0a3 323d 12e2 083f 1e4c 57c0
00000050: a860 f8ba 57a5 1ebf de20 d23c f039 853e
00000060: 9247 543d 78ca 87be 4033 003e 147a 60be
00000070: 1a61 b93e 3ef6 d53c 531e 7d3e 9503 9e3e
00000080: 4571 50be 6183 eabd e383 ba3d 75bc e53f
00000090: 9ad4 973d 3015 c33e 245b e9bd 20c8 2f3d
000000a0: 02b3 2dbe 2a0c 7ebe 7919 0fbe 3cdc a03c
000000b0: 2a4f a63d f0f1 fa3c b98c 033f 857c 22bd
000000c0: b7da b23e 34a5 45bd c10b 1bbf 7dd7 4e40
000000d0: 1bee 1ebe 4d2f 383f eb38 3dbe c01c c6be
000000e0: fdfc 45be 96ed 083e c99c bb3d bada 86bd
000000f0: da24 09be b83b 5d3e 41c8 f2bd d912 8dbe
0.24595161 -0.12209156 0.0066871545 -1.9144471 -0.17524037 -0.13557698 0.18406822 -0.14012417
0.09849664 0.076054454 0.11040768 -0.22087833 -0.1735226 -0.11460023 -0.40012923 0.0071388604
-0.30623567 0.043613374 0.53469956 -3.3640208 -0.0018949704 -0.6197104 0.025650438 0.26020765
0.051826067 -0.2652166 0.1251955 -0.21921569 0.36206895 0.026118394 0.24718599 0.30862108
-0.20355709 -0.1145084 0.09107187 1.7948138 0.074135974 0.38102102 -0.11394337 0.042915463
-0.16962817 -0.24809328 -0.13974561 0.019636266 0.08120568 0.030632943 0.513866 -0.039669532
0.3493249 -0.048253253 -0.6056481 3.2319024 -0.15520518 0.71947175 -0.18478744 -0.3869381
-0.19334789 0.13371882 0.09160764 -0.065846875 -0.13392964 0.21604812 -0.11854602 -0.27553442

fc.bias f4 [2]
00000000: c99c 433f 0194 69bf
0.7641111 -0.9124146
