detector/models/best/32_1_32_5_256_0.001_covert_detector_3.pth (torch, 8445 bytes, 6 tensors)

rnn.weight_ih_l0 f4 [32, 3]
000000 20 f1 cd bd fb 33 10 bc 2a 41 df bd 61 a8 34 be
       -0.100557566 -0.008801456 -0.10901101 -0.17642356
000010 a2 98 87 3a dd 98 d6 be af 95 83 3a 58 8e 4a 3c
       0.0010345171 -0.419135 0.0010039116 0.012363039
000020 d0 03 4e 3d 74 d5 2c be 0e 84 8c be 26 69 b4 3d
       0.050296605 -0.16878301 -0.274445 0.08809118
000030 e1 20 2b 3e b2 82 9d bc 85 fd 50 3d 33 51 05 3e
       0.16711761 -0.01922736 0.051023025 0.13019256
000040 1d a4 93 3c 3f 62 1c 3e 2a 60 63 3e 9b 8e a0 3c
       0.018022591 0.15271853 0.22204652 0.01959925
000050 fb 10 6f 3e e5 17 8a be d6 9a ad bc ce 2a 38 bc
       0.23346321 -0.26971355 -0.021191996 -0.011240674
000060 d1 d2 53 3d af b5 9c bc f1 b9 9b bd 6f 22 e3 3e
       0.051714722 -0.019129602 -0.07603825 0.44362208
000070 97 4b df 3b be ae a7 3e 2f 1c 95 3d 08 a7 ae bc
       0.006814431 0.32750505 0.07280766 -0.021319881
000080 d6 ee 12 bc f6 34 8b bd 62 8a c5 bc 64 a9 8b bc
       -0.008968076 -0.06797211 -0.024113838 -0.017048545
000090 02 ea a0 3b 91 28 7e 3c f5 ea 96 3e d1 59 52 3e
       0.0049107084 0.0155126015 0.29476133 0.20542075
0000a0 78 1c 99 3c 1f 36 d5 3d d9 7d 18 be a8 45 cb 3c
       0.018690333 0.104107134 -0.14891757 0.024813488
0000b0 e5 c4 e4 3d e1 0e b9 3d 6d 1f 54 3e 96 f4 15 3e
       0.11170367 0.09036041 0.20715113 0.14644083
0000c0 55 0d 68 be dd e5 51 bc 4b 37 df bd 43 44 ed bd
       -0.22661336 -0.012811151 -0.10899218 -0.115852855
0000d0 65 6c 9d bc fa f3 3b 3d bc df 2c 3e 44 a5 bd 3c
       -0.019216726 0.04588697 0.16882223 0.023150094
0000e0 1f da 30 bc 69 65 59 3b 0a f8 c2 bc 17 fa 7e bd
       -0.010794192 0.0033172017 -0.023799915 -0.062250223
0000f0 0a 8c 6b 3e 86 65 94 3e fa 53 c4 3d 50 b7 60 bd
       0.2300264 0.28983706 0.0958633 -0.05486232
000100 34 48 f6 3b 2c 81 72 3d 4e 85 06 3e 65 9e 42 3c
       0.0075159315 0.05920522 0.13136789 0.0118785845
000110 72 1f a3 3d 9c 3a be 3d 00 0e f0 3b fb 65 ac 3e
       0.07964982 0.092885226 0.0073258877 0.33671555
000120 0c c4 12 bb 97 7f 86 bc b9 c4 39 bd 17 9a df bc
       -0.0022394685 -0.016418261 -0.045353625 -0.027295155
000130 de 8d 9c bc 02 b1 c3 bc 30 c7 d6 bd 82 1f 70 bc
       -0.019110616 -0.023888115 -0.10487211 -0.01465595
000140 17 f8 39 be 64 a6 45 3e a9 3c b4 3c 96 f9 44 3e
       -0.18161045 0.19301754 0.022001581 0.19235834
000150 b3 99 d1 3e c3 a3 d8 ba d3 fa aa 3e 91 36 9d 3c
       0.40937576 -0.0016528297 0.3339449 0.019191058
000160 a1 d9 38 3c a4 5c 9a 3e c4 1b c4 3d 26 8c a1 3c
       0.0112823555 0.30148804 0.095756084 0.019720148
000170 1e 62 c1 3c 14 2f a2 3e 0a 1d 26 3c 9c ba 89 3e
       0.023606356 0.31676543 0.010138759 0.26900184

rnn.weight_hh_l0 f4 [32, 32]
000000 03 14 b5 3e 2e 66 56 3d a4 6f 3b 3e 99 2b 4f 3e
       0.3536683 0.05234354 0.18304306 0.20231475
000010 1a 0c 87 3d ba 29 9b bd 06 c9 52 be 7d 46 d9 bd
       0.06594105 -0.07576318 -0.20584497 -0.10609148
000020 a6 4c 12 3c cd 50 83 b9 90 2e 18 3e 91 c7 a1 bd
       0.008929407 -0.00025046468 0.14861512 -0.078993924
000030 98 60 02 3d bd 7f 00 bd 94 78 ec 3d 45 07 47 be
       0.0318304 -0.03137182 0.11546436 -0.19436367
000040 b2 c2 98 bd 48 96 26 be 76 ec 3f 3e c5 9b 34 be
       -0.0745901 -0.16268265 0.18742546 -0.17637546
000050 43 a0 d3 be e1 32 b0 3d 85 dd 42 be 3b 5a 97 bd
       -0.41333207 0.086034544 -0.19029815 -0.07390257
000060 a3 0e db 3d 8e cd 0f bb 07 96 5b bd 20 e4 48 3e
       0.10696151 -0.0021942589 -0.053609874 0.19618273
000070 05 75 d4 3d ad 91 a3 3d 64 d9 30 bd 03 b6 0a 3e
       0.10373882 0.0798677 -0.04317607 0.13545994
000080 66 86 80 3e 2a 76 cf be 7a 33 ac bd bf b3 8f 3e
       0.25102538 -0.4051984 -0.08408256 0.28066823
000090 ca 85 13 3f 16 0d 1c bf 5c f0 60 3e cd 81 c3 3e
       0.5762602 -0.6095747 0.2196669 0.38184968
0000a0 70 d7 e9 3e 08 df 8f be c6 d9 05 3f 84 57 d6 3e
       0.45672178 -0.28099847 0.5228542 0.41863644
0000b0 ac 2b c6 be 4c 3d 98 3d ac 60 3f bd b1 44 c7 be
       -0.38705194 0.074335665 -0.046723053 -0.38919595
0000c0 e8 68 8f 3e 8b 32 19 3f c7 cf 03 bf 45 d5 d1 3d
       0.28009725 0.5984275 -0.5148892 0.10245756
0000d0 26 f1 fa be 72 5c cc be 82 c9 d2 be d8 48 40 3e
       -0.49012107 -0.3991428 -0.41169363 0.18777788
0000e0 25 72 87 3e 38 38 0a 3f 6f 9d 0a 3f 6b 5d fb be
       0.26454273 0.53992033 0.54146475 -0.4909471
0000f0 d0 4d f5 be 39 0e 20 bf 36 4a 02 bf 06 33 d1 be
       -0.4791093 -0.625217 -0.50894487 -0.4085924
000100 1b f7 80 be 00 1d 88 bd 15 de a0 3d da ea 8f 3d
       -0.25188527 -0.06646156 0.07854859 0.07027216
000110 d7 77 a9 be 5a 1a d2 3d d5 45 a7 be 2b 93 61 bc
       -0.33099243 0.102589324 -0.32670465 -0.013767998
000120 f6 b9 97 be ac 10 c4 3d 46 90 08 be fc 4d 43 bc
       -0.29634064 0.095734924 -0.13336286 -0.011920448
000130 b0 17 2b 3d 50 ff 33 bd a9 7e 83 bd 21 af 52 be
       0.041770637 -0.043944657 -0.06420643 -0.20574619
000140 d7 05 25 be d0 84 0b be a9 71 9d 3e 4c c9 fe bd
       -0.16115509 -0.13624883 0.30750778 -0.12440738
000150 4b 48 e5 bd 12 b3 06 3e 6b 08 dd 3d 87 d0 42 bd
       -0.111954294 0.13154247 0.10792621 -0.04756215
000160 10 71 3b 3e c7 2a 61 be 06 ff 20 bc c6 b9 12 3e
       0.18304849 -0.21988975 -0.009826427 0.1432868
000170 12 ab 8a bc 03 07 ef bd 76 4c 3c 3e c8 5a 0a 3d
       -0.016927276 -0.11671259 0.18388543 0.033777982
000180 34 73 bc 3c 0c 98 ec 3d df fe f4 bd 19 2d 02 3e
       0.023004152 0.11552438 -0.11962675 0.12712516
000190 9c 38 ca 3d b6 1b 74 3d 5c 1e 11 be 8a 13 93 3c
       0.09874079 0.05959674 -0.14171737 0.017953653
0001a0 ea d6 ba bd e9 dc 4e bd 8e ec bf 3d d8 c0 73 3d
       -0.09123023 -0.050503645 0.09371291 0.059510082
0001b0 8e 92 29 bd 31 c1 e6 3d 04 64 aa bc ef ae 02 bd
       -0.04139953 0.11267317 -0.020799644 -0.03190511
0001c0 ea e5 95 bd 39 3a 27 3e 1e 17 18 3e 99 aa 3d be
       -0.07319243 0.16330804 0.14852569 -0.18522109
0001d0 96 a9 a5 bd c1 cb 25 be c2 da b7 bd 1b bb b6 3c
       -0.080889866 -0.16191007 -0.089772716 0.022306016
0001e0 6f 39 89 be 0e ed ba 3d bc 31 2b 3e 52 81 95 bc
       -0.2680163 0.09127246 0.16718191 -0.018250141
0001f0 dd 9b b8 3d 28 07 fa bd 77 0d 1d bd 27 e1 12 be
       0.090141036 -0.12208396 -0.03834292 -0.14343701
000200 ce 5f 6c 3d 86 8c 82 be 0c 9c f8 bc 7e af 16 3e
       0.057708554 -0.25497836 -0.030347846 0.14715382
000210 c3 b0 c3 bd b5 e6 e3 bd 63 dd 03 3e e1 e8 02 3e
       -0.09555199 -0.11127988 0.12877421 0.12784149
000220 06 38 f2 3d 2b af 7d 3c 95 47 1e bb 22 22 52 be
       0.11827092 0.015483658 -0.0024151553 -0.20520833
000230 58 2f d9 bd 5a 40 19 bc ec f5 9d 3d 53 d4 70 3c
       -0.10604733 -0.0093537215 0.077129215 0.01469906
000240 2f 9e 5f 3e 43 6b c4 3d 53 d8 ab 3d 05 49 09 be
       0.21837686 0.09590771 0.0839087 -0.13406761
000250 d7 71 2d bd 16 8c 33 3d 16 24 9d bd 3c 91 dc 3d
       -0.042344894 0.04383477 -0.076728985 0.10769889
000260 1b 65 1c be 79 73 0c 3d 35 5e 69 3e 57 8a bd bc
       -0.15272944 0.03428981 0.22789843 -0.023137255
000270 e4 a0 37 3e 8f 06 06 3e f9 67 3c be 39 b2 6c bd
       0.17932469 0.1308844 -0.18399037 -0.057787154
000280 82 80 08 bc a3 c2 70 3e 9c 09 21 be c8 4f a7 bd
       -0.00833142 0.23511748 -0.15726322 -0.08169514
000290 44 81 27 be 70 af dc 3c 18 2c 80 be 33 63 d6 bc
       -0.16357905 0.026939124 -0.2503364 -0.026170349
0002a0 fa d0 86 be 17 16 dc 3c 8e cc 4f be 24 fd 63 3e
       -0.2633131 0.026866002 -0.20292875 0.22264534
0002b0 c9 12 5f 3e 67 48 21 be fe 50 43 be 65 e8 dc bb
       0.2178451 -0.15750276 -0.19073865 -0.006741571
0002c0 85 e4 90 be 37 2a 80 be 7b b5 6b 3e f9 48 4d 3d
       -0.28299347 -0.25032207 0.23018448 0.05011842
0002d0 f4 1c e4 3d 8d f4 23 3e 05 13 03 bc ef 00 40 be
       0.11138335 0.16011257 -0.00800014 -0.18750356
0002e0 17 43 0b bd 13 d3 9c be 46 33 44 be de d2 02 3e
       -0.03399953 -0.30629787 -0.19160184 0.12775752
0002f0 7d 7b 1e be 39 ab 2b bc 32 68 b2 3c 06 bd 87 3e
       -0.15476795 -0.010477834 0.0217782 0.265114
000300 03 e1 97 3d 42 bc 79 be 62 b8 4a 3c 2d 2a f5 bc
       0.074159645 -0.24388221 0.012373062 -0.029927338
000310 74 88 7b be ed 45 e9 3d c9 10 a6 3d c0 80 5f be
       -0.24563771 0.113902904 0.0810867 -0.21826458
000320 2b 6a 4b bd 83 13 5b 3e 3e 7b 15 bd 30 65 ad bd
       -0.049661797 0.21394162 -0.036494486 -0.084665656
000330 d3 c5 69 bd 14 83 85 bd 56 a8 84 3e 6d 20 c7 ba
       -0.057073426 -0.06519142 0.2590968 -0.0015192159
000340 9e 09 6e 3d a5 1f 97 be a9 ca 01 3e 5a a5 dd 3c
       0.05811464 -0.2951633 0.12674965 0.027056385
000350 73 a7 0c bb d6 ad 38 3e 3f 96 1b 3d f1 c8 8f 3e
       -0.0021462112 0.18035063 0.037985083 0.28082994
000360 9b 4b af bd 9a 28 c3 bd 86 67 2f 3d ad 66 44 3e
       -0.085593425 -0.095292285 0.042823337 0.19179793
000370 33 ff 1f 3e 79 8f 98 3e 27 ca 20 3e 54 e1 85 3e
       0.15624695 0.2979696 0.15702115 0.26148474
000380 a3 b0 b4 3e 56 c3 ac bd 82 84 a6 3e 72 41 aa 3b
       0.35291013 -0.08435695 0.3252297 0.00519579
000390 20 6c 16 3b 89 65 c3 bd f2 b0 9c 3e 55 e1 77 be
       0.002295263 -0.09540851 0.3060375 -0.24207051
0003a0 b2 bc 69 3e 5c 2e 4e be be 8f bc 3d 6f f9 cd bc
       0.22825888 -0.20134872 0.09207104 -0.025143353
0003b0 b0 3e be be 24 26 ea 3d 93 d5 98 3e ee 3a 3d be
       -0.37157202 0.11433056 0.29850444 -0.18479511
0003c0 9c 64 02 3e 2e 4b 3c bd c5 f5 ee 3d 3f 24 cf 3c
       0.12733692 -0.045970134 0.116679706 0.025285838
0003d0 4c ba 5f be 53 c6 1e be bd 3f 64 be be 9e a7 3d
       -0.2184841 -0.15505342 -0.22289939 0.081845745
0003e0 c4 4c 65 bd 02 2f 84 3d bf fa 04 3e 82 5d 1b 3e
       -0.055981413 0.064542785 0.12986277 0.15172389
0003f0 f6 5c 45 3e 2e d5 8d 3e 0c 24 d1 bd d4 b8 26 be
       0.19273743 0.27701706 -0.102119535 -0.16281444

rnn.bias_ih_l0 f4 [32]
000000 e1 db 0a be 14 df 71 be 57 d8 3c 3c 0b 99 07 be
       -0.1356044 -0.23620254 0.011526189 -0.13241975
000010 20 f6 28 3e dc ed d2 bc 60 16 1d bd 47 97 14 3c
       0.16500139 -0.025748186 -0.038351417 0.00906927
000020 fb 03 9a 3d 1d 6c e3 3e 68 39 75 3b 78 81 b3 bc
       0.075202905 0.4441842 0.003741825 -0.021912321
000030 e9 35 b7 3d 41 7d 59 3e 0f a0 17 be 21 d8 82 3e
       0.089458294 0.21239187 -0.14807151 0.25555518
000040 d8 22 91 bd 5f dc 3a be b7 76 df 3c c0 3d f8 3d
       -0.07086724 -0.18248127 0.027278287 0.12121153
000050 16 78 1d 3e 10 c5 5a 3e 3f 38 af 3e 95 32 f0 3c
       0.1537784 0.21364236 0.342226 0.029320994
000060 44 0d 8f bd e6 eb 07 be 4e ff 8e be 54 5f 98 bd
       -0.06984952 -0.13273582 -0.27929157 -0.074400574
000070 47 4a 1e 3f 09 e6 52 3e 58 0d 42 3d f5 25 2a 3e
       0.6183209 0.20595564 0.047376007 0.16616042

rnn.bias_hh_l0 f4 [32]
000000 31 3f ba bd 48 58 f5 be 14 3c 18 be 44 be 9c bd
       -0.09094084 -0.47918916 -0.14866668 -0.07653478
000010 eb 75 94 3d e5 1b 07 be 7e 56 59 3e fc 20 9c 3d
       0.072490536 -0.13194235 0.212244 0.07623479
000020 88 9d 82 bd b5 4b c9 3e b1 a3 8a bd 55 c2 c6 3d
       -0.06377703 0.39315572 -0.06769503 0.09705035
000030 67 45 2b 3e 70 d1 e9 bd 02 18 8a bc a7 e2 a5 3d
       0.16725694 -0.114169 -0.016857151 0.08099871
000040 8b 1c b6 bd d9 af 1c be 3e 0b 63 bd 8d 18 13 be
       -0.08892163 -0.15301456 -0.055430643 -0.14364834
000050 90 f8 27 3c 46 b0 46 3e 0a 89 c2 3e 5e 67 ee 3d
       0.010252133 0.1940318 0.37995178 0.116408095
000060 89 e2 a2 be 95 c1 f7 bd df e8 9f bd 3b 6a 7d 3d
       -0.31813458 -0.1209747 -0.078080885 0.061868887
000070 9e c1 cc 3e b6 d8 69 3e d6 ee 58 3e fd 28 b5 3e
       0.39991468 0.22836575 0.21184859 0.35382834

fc.weight f4 [2, 32]
000000 fa 6e 13 3c 2d 65 a8 3e c4 bc 09 bd 7b 1d e6 bd
       0.008998627 0.3288969 -0.033627287 -0.11236092
000010 02 b3 85 3d f3 92 96 bd 3a ce cc bd 16 70 38 3e
       0.06528284 -0.07352247 -0.10000272 0.18011507
000020 a9 2e 11 3d 11 12 8b be a1 6a 61 be c1 4d 9c 3d
       0.03544489 -0.2716222 -0.22013332 0.07632018
000030 b8 e4 71 3d 50 79 01 3c bc 5f 03 be fb 83 e0 3d
       0.059056014 0.007902458 -0.12829489 0.10962673
000040 46 64 8e 3b b9 47 5b 3c 48 df 04 bc 4f b6 37 3d
       0.0043454496 0.013383799 -0.008109875 0.044851597
000050 6b 92 1b 3e 9c 35 36 3c 5d 8d d5 3c d3 2b 58 be
       0.15192573 0.01112118 0.026068384 -0.21110468
000060 2b 6d 7c bd 33 23 cf bd 1d 5e 52 3c 1c 23 a0 bd
       -0.06162755 -0.101141356 0.012839821 -0.078191966
000070 ac fa b1 bf e2 b1 d6 bd cf dc 28 bc 3a 67 c7 bd
       -1.3904624 -0.10483147 -0.010306551 -0.09736486
000080 cc dc a8 3d 7e 11 60 be a4 2a 85 3d 09 a4 38 3e
       0.08245239 -0.21881673 0.06502274 0.18031324
000090 35 94 fa 3d ca 15 c3 3a 53 dd c3 3c 43 84 f0 3d
       0.122352995 0.0014883813 0.023909247 0.11743977
0000a0 61 a0 dd bb 26 b3 9e 3d f4 5f d9 bb 3a 8c 1e bd
       -0.0067635034 0.077490136 -0.006633753 -0.03870795
0000b0 20 af 98 bd 9c db 0b 3e f5 a6 c0 3c b0 93 6d be
       -0.074552774 0.13657993 0.023517111 -0.2320087
0000c0 c2 cf 9c 3d 70 91 70 bd 1f ff ff 3d a8 92 25 be
       0.07656814 -0.05873245 0.12499832 -0.16169226
0000d0 41 09 3e be 61 c1 95 3c 33 83 d4 3c f1 ca 58 3d
       -0.18558218 0.018280687 0.025941467 0.052927915
0000e0 bc 41 2c be 32 82 a9 bd ca 53 94 3d 05 a5 12 3c
       -0.1682195 -0.08276786 0.07242544 0.008950477
0000f0 75 f8 95 3f 41 87 0e 3e c8 0d 62 bc 7a b8 9e 3d
       1.1716448 0.13918783 -0.013797231 0.0775003

fc.bias f4 [2]
000000 9c bc 10 3e 8a 3b c0 be
       0.14134449 -0.37545425
