detector/models/128_1_128_5_32_0.001_covert_detector_5.pth (torch, 72585 bytes, 6 tensors)

rnn.weight_ih_l0 f4 [128, 3]
000000 ab 52 5a bd 7e 07 d7 bd e4 c3 90 bd 1d 9c 7d bc
       -0.053301495 -0.10499476 -0.07068613 -0.015479115
000010 93 81 b4 3d 15 69 d1 3c 25 bf 29 bd d9 69 cb bd
       0.08813777 0.025562802 -0.041442055 -0.09932298
000020 7d 19 76 bd 6a 1c 43 bc fa bb 2a 3d 3b 1e 36 3d
       -0.0600829 -0.01190863 0.041683175 0.044462424
000030 ba 60 4e 3d ba cb b5 3d d9 51 f3 3d 8b 40 5e bd
       0.050385214 0.088767484 0.118808456 -0.05426077
000040 86 fc 95 3c 16 80 9a 3c b7 17 98 3d 25 0d e2 3d
       0.01830889 0.018859904 0.07426398 0.11037663
000050 4d e3 94 3d 96 8d 3d be fa a2 8e 3a bc 26 b2 bd
       0.07269917 -0.18511042 0.0010882311 -0.08698794
000060 2f 2a a7 bd 11 2c 70 bd 7d ab 46 bd 86 1a 99 bb
       -0.08162343 -0.058635775 -0.048503388 -0.0046723513
000070 40 1c 98 3c 14 1f e7 3d bc 8d 6a bc ae ec 85 3d
       0.018568158 0.112852246 -0.014316019 0.06539284
000080 76 8b a7 3c bc 3b 29 3c ea 38 46 3a 6c 1b 99 bd
       0.020452242 0.010329183 0.00075615814 -0.074759334
000090 4f 9c f7 bd 47 85 cb bd 0a af bf bd 2c 42 ec 3b
       -0.120903604 -0.0993753 -0.09359558 0.0072100367
0000a0 d8 b3 08 bd 6d fc f2 3c 90 49 9b 3c 8c a2 4f 3d
       -0.033374637 0.029661382 0.018955976 0.050692126
0000b0 38 cf c2 3d cf 16 23 3e 84 4a 83 ba 19 06 12 3d
       0.0951218 0.1592667 -0.0010016714 0.035650346
0000c0 6a 63 ec 3d 4b e2 2a 3c 1a 94 dc 3d e1 36 2b 3d
       0.11542399 0.010429929 0.10770436 0.041800383
0000d0 da 62 e6 3b 32 8a aa 3a 5b b0 8a bd 90 3d 5a 3a
       0.007030827 0.0013011156 -0.067719184 0.00083252136
0000e0 6b eb e9 bd 1d 07 2a bd cc e7 20 bd eb f6 35 3d
       -0.114218555 -0.04151069 -0.03928356 0.044424932
0000f0 39 6d 98 3c 94 53 14 3c 8f 2e eb 3d 6f 62 a3 3c
       0.018606769 0.00905313 0.1148349 0.019944398
000100 57 ed 2d 3c 00 30 99 3d 32 49 25 3d 4a fb cc 3c
       0.010615668 0.074798584 0.040353008 0.025022168
000110 5b 56 13 bd 93 5b f7 bb 96 d7 99 bd 9d 42 2d 3c
       -0.035971027 -0.0075487583 -0.07511823 0.010574964
000120 06 6f 43 3d 89 21 19 bc be 06 ef 3b 60 70 22 bd
       0.047713302 -0.009346374 0.007294505 -0.03965795
000130 41 bb bd 3d b9 80 7c 3d a0 f8 1a bc 9a 9e 0e 3d
       0.092642315 0.061646197 -0.009458691 0.034819223
000140 d7 a4 48 bd e6 1b 65 bd 6e ef d0 3d 8c 40 3d 3d
       -0.04898533 -0.05593481 0.102019176 0.046204135
000150 6d 29 39 bc 02 f8 a1 bd 83 85 75 3b 1c 9c 0f bd
       -0.011301381 -0.07908632 0.0037463612 -0.035060987
000160 77 5f 3c bc 84 2d 01 be 5a 4a 2c 3d d1 99 a9 bd
       -0.01149737 -0.12615019 0.042063095 -0.08281291
000170 ea 54 b4 bd 56 59 e0 bd 00 4e 83 3a d2 f5 2d bd
       -0.088052586 -0.109545395 0.0010017753 -0.04247076
000180 cf 17 ca bc 14 4e 3d 3d b2 28 11 3d 36 aa 2f 3d
       -0.024669556 0.04621704 0.0354392 0.042886935
000190 10 cb 88 3d e8 ad e3 3a 16 63 e3 3b 73 e4 b9 bd
       0.06679356 0.0017370554 0.006939302 -0.09076776
0001a0 77 ba ac bd c1 8c 4f 3a 72 e0 6b bd 08 9b db bd
       -0.08434003 0.00079173973 -0.057587095 -0.10722929
0001b0 ae 59 63 3a 19 7c 31 3c 6e 73 00 3d 55 94 b5 bd
       0.0008672726 0.01083281 0.031360082 -0.08866183
0001c0 99 4d 14 bd fd c6 9f 3c d3 3c 34 bd 1e 73 d5 3b
       -0.036206815 0.019504065 -0.04400332 0.006513967
0001d0 79 7a 27 bd 77 fd c5 3d 66 ac b2 3d 2a 94 16 bd
       -0.040888283 0.09667485 0.08724289 -0.036762394
0001e0 d3 b2 07 bd 78 8e b1 3c 3a 84 b1 3d e0 84 9b bd
       -0.033129524 0.02167438 0.08667798 -0.07593703
0001f0 9b eb 56 bc 22 fd 43 bd 49 39 56 bd fe 76 03 bc
       -0.013117696 -0.047848828 -0.052300725 -0.008023975
000200 9d b8 cb bd 71 90 2c 3d 6a 58 9b 3c 72 77 f5 3d
       -0.099473216 0.042129938 0.018963058 0.11985673
000210 c7 77 45 3d 8b f9 b3 3c 24 93 c7 3c 9f 5e 66 3c
       0.04820993 0.021969577 0.024362154 0.014060645
000220 70 6d a6 bd 4e 22 aa bd 5e 27 8c 3a 23 cd d0 3d
       -0.08126342 -0.08307324 0.0010692885 0.10195377
000230 01 f8 31 bc 55 94 63 bb f0 b9 8d 3a 2f 1a d0 bc
       -0.010862351 -0.0034725864 0.001081286 -0.02540311
000240 ad 23 46 bc 0e de e8 3d e9 c4 3d bd 65 8f 3e 3d
       -0.012093467 0.113704786 -0.046330366 0.04652347
000250 03 30 3f 3d d5 a6 a8 3d f0 9d bc bd 13 4e e1 bd
       0.046676647 0.08234946 -0.09209812 -0.110012196
000260 76 2c 03 3d 45 57 43 bd a9 69 a2 3d 6d 58 ef 3d
       0.032024823 -0.04769065 0.07930309 0.11686788
000270 f1 33 ed 3d 5e 5b 53 3c f7 93 55 bc b1 9c b9 3d
       0.11582173 0.012900202 -0.013035766 0.0906309
000280 28 7e c3 3d 51 9e 2a 3d 70 4e 0f bd 97 25 62 3a
       0.09545547 0.04165489 -0.034986913 0.0008626817
000290 50 03 33 bd f0 f4 d6 bc 7d 7e 22 bc 10 4f 06 3d
       -0.04370433 -0.026239842 -0.0099178525 0.032790244
0002a0 02 86 1e bd c1 34 a2 3d 43 56 d7 3d da 7e 2c 3c
       -0.03870202 0.07920218 0.105145 0.010528291
0002b0 31 a7 53 3c 29 8b b5 bc b1 cb 1e be 08 69 a9 3a
       0.0129182795 -0.022161083 -0.1550739 0.0012924979
0002c0 c0 37 57 bd 36 e7 a0 3b 81 3e bf 3d 73 f8 c1 3d
       -0.0525434 0.004910375 0.093380935 0.09471216
0002d0 ee a2 eb bd c8 66 85 bd b0 19 20 bd 31 1c 33 bd
       -0.11505686 -0.065137446 -0.039086998 -0.043728057
0002e0 8c 0e c5 bd 6f 76 d3 bd 47 36 03 bd 41 17 ab 3c
       -0.09621915 -0.10325324 -0.032034185 0.020885112
0002f0 15 6b 1f bd 48 19 c1 bd 17 5d 8d bc 9a ea 14 bd
       -0.03892048 -0.0942865 -0.017256303 -0.036356546
000300 18 2c 4f bd 54 a8 ae bc 74 60 ca 3c a5 c6 32 3d
       -0.05057916 -0.0213205 0.024704196 0.043646473
000310 e7 8b fa 3d 3e 30 38 bd c1 1d ba 3b 15 66 e6 bd
       0.122337155 -0.044967882 0.0056798165 -0.11249939
000320 ce e9 99 ba c0 a4 45 bd 79 f2 f0 3d e9 c0 be 3c
       -0.0011742653 -0.04825282 0.11764998 0.023285346
000330 19 3b aa 3d 5f 8f 9c 3c e1 bf 0e 3e 21 1a 16 bd
       0.08312053 0.019111333 0.13940383 -0.036646012
000340 26 c7 16 3d 7d b2 b0 bb 23 63 a0 bc 06 50 d5 3d
       0.036811016 -0.005392371 -0.019578522 0.10415654
000350 9b 9f 74 3c a4 3b d9 3d d2 a7 e2 3d 0f 11 1d 3d
       0.014930631 0.10607079 0.110671654 0.038346346
000360 d8 22 97 39 bf ae 9e bc 36 bf 71 bd 3b e0 f1 3d
       0.00028826925 -0.019370435 -0.059020244 0.11810347
000370 c0 c5 17 3c d9 a3 c2 3d 0b ef 2b bc ba ef 8c 3c
       0.009263456 0.09503908 -0.010494004 0.017204154
000380 28 13 30 bc 01 8e b2 3c ba cb ad bc 35 52 b5 3c
       -0.010746755 0.021796228 -0.021215308 0.022133926
000390 09 e4 19 bd b2 66 0e 3d d5 e5 36 bc 24 53 e6 bd
       -0.037570987 0.034765907 -0.011163195 -0.112463266
0003a0 b7 52 b6 3a 07 c8 84 bd cb 3c 97 3d f4 de fa 3c
       0.0013910149 -0.06483465 0.07384642 0.03062389
0003b0 d2 99 b4 3d ae f7 37 3d 35 26 21 bc c9 42 69 bd
       0.088184014 0.04491394 -0.009835769 -0.056948457
0003c0 ac f4 be bc f6 76 7e bd d4 3d 96 bd 08 41 47 bc
       -0.023310028 -0.06212517 -0.073360115 -0.012161501
0003d0 5b ab 81 3a 22 d2 17 bc 2a a0 41 3c 79 9b 38 bc
       0.0009892987 -0.009266408 0.011817971 -0.011267536
0003e0 d4 99 92 bb 1d ee fe bd 38 e5 58 3a ed 82 08 bc
       -0.004473904 -0.1244776 0.00082739023 -0.008331996
0003f0 26 e8 4b bd 46 b0 b1 3c 41 cc f8 3d 20 be 80 3d
       -0.04978194 0.021690499 0.12148333 0.062862635

rnn.weight_hh_l0 f4 [128, 128]
000000 d1 b1 d3 3d ab f1 b7 ba fa c3 4d bd 4e 11 a7 3c
       0.1033665 -0.0014033815 -0.050235726 0.020393994
000010 d5 ee d2 bc ec 3f 11 bd 02 b2 e7 bd 14 c3 15 3d
       -0.02574865 -0.03546135 -0.11313249 0.036562994
000020 62 cd 33 bd 4d e9 3b 3d 8a 15 0b be fd 41 23 3d
       -0.04389704 0.04587679 -0.13582435 0.039857853
000030 c2 d0 6f 3d 00 e5 79 bd c6 6a b8 bd 26 7f 67 3d
       0.058548696 -0.061009407 -0.090047404 0.056517743
000040 12 c0 b7 bd ed 37 cf bd 1b 3b 84 3d b7 55 08 3b
       -0.089721814 -0.10118089 0.06456586 0.0020803043
000050 d0 7c 11 bd ab 73 e0 bc 62 a9 44 3d bd 0e 53 bb
       -0.03551942 -0.027398905 0.0480131 -0.003220483
000060 30 2f ad bc f6 f6 70 bd 62 54 ff bc 93 13 40 bd
       -0.021140665 -0.05882927 -0.031168167 -0.046893667
000070 b9 8e 35 3d 39 86 b0 3d ba a9 a3 3c c1 d6 6b 3d
       0.044325564 0.08619351 0.019978393 0.057577852
000080 80 69 b9 bc 42 e1 1b bd 0a 90 68 3d e2 ac 1d bd
       -0.022633314 -0.03805662 0.05677799 -0.038494952
000090 7e 6f 06 bd 42 f7 80 3d 55 03 82 bd 98 23 da bd
       -0.03282117 0.06297161 -0.06348292 -0.1065132
0000a0 8b be 86 bd a2 96 75 bd 17 8e 62 bc 36 03 23 3d
       -0.06579312 -0.059958108 -0.013827822 0.039797984
0000b0 93 40 98 bd 38 11 e3 3d ee 90 c9 bc 5f 9c 34 3d
       -0.074341916 0.110872686 -0.02460524 0.04409444
0000c0 b6 95 ee bd 09 e8 65 bd 93 34 f7 bc 1e f8 e7 bd
       -0.11649649 -0.05612949 -0.030176437 -0.113266215
0000d0 50 50 8a bd ff 4d 3b 3b 1d 84 64 3d b1 9f ca 3d
       -0.067536 0.0028580425 0.055790056 0.0989374
0000e0 c8 e9 85 bd c5 88 9c bd 47 60 bb 3d 22 0c a2 bc
       -0.06538731 -0.07643274 0.09149223 -0.019781176
0000f0 1f 9f c2 3d f5 d2 5b bc 2f 67 23 bd 08 18 d4 3c
       0.09503006 -0.013416995 -0.039893325 0.025890365
000100 aa 63 0f 3d a2 ee df 3c a5 18 c1 bc 52 60 6f 3c
       0.035007156 0.027335469 -0.023571322 0.014610367
000110 f5 46 43 3d 05 a6 9a 3b be f2 a4 bc 69 0d bd bd
       0.04767509 0.004719498 -0.02013528 -0.092310734
000120 96 ba 52 3d aa 26 94 bd 4e 47 a5 bd 7c 60 0c 3d
       0.051447473 -0.07233937 -0.08070241 0.034271702
000130 c7 0e a2 bd 84 c0 ab 3c 2e 13 7e 3c 4d 6d 16 bd
       -0.07912975 0.020965822 0.0155075025 -0.03672533
000140 4d aa f0 3d 5f 50 80 3d ae 35 54 bc 09 57 0d bd
       0.11751232 0.062653296 -0.012952251 -0.03450683
000150 4c ca b2 bc 8f c5 64 bd fb 42 bb 3d 4f 1c 0b bd
       -0.021824978 -0.05585247 0.09143635 -0.033962544
000160 57 a4 f7 3d 7d 84 da bc 7e 38 43 3d e2 58 7a bd
       0.12091892 -0.026674503 0.047661297 -0.06111992
000170 bb e3 0c 3d 53 11 9e bc 7c bb 28 bd ff ec 83 bd
       0.03439687 -0.01929537 -0.041194424 -0.06441688
000180 86 ef 2a 3d bc bf bf 3d ae 3b 7a 3d f0 00 2f 3c
       0.041732334 0.09362742 0.06109207 0.010681376
000190 c8 3d 00 3e 43 00 18 bd 48 63 bc bc 64 43 9c 3d
       0.12523568 -0.037109625 -0.02299656 0.07630041
0001a0 8f a4 8d bc ea e6 a6 3d ba ff 86 bd 6e f0 f3 3c
       -0.017290382 0.08149512 -0.06591745 0.029777732
0001b0 b4 7a b5 3d 65 87 c7 bc 62 1d 6d 3d db 03 27 3d
       0.088612944 -0.024356553 0.05788935 0.04077516
0001c0 51 4c 92 bd 45 53 ea bc 25 6e 28 bc c7 77 b5 bc
       -0.071434624 -0.02860416 -0.010280167 -0.02215184
0001d0 1a ce a4 bd 8a a3 a7 bd d6 c3 b0 3d 02 92 da 3d
       -0.08047123 -0.081854895 0.08631103 0.1067238
0001e0 32 3d dd 3c a1 54 a0 3c 36 f4 23 bd dc f7 14 3d
       0.02700672 0.019571604 -0.04002782 0.03636919
0001f0 bd d2 8d 3d d4 17 ef bc af 2f 73 3d 19 0d b2 3d
       0.06924961 -0.029186167 0.059371646 0.086939044
000200 d1 e7 b4 bd 3c da bb 3d 99 59 28 bd e7 eb 85 bd
       -0.08833278 0.09172484 -0.041101072 -0.065391354
000210 62 4d ee 3d e8 3b 80 bc a9 ce 9a b9 23 52 8b ba
       0.11635853 -0.015653566 -0.00029527143 -0.0010629337
000220 c7 b6 b5 3c 76 11 23 3d 74 84 01 bd 79 ee 03 bc
       0.022181882 0.039811574 -0.031620458 -0.008052462
000230 a9 64 0c bd cd 70 41 bd c9 b5 91 3d 3d a4 e3 3c
       -0.034275685 -0.047226716 0.07114751 0.027788276
000240 03 1e 37 3d 83 3b 89 bd 62 d1 eb bd e8 a4 b5 bd
       0.044706356 -0.06700804 -0.11514546 -0.08869344
000250 4e 94 5c 3d cf 99 b8 bc 7c 1e 2c bc 15 16 c9 bd
       0.053852372 -0.02253428 -0.010505315 -0.09818665
000260 1b 1e c1 bc e5 d8 dc 3d ba 59 f4 3d b1 65 14 bd
       -0.023573926 0.10783557 0.119311765 -0.036229793
000270 a4 96 4d bb 5a 8e 42 bd 5d 7f b1 bd d3 0c 75 bc
       -0.0031370306 -0.04749904 -0.08666871 -0.014956671
000280 f8 fd c1 3d 1e 16 8e 3d 5e 2b b8 3b 79 d9 9e bb
       0.09472269 0.06937812 0.005620404 -0.004847702
000290 fd 80 12 bd 50 5a ab bd 0c 8b 85 3c 0d 93 a1 3d
       -0.035767544 -0.08366835 0.016301654 0.07889376
0002a0 ce 94 a4 3b b8 e2 89 3d 9c 01 b8 3c 95 49 a4 bc
       0.0050226217 0.06732696 0.022461705 -0.020054618
0002b0 04 c8 3f bd c7 12 27 3d 38 2e d7 3d ff cb 2d 3d
       -0.04682161 0.04078939 0.105068624 0.042430874
0002c0 6e 27 ce 3d cc 0d a3 3d b7 d8 15 3c 7b 35 30 3d
       0.10066114 0.07961616 0.009145907 0.043019753
0002d0 2a 07 8a bd 85 13 dd 3d ed 94 cf bd e6 14 8c bd
       -0.06739648 0.10794739 -0.10135827 -0.068399236
0002e0 98 87 aa bc 31 4a 08 bd a3 a1 6a 3d 7e 3e 46 bd
       -0.02081661 -0.03327388 0.057283055 -0.04839944
0002f0 b2 8f a5 bc 97 42 d1 bd ea 08 8c 3d df 15 73 3d
       -0.02021012 -0.10217779 0.06837638 0.05934703
000300 2e d9 44 bd 80 5a 30 bd d1 78 41 bd 67 d9 58 bc
       -0.04805868 -0.043055058 -0.04723436 -0.0132354265
000310 2c 93 96 3d 11 fb 85 bc 18 b2 41 ba 51 72 f2 3d
       0.073522896 -0.01635507 -0.0007388904 0.118382104
000320 27 1d c3 3c 0b 58 e5 3d 12 27 cf 3d 09 97 88 bd
       0.023817612 0.111984335 0.10114874 -0.06669433
000330 fb 4b 41 bc e0 1a 85 bb bb a0 7e bd 1d 1c c8 bc
       -0.0117979 -0.0040620416 -0.062165003 -0.024427468
000340 05 8f 8e 3a a1 9b 3a bd 71 27 79 bd ec d1 00 3d
       0.0010876363 -0.045558576 -0.06082863 0.031450197
000350 dd 91 11 3d 61 31 76 bd a7 24 2f 3c ed 8c 9a bd
       0.035539497 -0.060105685 0.010689891 -0.07546411
000360 73 4b 18 3d 9d bc 69 bc 27 46 93 3c 1e f3 bb bd
       0.03718133 -0.01426616 0.017977787 -0.0917723
000370 69 56 fe 3d e7 a0 82 bd e4 7c eb 3c 29 f1 67 bb
       0.12418825 -0.06378346 0.028746076 -0.0035391545
000380 7e e2 92 bd 10 f2 38 ba 29 26 df bd 16 a2 a9 3d
       -0.07172106 -0.0007055113 -0.1089595 0.082828686
000390 33 87 ce bd a3 a8 2a 3b ab d3 38 3d a4 b7 9f bd
       -0.10084381 0.0026040457 0.045123737 -0.077986985
0003a0 01 23 d3 3d 44 02 18 3b 1f 00 fe bc a2 67 33 3d
       0.10309411 0.002319471 -0.031005917 0.043800004
0003b0 b3 a5 8a 3c e9 5a 20 3d d6 03 1b bd ce 23 6a bd
       0.016924715 0.0391492 -0.037845455 -0.057163052
0003c0 b2 96 a7 bc 6e ce e0 bc 8a cf a9 3c 24 a4 0e bd
       -0.0204576 -0.027442183 0.020728845 -0.034824505
0003d0 ed 22 15 bd d9 03 32 bd 15 c4 a4 3b 27 cd 72 bd
       -0.03641026 -0.0434607 0.0050282576 -0.05927768
0003e0 61 5a 98 bd 35 78 2a bd a2 47 42 bc b7 42 80 3d
       -0.074391134 -0.041618545 -0.011857899 0.06262725
0003f0 c1 b6 33 bd 86 31 48 bd 6a 77 8f bd c7 4a 4f bd
       -0.04387546 -0.048875354 -0.07005198 -0.050608423

rnn.bias_ih_l0 f4 [128]
000000 a9 e0 cb bd fb 88 4a bd 02 4f 58 bd d8 42 b0 3d
       -0.0995496 -0.04944704 -0.052809723 0.086064994
000010 b7 17 d7 3c 7c 16 f7 bc 7c 94 3a 3d 02 0e 01 be
       0.026256425 -0.030162089 0.045551762 -0.12603
000020 03 48 f7 3b 79 0e 86 3d 83 06 e4 3b ad ab a3 bd
       0.0075464263 0.06545729 0.006958784 -0.07991729
000030 e6 2f 6f bc 4d 64 9c bd 11 10 9a 3d 9f 78 5d 3d
       -0.014598822 -0.07636318 0.07522596 0.05407011
000040 eb 51 2a bc b7 0d 3b 3d 79 21 d3 bd cd 93 e2 bd
       -0.010395507 0.045667376 -0.10309119 -0.11063347
000050 35 97 9f bc 03 31 3e 3c df d6 9e 3d 00 4b 89 bc
       -0.01948128 0.011608365 0.07755827 -0.016759396
000060 7f 53 d5 bd 76 e5 a1 3d 31 01 c4 3d ae 2c 32 3d
       -0.10416316 0.07905094 0.0957054 0.04349964
000070 6b 27 d2 bd bd 19 f6 bc 76 3b 09 3c 3e 45 98 bd
       -0.10261425 -0.03004157 0.008375993 -0.07435082
000080 f6 c0 aa 3d b8 40 bd 3c a9 e8 3d bb 3e 93 73 bd
       0.08337586 0.02310215 -0.0028977788 -0.059466593
000090 f7 a1 ed 3b 9f 79 64 bd 3f cf ff bc da bb 15 3d
       0.0072519737 -0.05578005 -0.031226752 0.036556102
0000a0 e3 93 1d 3d cb b2 6d bd 3a c1 00 3d 77 c8 3b 3a
       0.038471114 -0.05803184 0.031434275 0.00071633555
0000b0 a1 bc 01 3c 36 45 d1 bd 6d dc a3 3d c0 18 28 be
       0.007918508 -0.10218279 0.08001027 -0.16415691
0000c0 0c 42 08 bc 41 3a f6 3d 31 61 f8 bc e7 be be 3d
       -0.008316528 0.1202283 -0.030319782 0.093137555
0000d0 fb 2a 8a 3c ca 05 cb 3d 4e 15 3e be e0 06 31 bd
       0.016866198 0.099132136 -0.18562815 -0.043219447
0000e0 72 79 e5 bc 21 b8 d0 3d c9 b5 fa bd 5d 5e 94 3c
       -0.028012011 0.1019137 -0.12241704 0.018111402
0000f0 54 f8 91 bd 2e 71 13 3a f4 ea 8c 3d b4 e6 08 be
       -0.07127443 0.000562447 0.06880751 -0.13369256
000100 02 3b c1 bc f9 93 10 3d ef e9 de bc 7f a0 24 bc
       -0.023587707 0.035297368 -0.027211158 -0.010048031
000110 3f 73 8a 3d b0 0b 64 3d 16 19 de 3d da 52 25 bd
       0.06760263 0.05567521 0.108446285 -0.040362217
000120 72 f3 c4 bd 5e 9c 9e 3d 5a 8c 4d 3d 2f 1b 6b 3c
       -0.09616746 0.077446684 0.050182678 0.014349743
000130 8c 8d f3 bc 03 47 0d be cd f5 12 3d 3a 5d 80 bd
       -0.02973058 -0.1379662 0.035878945 -0.062677816
000140 87 08 56 bb 40 4b 45 bd 07 e7 0f be 97 eb c4 3c
       -0.0032658891 -0.048167467 -0.14052974 0.02403812
000150 3f d6 8a 3d ca ed 01 3d 60 7c 0c 3d 3c c9 d3 bd
       0.067791454 0.031720914 0.0342983 -0.10341117
000160 46 11 87 bd 76 3f 1a 3e 93 f3 d7 3b e2 16 2b be
       -0.065950915 0.15063271 0.0065903156 -0.16707948
000170 25 36 00 bd 1e 8a ef 3d fd c6 8d 3c 75 29 87 bd
       -0.031301636 0.11696266 0.0173068 -0.06599704
000180 03 b8 4c 3d 07 cb e8 bd 88 49 04 3d 06 96 f5 3c
       0.049980175 -0.113668494 0.032296687 0.029978763
000190 ec b2 24 3d 08 d4 e9 3b 71 a6 22 bc 45 1c 6b bd
       0.040209696 0.007135872 -0.009927378 -0.057400007
0001a0 53 54 b2 3d 35 4e 92 bc ae b2 26 3e f2 f0 54 bd
       0.0870749 -0.017859558 0.16279098 -0.051987596
0001b0 f7 0b c6 bc 4b 7b 9f bb 98 88 d4 bd 28 e7 a4 bb
       -0.024175627 -0.0048669926 -0.10377616 -0.005032439
0001c0 19 58 2c 3e ae da dd bc 37 51 21 3d 3d 23 fe bd
       0.16830482 -0.027081814 0.039384093 -0.12409065
0001d0 68 f0 88 3d 8c 5e 11 bc 67 f0 ea 3b a0 37 a4 3c
       0.06686479 -0.008872639 0.0071697715 0.020046055
0001e0 74 ab b8 bc ca 06 62 bd b7 86 b3 bc 2a be 08 3d
       -0.022542693 -0.055182256 -0.021914823 0.03338448
0001f0 e9 08 df bd 90 26 84 3d 54 4c c4 3b 62 64 54 3d
       -0.10890371 0.06452668 0.0059905443 0.051853545

rnn.bias_hh_l0 f4 [128]
000000 32 2f d6 3c c1 19 33 bd 2a 13 1a bc 93 28 ee 3d
       0.026145551 -0.043725733 -0.009403983 0.11628833
000010 dd 7f 00 bc e0 5a cd bb d7 43 08 3d 84 67 20 be
       -0.007842985 -0.0062669367 0.033267822 -0.15664488
000020 6a d4 a1 bd 85 1f be 3c 3a 61 47 3d 8c 1a 8d 3c
       -0.07901843 0.023208389 0.048676707 0.017224573
000030 19 df 69 bd 50 65 0c bd 56 0f 5c 3d 68 ad 3e 3e
       -0.057097528 -0.034276307 0.053725563 0.18620837
000040 38 2b ff 3d 41 85 0f bd 47 cf a9 bd 41 56 0a 3d
       0.12459415 -0.03503919 -0.08291488 0.033773664
000050 55 7b fc 3c 73 47 e4 3d 05 87 82 bc d1 af 74 bd
       0.030820528 0.1114644 -0.015933523 -0.059737984
000060 fb 3f 6f bd 1d 49 a0 3d ad 9f f5 3d d6 af b8 3d
       -0.058410626 0.07826445 0.11993346 0.09017913
000070 05 db 3c bd b4 4a 63 bd ce 7f 66 3d 34 b6 c5 bd
       -0.04610731 -0.055491164 0.056274228 -0.09653893
000080 6c 6a df 3c ab 3b 5d 3d 2c 7b a8 3b ff f6 8e bd
       0.027272426 0.054011982 0.0051416364 -0.069807045
000090 02 bc d9 3d e5 dc 5d 3d 50 41 82 3d f5 f6 0d 3d
       0.10631563 0.05416574 0.063601136 0.034659345
0000a0 fe 04 39 3d 21 be 5a bd 78 7e 6d bc d2 0e 8e 3b
       0.045170777 -0.053403977 -0.0144954845 0.004335263
0000b0 3a c6 fc bb 8b ea 54 bd 31 cb 83 3d 19 a4 12 be
       -0.00771406 -0.05198149 0.0643524 -0.14320411
0000c0 a6 71 34 bd 2d 85 c5 3d 38 7c 88 bd 65 3d a3 3d
       -0.044053696 0.09644542 -0.06664318 0.079706945
0000d0 24 ff 47 bc ad b6 db 3c b8 83 26 be 9c 3d 00 be
       -0.012206826 0.026820505 -0.16261184 -0.12523502
0000e0 1e fc 1c 3d b9 fe a2 3d 9d 6b 2d be 0f fe 48 3c
       0.038326375 0.07958741 -0.16935582 0.012267604
0000f0 9e 8c f6 3c 42 a7 ee bc 2d 72 7e 3d 06 30 84 bd
       0.030096348 -0.02913249 0.062120605 -0.06454472
000100 db 87 bd bd 24 ec 25 bc 75 0c 74 bd 4a c9 a1 bc
       -0.09254428 -0.010127101 -0.059582192 -0.019749302
000110 a7 ca 57 3d 5c a8 89 bd 9d f3 12 3c 1d 37 f2 3d
       0.0526835 -0.06721565 0.008969215 0.11826918
000120 bd d0 82 3c ad f6 78 3c 36 6d 57 3d 01 81 f5 bc
       0.015968675 0.015195531 0.052594386 -0.02996874
000130 fc aa 7d 3b e4 f6 05 be 17 4a 90 bd 1a e6 b4 3c
       0.003870665 -0.13082463 -0.070453815 0.022082377
000140 f4 26 dd 3c 38 cf e8 bc cc 63 55 bd 49 4f ca bc
       0.026996113 -0.028419122 -0.052097127 -0.02469601
000150 1f 54 0e bc 4c 8c dd bc 1d b3 ce bd 4a 35 76 bd
       -0.008687048 -0.027044438 -0.10092757 -0.060109414
000160 aa 3c 36 bd ab a2 ae 3c ff 52 09 bd 96 3c d8 bd
       -0.044491448 0.0213178 -0.033526417 -0.10558431
000170 a3 6d c8 3d 7f 0a 42 3d 46 b5 09 be 0a dd 9e bd
       0.097865365 0.04737329 -0.13448057 -0.077570036
000180 ad 87 8c bd 98 65 9b bd f0 7a e4 bc b5 ed 8e bc
       -0.068618156 -0.07587737 -0.027890652 -0.017447332
000190 b8 42 20 3d 75 08 b8 3d a8 15 c6 bd 1a b5 b7 bd
       0.039126128 0.08985988 -0.09672099 -0.08970089
0001a0 b3 ea 9f 3d 3f ab c2 bd 18 86 f7 3d 04 c3 f0 bd
       0.07808437 -0.09505319 0.12086123 -0.11755946
0001b0 03 8b 77 bd 79 16 d2 bd 91 ec 70 bd 19 bd 48 bd
       -0.060435306 -0.102581926 -0.058819357 -0.049008463
0001c0 0f 6e f0 3d bf 0d 1f bd c1 71 ed 3c 4a 5e cf bd
       0.11739742 -0.03883147 0.028984906 -0.10125406
0001d0 d3 ea 1d 3d 1c 37 cb 3b 63 39 d6 bd 9c e1 33 3c
       0.038554024 0.006201638 -0.104601644 0.010979082
0001e0 f2 d6 34 bd 71 16 0c 3d d1 32 59 bc 30 9f b0 3d
       -0.0441503 0.03420109 -0.0132567445 0.086241126
0001f0 a8 92 4c bc 2c ac 4a bd 6d b2 2c 3d e9 11 20 bd
       -0.012486137 -0.049480602 0.042162348 -0.03907958

fc.weight f4 [2, 128]
000000 5c 9f 5d 3d ac 00 32 bd 66 b0 88 3d 08 fe 76 bd
       0.054107055 -0.043457672 0.0667427 -0.060300857
000010 5a ce 2b bd e1 bf 01 be 8e c6 42 3d a1 da 48 3f
       -0.04194484 -0.12670852 0.047552638 0.784586
000020 99 2f ab 3c ed d9 03 3c 6f 10 28 bc 4e 5b 28 3e
       0.02089672 0.008047563 -0.010257824 0.1644108
000030 48 c8 81 3d 14 75 c0 3c db 16 b1 bc c1 1b 2f bf
       0.06337029 0.023493327 -0.021617344 -0.68401724
000040 22 79 d1 bd 14 e5 7f 3c 57 c7 e3 3e 79 6b 58 bc
       -0.102281824 0.015618581 0.44488022 -0.013209217
000050 64 fe 4b bd 3f 1a 6c bd 14 f7 cf bd 7d e0 09 bd
       -0.049803153 -0.057642218 -0.10154548 -0.033661354
000060 54 58 8a 3d 1d 33 9b bc 22 5f 02 bd b3 26 c4 3c
       0.067551285 -0.018945271 -0.031829007 0.023944234
000070 15 49 52 3c 5d a0 a6 3d 8f 25 37 3d 42 3a 3d 3f
       0.012834807 0.081360556 0.044713553 0.7391702
000080 90 cd 54 bd 55 e9 84 bd 0b 00 3f 3d 21 53 65 bc
       -0.051953852 -0.06489817 0.0466309 -0.01399687
000090 d5 c7 30 bd a7 47 e2 bb 7c 07 97 bd 85 e9 fb bc
       -0.043159325 -0.0069055143 -0.073744744 -0.030751
0000a0 1b c1 27 be 8b 2a c5 3d 95 34 87 3d 30 47 77 bd
       -0.16382258 0.09627255 0.06601826 -0.060370624
0000b0 3d 8a 10 be b7 aa b4 3c d6 dc 8c bc 43 39 39 3f
       -0.14115234 0.02205406 -0.017195147 0.72353
0000c0 d0 46 54 bd 16 f9 63 bd cc a7 cb 3c 1d 9e 5e bd
       -0.051825345 -0.05565747 0.024860285 -0.054350007
0000d0 e9 57 c7 bd 42 c7 60 3d e4 95 fc 3e 21 6f b3 3d
       -0.097335644 0.054877527 0.49333107 0.087614305
0000e0 3f 41 61 bd d1 7b 19 bd e6 7d a0 3e cb cd 25 bd
       -0.054993864 -0.037471596 0.31346053 -0.040479463
0000f0 9a 9c 91 3d 91 5e 32 bb 49 1c 1e bd 44 24 60 3d
       0.071099475 -0.002721701 -0.038601194 0.054722086
000100 a5 76 ce 3d e0 7d 3d bc d0 58 53 3d 19 39 df 3b
       0.100812234 -0.0115656555 0.05159837 0.0068122265
000110 a3 45 d3 bd bb 1b 29 bd c4 8d 8c bd ca 47 91 bb
       -0.103160165 -0.04128621 -0.06862977 -0.0044336068
000120 ad 3b d8 3d fd 98 19 bc 0d 90 fd bd a4 5f 64 3d
       0.10558257 -0.009374854 -0.12380991 0.055755273
000130 65 df 93 bd 73 5c 37 3f 27 c6 0c bd f7 85 c3 3d
       -0.072203435 0.7162544 -0.03436866 0.09547036
000140 d2 52 3e 3d e9 33 27 3f fa 62 8c 3c 3d 12 d8 3e
       0.046465702 0.65313584 0.01713704 0.42201415
000150 8f dd f1 bd f9 8a a9 bd b4 16 02 3d d2 b9 b7 3d
       -0.11809837 -0.0827846 0.031759933 0.08970989
000160 cd 5e 67 3d 21 8d 3b bf 8b ff 8a 3d 62 15 45 3f
       0.056486893 -0.7326222 0.06787022 0.7698575
000170 bc df 84 bd fd 9f 40 3d 38 0f e4 3d 4c 13 fa bd
       -0.064879864 0.047027577 0.11135715 -0.12210712
000180 ec bb 24 3c c8 44 d2 3d 53 7c 6c bd 71 b5 2f bc
       0.01005457 0.10267025 -0.057735752 -0.010724411
000190 ee aa 52 3d de a2 06 bd d8 70 9d 3c 4c 7a 9c 3c
       0.051432543 -0.032870166 0.019218847 0.019101284
0001a0 0b 8b 4b bd 09 d4 08 3e 97 1a e4 be b2 d9 53 3d
       -0.04969315 0.13362135 -0.44551536 0.051721282
0001b0 0a 0b f3 3c e5 01 b3 3d af e8 a0 3d de 8d 4b bd
       0.02966835 0.08740596 0.07856881 -0.049695842
0001c0 99 7c 45 bf 93 1d 34 3d 30 df e5 3d 5c 39 cc 3c
       -0.77143246 0.043973517 0.1122421 0.024929695
0001d0 ab d1 7f bd 8d f8 5a 3c 85 82 49 bb 7a 2e 53 3b
       -0.062455814 0.013364923 -0.0030747962 0.0032223747
0001e0 f9 dd 54 3d d2 8e d0 3d 28 84 8e 3d 3a 46 f0 bd
       0.051969502 0.10183491 0.069588006 -0.11732145
0001f0 81 0e 08 3d 05 d0 0b be 6d cb 86 3d b5 b2 77 3d
       0.033216957 -0.13653572 0.06581769 0.060473163
000200 0f 05 8a 3d 66 f4 2d be b3 f1 0d 3e bb 4b ac bd
       0.06739246 -0.16987762 0.13861732 -0.08412882
000210 80 6b a6 bd 78 3b 2d bd 83 fb f5 bc e6 90 3a bf
       -0.08125973 -0.042293042 -0.030027157 -0.7287735
000220 8d 8b bf 3d 19 d8 c3 3c 72 fb 5c bd 29 27 a8 be
       0.09352789 0.023906754 -0.053950734 -0.32842377
000230 81 99 9b 3d 54 49 fb 3c b1 5a 52 bd d4 e6 32 3f
       0.07597638 0.030674614 -0.05135602 0.69883466
000240 d3 ca eb 3c 84 e1 51 bb 5a bb e1 be 4c 9a 7d 3d
       0.028783238 -0.0032025287 -0.4408825 0.061914727
000250 31 a0 e4 bc c3 c1 19 bd db 83 99 bc dd 9a 04 3d
       -0.027908416 -0.0375383 -0.018739631 0.03237425
000260 c6 56 d6 3c 0a 95 5d bd 7d 58 ba bd 21 54 fe bc
       0.026164424 -0.054097213 -0.09098909 -0.031045975
000270 cb f9 1e 3d f4 d5 9d 3d 18 2d ec 3d 81 ef 43 bf
       0.03881244 0.07706824 0.115320385 -0.7653733
000280 52 b5 3b bd 57 cd df bd 6c 22 fb 3d 63 16 0e 3d
       -0.045827217 -0.10927837 0.12262425 0.03468932
000290 0f 00 8f bd bd ab 19 3d a8 d6 d5 bd 06 bc db bc
       -0.06982433 0.037517298 -0.10441333 -0.026823055
0002a0 db b0 8b bc 05 8b bf bc e3 3e d4 3c 4f 7d bf 3c
       -0.017052105 -0.02338172 0.025908893 0.023375181
0002b0 62 94 8a 3d 6d f1 d1 3d de 50 15 bd 60 c5 4a bf
       0.06766583 0.102511264 -0.036454074 -0.7920742
0002c0 72 21 b1 bd 2c 51 23 be 84 5e 6a 3c 6a 37 c7 bd
       -0.08648957 -0.15948933 0.014304761 -0.09727366
0002d0 f2 8a a0 bd 1c 16 8c bc 14 86 12 bf d1 86 48 3d
       -0.07839002 -0.017100386 -0.57235837 0.048956696
0002e0 02 17 35 bd da d3 80 3c 60 e1 8a be 31 12 ae bd
       -0.044211395 0.015726019 -0.27125072 -0.084995635
0002f0 3b cd dd 3d 3f 77 4c 3d 10 cd 9a bd f3 61 ca bc
       0.1083016 0.04991841 -0.07558644 -0.024704909
000300 5f 7a 5a 3c 22 cd b6 bd ef 2d e7 3d bc 5f b9 bd
       0.01333484 -0.08925845 0.11288058 -0.09051463
000310 ef c4 a3 bd 64 c9 95 bb 45 ae eb bd b5 ad 08 bd
       -0.079965465 -0.004571127 -0.11507849 -0.033368785
000320 b2 98 89 3d d1 57 6b bc 52 45 cf bd 9f b1 20 3b
       0.067185774 -0.014364199 -0.10120644 0.0024519933
000330 9b 17 2f bd 33 e3 2d bf dc 78 15 3d 73 6d 7e 3c
       -0.04274712 -0.67924803 0.036492214 0.015529024
000340 80 d2 a9 3d b4 83 f7 be 1f 85 12 3d 84 57 e6 be
       0.08292103 -0.4834267 0.035771485 -0.44988644
000350 7b 1d 06 bb cb 13 8b bd 84 2d 90 3d b8 86 fa bc
       -0.002046435 -0.067908846 0.070399314 -0.030581817
000360 c2 85 c3 3d 5a 7e 33 3f 4b de 13 3e 9f bf 3d bf
       0.09546997 0.7011467 0.14440267 -0.74120516
000370 a5 8a 83 bd b9 0b 7e bb c1 07 a2 3d d9 b9 92 bd
       -0.06422929 -0.0038764311 0.07911635 -0.07164354
000380 8f ca 03 3e 60 d0 2e 3b f8 37 23 3d 9f 8a 68 bd
       0.12870239 0.0026674494 0.039848298 -0.056772824
000390 83 a7 5b 3d 17 3c bb bc 5d 90 2a bc e7 6b 0d bd
       0.05362655 -0.022855802 -0.010410395 -0.03452673
0003a0 a9 0d c0 bc bd df 70 3d 49 b2 e0 3e 7d 20 ea 3d
       -0.023444014 0.058807123 0.4388602 0.11431978
0003b0 9a a8 87 3d 05 5f e5 3c a0 90 83 bc 2b dc 13 3c
       0.06623955 0.02799941 -0.016060174 0.00902466
0003c0 f7 13 4a 3f 67 42 ef 3c c9 e7 99 3d 00 0c 27 bd
       0.78936714 0.029206468 0.07514913 -0.04078293
0003d0 22 95 c7 3c 01 a1 d1 3d d9 3f d4 3c 3c 12 d4 3d
       0.024363104 0.10235787 0.025909351 0.103550404
0003e0 64 2b 0b 3d d4 f2 79 bc c9 a5 1d 3d b1 80 8b bd
       0.033976927 -0.015255649 0.038488183 -0.06811655
0003f0 79 05 e9 3c e6 22 dd bc c9 ea 13 3e fc 00 b5 3d
       0.028444992 -0.02699418 0.14445032 0.088380784

fc.bias f4 [2]
000000 e2 ff 43 3c 81 28 bc bc
       0.011962863 -0.022968533
