detector/models/128_1_16_5_32_0.001_covert_detector_1.pth (torch, 72573 bytes, 6 tensors)

rnn.weight_ih_l0 f4 [128, 3]
00000000: 351e 9fbb 1f65 8dbd 6a35 d5bd a72c 84bd
00000010: 90e4 cf3d 74d2 80bc 8f8a 933c 8c7c 3cbc
00000020: adc1 4cbc 2be9 f6bd e748 733a 9c59 18bd
00000030: 66fa c8bc edf0 c4bd 2cd9 dcbd eda1 99bc
00000040: 7c32 f5bc 8306 313c d5d1 083c 0826 a43c
00000050: 38fa b1bc 9508 52bc 50ac 8bbc 6cf0 7cbd
00000060: 6a94 8ebd d1f0 0b3d 20e7 79bc 5eb1 b43c
00000070: 04a5 9fbc 528d 12bd 9c0f 24bd f3e2 833a
00000080: 6f36 19be c045 e03d 0834 9aba 6266 c63d
00000090: 2254 a43c 05e9 173c 61fa ce3d 9532 843d
000000a0: 9b00 153c f6ac 8f3c 43df 3a3d 78c0 893c
000000b0: 12bd 4d3d 9c3d c9bd e306 79bd 3f1f 1bbd
000000c0: 04ec cdbd 279f 7b3a fe26 edbd d643 65bd
000000d0: baa4 c8bc e815 723c ec8f f5bc 9c10 67bd
000000e0: bc26 433d ea8d 3bbd 66b7 d43d e7d0 b53c
000000f0: 782b 2ebd 4d2f 26bc 7b2a e23c 52bb 343d
00000100: 62a7 a2bc 7e0a 9ebd 46d3 3c3c 764d d13d
00000110: 1632 373d 0f1f e8bd e14d 62bc 8176 aebc
00000120: a9d1 093d d4c9 46bd 9df0 4e3d efce 00bd
00000130: 7480 7f3b 3458 50be 163b b83c 7ce3 90bc
00000140: 1a09 70bd 50f7 ffbc c52e 2fbc 6f42 cbbd
00000150: 3ffc 90bd e9ca 6e3b c65b 42be 8a1f c5bc
00000160: aca1 b13d d2a1 10bd 40eb ef3d 4c52 6e3c
00000170: 83cf ffb9 6f40 2bbd 3cfe 0dbd 126d 9ebd
00000180: fd4e 48bd 2413 523a 3d2a 35bd 0418 0dbd
00000190: a06a 95bc 305c 593d f53b d63d c166 ef3c
000001a0: 2918 4cbd 4d97 1b3d e901 003d a573 8a3c
000001b0: ad9b 07bd 3222 8abb 6309 7fbb 2452 1dbd
000001c0: 651a 6d3a 16d2 4abd c1fa 5a3d f424 e53c
000001d0: beee 8abd 1703 07be 3783 8e3a 7988 a2bd
000001e0: 6280 24bc ebbc 6fbc a43f 88bd a602 c4bd
000001f0: 6247 e5bd d97e 94bd f6fa 973d 1021 66ba
00000200: 4638 0f3e 13a8 3dbd 11c0 a1bb f56f 383d
00000210: 3e57 5e3b 7d58 c5bc 5bff be3c 5b5c cbb9
00000220: 12ed d4bb 31f4 9e3c c016 82bb 8aee f53b
00000230: bcf5 20bd ff5e 79bc 066f acbd 9804 45bd
00000240: 769d 7b3d ad9a 803c 0c74 3ebd 1744 c63d
00000250: 8b0b 9b3d caee 823d 0b2a fe3c 7536 fb3c
00000260: 1ea3 983b 7bea bc3d 5df0 f93b 2e37 5c3d
00000270: e0e1 c03d eb88 74ba 5e41 7d3d 6b2a 20bd
00000280: 06fe 15bd 935e 63bb 39c0 3abd 415a 05bc
00000290: cc73 a63c 6740 60bd 0850 f93b 183f 943d
000002a0: 0e37 933d a307 e33c 7005 7ebd 6065 653d
000002b0: ad41 953b 5519 913c 6744 49bc d395 f53b
000002c0: 5eb4 9c3d 4f8b de3c cd7b c7ba 1510 dc3d
000002d0: 8b51 f0bd 4a0d e2bb b8a6 c6bd 701a 653c
000002e0: 2a91 a63d 5e82 283c 9ae3 813d 0f80 11bc
000002f0: 431d 833c a382 a0bd d3dc c2bd c6fe 373d
00000300: b74d d03c 250b 64bd fd8d e7bd 5fd4 a8ba
00000310: 7e5d 023b d8fa 8b3a 2745 a43d 37d8 a63b
00000320: 838f 4fbd 61e0 d5bd 1852 b5bd 8166 5dbc
00000330: c7b4 2ebd 957f cabd f0cc 85ba 5300 fabc
00000340: a339 d7bb 0ab7 103c e937 1d3d db82 9e3c
00000350: e338 dd3d 3a0a 2d3d 9edf 843d 087f a93c
00000360: 46ef 29bd 9a51 cdbd 57b6 a63c b61c 04be
00000370: 5abe 353a 818a 40bc 5f45 1f3c 16d0 563d
00000380: 4a30 953d 8b30 fb3a 5871 2e3c 04cf ae3c
00000390: 11b7 9bbd 3eee f5bc 0b3b 17bd 92b1 7b3d
000003a0: 77da 94ba 2497 0a3e 15f8 f53b d936 a9bc
000003b0: 1aff 76bd 206b f73c 7a4b 54bc 2ea2 a9bd
000003c0: d084 573d 3d93 913d fc80 ae3c e82b 073e
000003d0: 8e33 6bba 4832 0e3d ec72 a93d 0d1a 123c
000003e0: 8956 923c b9f0 cabb 625e 3cbc 9d3b a1bd
000003f0: 9bf8 1fbd fb99 6a3d fa11 b03d 6b81 cf3d
-0.004855896 -0.06904053 -0.104105785 -0.06453829 0.10151017 -0.015725352 0.018010406 -0.011504304
-0.012497348 -0.12056192 0.00092805777 -0.037194833 -0.024533462 -0.096162654 -0.1078361 -0.01875397
-0.0299313 0.010804775 0.008350809 0.020037666 -0.021725759 -0.012819429 -0.017049938 -0.06175272
-0.069619015 0.034165207 -0.015252858 0.022057232 -0.019487865 -0.035779305 -0.04005395 0.0010062143
-0.14962171 0.10950804 -0.0011764774 0.09687497 0.020059649 0.009271865 0.1010635 0.0645496
0.009094383 0.017538529 0.045623075 0.016815409 0.05022914 -0.09826204 -0.060797583 -0.037871595
-0.10054782 0.00095986057 -0.11579703 -0.055972897 -0.02449261 0.014775731 -0.029975854 -0.056412324
0.04764436 -0.045789637 0.10386543 0.022194339 -0.042521924 -0.010143113 0.027608147 0.044123955
-0.019855205 -0.07716845 0.011524981 0.102198526 0.0447255 -0.11334049 -0.013812513 -0.021296741
0.033647213 -0.048532322 0.050522435 -0.031447347 0.0038986476 -0.20346147 0.022489112 -0.017686598
-0.05860243 -0.031245857 -0.010692303 -0.099247806 -0.07079362 0.0036436862 -0.18980321 -0.02406289
0.086734146 -0.035310574 0.11714792 0.014545988 -0.00048791998 -0.041809496 -0.034666285 -0.07735647
-0.048903454 0.00080137164 -0.044229735 -0.03444673 -0.01823932 0.053066432 0.10460655 0.029223802
-0.04982773 0.03798609 0.03125182 0.016900847 -0.03310745 -0.004215502 -0.0038915507 -0.038408414
0.00090447656 -0.04951676 0.053461794 0.027971722 -0.06783818 -0.13184772 0.0010872845 -0.07936186
-0.0100403745 -0.014632444 -0.066527635 -0.09570818 -0.11195256 -0.07250757 0.07420914 -0.00087787304
0.1398631 -0.046302866 -0.004936226 0.045028646 0.0033926512 -0.024090046 0.023315122 -0.00038787987
-0.0064979875 0.019403549 -0.003969997 0.0075052427 -0.03929685 -0.015220403 -0.084196135 -0.048100084
0.061429463 0.015698755 -0.04649739 0.09680956 0.07570561 0.06393202 0.031025907 0.030665616
0.004658117 0.09224411 0.0076275305 0.05376356 0.09418082 -0.00093282637 0.061829917 -0.039102953
-0.03661921 -0.0034693822 -0.045593474 -0.008139194 0.020318888 -0.05474892 0.0076084174 0.07238597
0.07188235 0.027713602 -0.062016904 0.05600488 0.0045549483 0.017712275 -0.012284375 0.007494667
0.0765159 0.027166037 -0.0015219391 0.10745255 -0.11734303 -0.006898557 -0.09699768 0.013983354
0.081331566 0.010284988 0.0634224 -0.008880629 0.016005164 -0.07837417 -0.09514775 0.044920705
0.025427682 -0.05567469 -0.11306379 -0.0012880674 0.0019892151 0.0010679616 0.08021002 0.005091693
-0.050673973 -0.104431875 -0.08853549 -0.013513208 -0.04265287 -0.098876156 -0.0010208171 -0.030517733
-0.00656815 0.008832702 0.0383834 0.019349506 0.10801866 0.04224608 0.06487964 0.020690456
-0.041487955 -0.1002533 0.020350618 -0.12901577 0.00069329666 -0.011751772 0.009721129 0.05244454
0.07284601 0.0019164247 0.01064714 0.021338947 -0.076032765 -0.03002083 -0.036921542 0.06144864
-0.0011356612 0.13534218 0.0075063803 -0.020656036 -0.060301878 0.030202448 -0.012957448 -0.082828864
0.052616894 0.071081616 0.021301739 0.13200343 -0.0008972221 0.03471592 0.08273873 0.008917344
0.017863529 -0.006193247 -0.011497112 -0.078726985 -0.039055448 0.057275753 0.08597179 0.101321064

rnn.weight_hh_l0 f4 [128, 128]
00000000: a279 48bd a943 6dbd c3a5 84bd 9be4 7abd
00000010: 3ad6 5dbd ab66 50bd 4302 2abc 28fc 5ebd
00000020: 478b 4cbd 46bc 26bd b572 2ebd c263 30bd
00000030: 26e1 51bd e966 1fbd b612 2ebd d77d ffbc
00000040: be2a f93c 2ea0 463d aeda 0c3d 4665 abbd
00000050: d47a 3fbd 081c eabb 603e 333b 8c22 9c3d
00000060: 5887 dfbc 0946 abbc 7ab6 143b a2f2 a43d
00000070: daf9 bd3b b4e5 593d ff69 c43c a67c 99bd
00000080: 51d6 d33d f5a8 cabc 81a6 c4bd 4f1c 553d
00000090: ccb6 10bd a240 a23d 50b0 75bd 22cb 943d
000000a0: 509c 0f3c daaf 2c3d b656 b73d 1049 933d
000000b0: bac7 5cbd b774 a5bc db83 acbd bd63 2dbd
000000c0: 3ac8 61bd 59d5 cfbc 0c88 a3bc 5090 2bbd
000000d0: d483 813c 85e1 a2bc 25e1 db3b 1a54 19bd
000000e0: 6273 633d de1e d4bd 5e45 bebd 7896 dfbc
000000f0: 6339 1fbc e615 22bd 9a2d ec3c be62 a43d
00000100: c920 1abd 17e1 9abd 71d0 413d f775 bd3d
00000110: 5ea1 c63d fb1f 6dbd 37d6 7abd 0999 2a3d
00000120: 7f79 a33d 7f5c 79bb 8664 03bd 8cec 03bd
00000130: e575 243d 4a68 d93c a2f1 413d f6f7 8bbd
00000140: e3bf f3bc 7e41 4f39 8d4c b5bb 761f 0e3a
00000150: 4a3c e3bb 7ed0 e2bd d848 55bc 143b a0bd
00000160: 8c48 053d 5b15 a43d fe74 5e3d 0490 a33c
00000170: 1568 84bd 941a 5a3c 1b9a 4e3d e82d cbbc
00000180: ab8d 1fbd 0048 94bd 2af1 873d b25a fd3b
00000190: 3b69 023d 52d5 f43c f1a7 aa3d 0a7b fa3c
000001a0: 529f a9bd b67a 94bd 245d 2d3d 2eb1 d3bd
000001b0: 2012 243d daca 9bba ffa7 353d 42c0 3cbd
000001c0: 073c 4f3d 20e4 9f3c fc13 8ebd cb69 83bd
000001d0: 442b d4ba 9f9d 5e3d b083 33bd bf6d af3c
000001e0: 494a 923d acd6 9c3d 2426 d7bd 8235 383d
000001f0: a70b 773d 3a97 7abd 53a0 2b3d 2a74 b4bd
00000200: 455b 95bc fddd 1e3d b891 123d 3eaa 733d
00000210: b13e 99bd 6ab6 c0bd d1fe ea3d abce 2e3d
00000220: 1817 823c f43f 813d a1d6 a1bd 27d7 81bd
00000230: 00ef 913c 62be a1bc 50ab 97bd eb59 bfbd
00000240: f843 053d 2762 b1bb 6f97 003d c194 c73c
00000250: 1790 febb e3eb d9bd 53f8 9e3d 9533 4abd
00000260: b6ad 98bd a217 313c 1aa9 10bd 5e34 b6bc
00000270: 59e9 9d3b 5607 293d 89c6 94bc bcf4 ae3d
00000280: e0ed 173d b763 073d 887c 383d 5210 1d3d
00000290: 4501 4bbc 485f c0bd 3c60 a63d 9835 0c3d
000002a0: 9546 373d 682a ecbd 504f 63bc 73fb dbbb
000002b0: 8f34 a4bd 8ead 0a3d 6e67 b73d 5262 dfbd
000002c0: 7b3c 6e3c 045d 9b3d 6c71 073d a2ec 9d3d
000002d0: 6636 93bd 3cfd 6bbd 0dac 2fbd e434 08bd
000002e0: 58c9 28bd 8258 10bc 17d4 91bc 6a7d 31bd
000002f0: f886 e23c b7f3 ef3d 7950 af3d bdb2 f73c
00000300: 1136 d1bc 2936 64bd 8dfd bd3d 2666 aebd
00000310: 6eaa e3bd c0dc 8abd dfba a23d 79b8 463d
00000320: ff78 da3c 0da1 ccbd 3830 253d 966e 8f3d
00000330: 0587 cb3d f748 963d 9904 1b3c 6472 6f3d
00000340: 1893 d03d a7a8 3bbd daf1 453c 4523 3a3d
00000350: d73d 7c3d 81fe 803c cb60 edbb 8a79 193d
00000360: 3a55 3ebd 93d0 04bb e906 983d 6617 2dbd
00000370: 771c 9a3d 635e 87bd fb59 7abd 01a3 a8bd
00000380: 9b0c 853d ed95 38bd 2cf3 03bd b213 9bbd
00000390: 95ff 27ba 4ad5 0a3d 9da1 863c 1b2c 1a3a
000003a0: be64 b03d 1d4e 2c3c bc5c 983d 1baf 8e3d
000003b0: 4826 16bc e109 46bd a637 8b3d 3d1b 72bd
000003c0: 5ebf 7b3d 51c0 5bbd 6961 923d 4808 213b
000003d0: 1848 5c3c 95f7 7a3d 9e1e 51bd aa21 a23d
000003e0: 868d ebbc 38f5 74bd d386 9e3d 4011 853d
000003f0: 5e64 4a3d 1d1c d83d a008 9cbb a94d e83d
-0.048944123 -0.057925854 -0.06476929 -0.06125317 -0.05415938 -0.05087916 -0.010376516 -0.054439694
-0.049937513 -0.040706895 -0.042589862 -0.043063886 -0.05124011 -0.038916502 -0.042498313 -0.031187935
0.030415889 0.048492603 0.034388237 -0.08368926 -0.046747997 -0.007144455 0.002735041 0.07623777
-0.027286217 -0.020907419 0.0022691772 0.08054091 0.005797607 0.053197578 0.023976324 -0.07494478
0.10343612 -0.024738768 -0.096020706 0.05202895 -0.03533058 0.07922484 -0.059982598 0.07265307
0.008765295 0.042159893 0.08952086 0.0719167 -0.05390141 -0.020197256 -0.08423587 -0.042331446
-0.05512259 -0.025370287 -0.019962333 -0.041885674 0.01580993 -0.019882927 0.006710189 -0.03743372
0.05552996 -0.1035745 -0.092905745 -0.027293429 -0.009718272 -0.039571665 0.028830338 0.08026646
-0.037628923 -0.07562464 0.047317926 0.09251016 0.09698747 -0.057891827 -0.061239447 0.041649852
0.07982158 -0.0038049517 -0.03207829 -0.03220801 0.040151495 0.026538987 0.04734958 -0.06834404
-0.029754585 0.00019765456 -0.005532807 0.0005421558 -0.0069346773 -0.11074923 -0.013017856 -0.07823768
0.03253989 0.08011886 0.05431079 0.019966133 -0.064651646 0.013312001 0.050439935 -0.024802163
-0.038953464 -0.072402954 0.06637795 0.007731759 0.031838637 0.029886875 0.083328135 0.030576248
-0.08282341 -0.07249968 0.042325154 -0.10336529 0.040056348 -0.0011886016 0.044349667 -0.04608179
0.050594356 0.019517958 -0.069374055 -0.06416663 -0.001618721 0.054349538 -0.04382676 0.021414636
0.07143075 0.07658133 -0.105053216 0.044972904 0.060313847 -0.061179377 0.041900944 -0.08811219
-0.018231997 0.038785923 0.0357835 0.059488527 -0.074826606 -0.09409793 0.114743836 0.042677563
0.015880153 0.06311026 -0.07902265 -0.06339865 0.01781416 -0.019744102 -0.07405722 -0.09343322
0.032535523 -0.005413312 0.03139442 0.024362924 -0.0077686417 -0.10640695 0.07762208 -0.0493656
-0.07455008 0.010808857 -0.035317518 -0.022241767 0.004819077 0.04126676 -0.018161075 0.08542773
0.03709209 0.03305408 0.045040637 0.038345642 -0.012390439 -0.093931735 0.08123824 0.0342308
0.044745047 -0.11531526 -0.01387389 -0.0067133247 -0.08017837 0.03385692 0.089552745 -0.10907425
0.014540787 0.07586101 0.033067152 0.0771115 -0.0718811 -0.05761455 -0.04288869 -0.033253565
-0.04120764 -0.008810164 -0.017801328 -0.043332495 0.027652249 0.11716407 0.08560271 0.030236596
-0.025538476 -0.055715714 0.092768766 -0.08515577 -0.11116491 -0.06780386 0.07945799 0.04851577
0.026669024 -0.099916555 0.040329188 0.070035145 0.09937862 0.07338136 0.009461545 0.0584587
0.10184306 -0.045815136 0.012081588 0.045443792 0.061582413 0.015746357 -0.0072442046 0.037469424
-0.046467997 -0.0020265921 0.07423193 -0.042258643 0.075249605 -0.066098 -0.06112097 -0.082342155
0.06496545 -0.045064855 -0.03221433 -0.07572116 -0.0006408629 0.033894815 0.016434485 0.0005881206
0.08612965 0.0105166705 0.07439563 0.069669925 -0.0091644 -0.048349265 0.067977235 -0.059108008
0.0614618 -0.053650204 0.07147486 0.0024571586 0.013444923 0.06127127 -0.05105459 0.07916577
-0.028754007 -0.05980417 0.077405594 0.06497431 0.049412124 0.10552237 -0.0047617704 0.113429375

rnn.bias_ih_l0 f4 [128]
00000000: 0f78 183c 4bb6 28bd 6b43 023c 4faa 10be
00000010: 1be7 debd aae3 75bc 8bb4 efbc 6282 54bd
00000020: 89ca e839 4908 01bc 9af0 bebd 9d37 d43d
00000030: cf9d 16bd 879a 6f3d f76a 1d3b 8664 3e3d
00000040: fe58 d6bd b6b7 563d bc58 c1bd ec35 463c
00000050: 8ef4 6b3b fe8a 58bd c871 31bd fe79 f0bd
00000060: bdd0 cbbd eaa3 8fbe 5433 1cbd 09c7 903c
00000070: 6c1a 0dbe 8dea 9a3d c8d2 073e da6d 9ebd
00000080: d755 05be 55d3 003a d5b0 46bd 31e9 59bd
00000090: 135b a7bd daed edbc 219e 623d 364d 9abd
000000a0: 43ec 05be b8d2 c53c 23ba d83d 9668 153d
000000b0: 9821 6ebc 1f58 b93c f2a5 263c a5b6 87bd
000000c0: 7376 a1bd e767 003d aa3f f03c d565 b03d
000000d0: c90a 1a3e c0c9 da3c e6d7 263c 615e e0bc
000000e0: a14f 863a 9932 e23d 5477 47bd 5cca 1e3e
000000f0: 7265 28be 2514 49bd c702 153c 2666 a5bd
00000100: 91a0 8cbd db12 9cbb bf89 c43c b72b a4bd
00000110: cdfd 62bd 4fae e0bd beb3 53bd 7e5e 673d
00000120: 31c8 18bd 7cb3 a8bc 5e3e db3d 64d9 3cbc
00000130: 0037 bfbd d07f 8f3d da88 9fbd 59d0 01be
00000140: 7baf 92bc 6cb3 403d f65e 423a a3f8 3c3b
00000150: 59ef ac3d 4315 d03d 48e9 643d d0c8 febd
00000160: fc8b 603e aa62 45bd ba4e 583d 8deb bfbc
00000170: 618d d5bd 8e9b fabd b8a7 b3bd 6afe e43c
00000180: 23c0 7d3d 854d 743d 9ad8 133e c260 22be
00000190: a8d4 1ebe 084d b83b bc8d 37bd 7497 c83d
000001a0: 72ba 503c bcf3 843d d286 b73c 5d39 81bd
000001b0: 881e e4bc a1fd ee3d 8a6e 3e3d 38f0 123d
000001c0: 21b1 993d bfb4 963d 9a9a c3ba c6d9 08bc
000001d0: 3cd7 b7bd 3e69 be3d 2784 e43d be03 833d
000001e0: b5d1 a93d 934b 7fbd 2295 51bd cbee 933d
000001f0: 560b 423c 6e17 5cbd ec7a 793d a8b4 963c
0.009305968 -0.041189473 0.007950644 -0.14127468 -0.108839236 -0.015007893 -0.029260894 -0.051882155
0.0004440139 -0.0078755105 -0.09323235 0.1036217 -0.03677159 0.058496978 0.0024020055 0.046482585
-0.10466193 0.052421294 -0.09440753 0.012097817 0.003600392 -0.05286693 -0.0433214 -0.11742018
-0.09951923 -0.28054744 -0.038134888 0.017673032 -0.1377961 0.07564268 0.13264 -0.07735796
-0.13021027 0.00049143034 -0.048508484 -0.053200904 -0.08171668 -0.02904408 0.055326585 -0.07534258
-0.13078408 0.02414833 0.10582378 0.036476694 -0.014534377 0.022625027 0.0101714 -0.066266336
-0.078839205 0.03134909 0.029327232 0.08613173 0.15043177 0.02670753 0.01018331 -0.027388753
0.001024712 0.11044807 -0.048697785 0.15506881 -0.16444948 -0.049091477 0.0090949 -0.08076124
-0.06866563 -0.00476299 0.023991464 -0.080161504 -0.055417825 -0.10970747 -0.051685087 0.0564866
-0.037300292 -0.020593397 0.10705255 -0.011526439 -0.09336662 0.070068 -0.07789774 -0.12677135
-0.017905941 0.04704611 0.0007414663 0.0028834722 0.084440894 0.10160305 0.055886537 -0.12440646
0.219284 -0.048189797 0.052809455 -0.023427749 -0.104273565 -0.12236701 -0.08772224 0.027953345
0.061950814 0.05964424 0.14438096 -0.15857223 -0.1551081 0.005624417 -0.044812903 0.097945124
0.0127397645 0.06491801 0.022403155 -0.06309769 -0.02784659 0.116694696 0.046492137 0.03587362
0.07504488 0.07358693 -0.0014923394 -0.0083527025 -0.089765996 0.09297417 0.111580186 0.06397198
0.082919516 -0.062327933 -0.051167615 0.072232805 0.011843523 -0.05373328 0.060908243 0.01839669

rnn.bias_hh_l0 f4 [128]
00000000: 5fbc 3fbd 5749 0cbd 11cc bfbd 605d e7bd
00000010: 8ff0 70bc 3de2 a03d d54f bf3d c425 85bd
00000020: e692 e2bc ce55 b7bd bfe3 21bd 0c23 ac3d
00000030: 2d6e 9a3a 32f6 233d 06d5 833d da6b 60bc
00000040: 5026 7dbd 0c9c 6fbd cdf8 90bc f63c 533d
00000050: 6e05 883a 8581 b7bd 01c9 c43b dc6a adba
00000060: ff6c 6dbd 529d a4be 0677 9cbd 5909 143d
00000070: 25a7 0cbd 0d17 77bd 1c4e 30bc c637 2bbd
00000080: 686e 91bd d7f8 3abd c73f 303d 2aef 9b3c
00000090: e268 69bd 6219 38be c3f0 67bc 53a0 2dbe
000000a0: 8d7b a5bd 3b91 4abd 9440 8a3d 9499 963c
000000b0: 2fc5 9b3b 9460 523d 58ca d8bb f580 0abc
000000c0: c284 583d 6732 a63b 055d d7bc 4564 e23d
000000d0: 9d9f e33c 7fe8 26bd aa4a 0b3d 52ae 69bc
000000e0: cfbc 373d fcfe b03d 0fdd 8c3c b9a2 293e
000000f0: 7641 dbbd 444f 4cbd d92c 0cbc 2f96 85bc
00000100: 68bd 00bc ff0e ca3b 1d94 fa3c c601 513d
00000110: eed9 e83c fa29 d63c b70c 59bd e999 62bc
00000120: ef48 2ebc 3c74 84bd 8b4f 0b3c f18d 043e
00000130: d09b d0bd 1757 333d a343 6cbd b927 87bd
00000140: 17e6 4f3d 8a45 773d 4b72 883c b91c 03be
00000150: 9ce1 b23b 4d1a 58bd 9599 803d c54a f4bd
00000160: b323 1c3e ab66 473d 90cf 493e 6099 743d
00000170: d3e4 a8bd 322a 31bd dc55 c0bd db24 66bd
00000180: ec2e 213e 9e0b 243d 164a c63d 6bff 58bd
00000190: 92d2 16bc 7647 093a 5ca6 c5bd 830e 05bc
000001a0: 8a77 12bd d69a 6ebc f49f a8bd cdbd 8bbd
000001b0: 91a0 bb3d 1c1c 113c 8da6 c43c dc11 95ba
000001c0: 1d76 7abc fec2 a03d a2bc 613c 644d c43c
000001d0: 8b39 80bd e436 c9bc aafc 553a 9a22 633d
000001e0: b40c 9c3d 8e50 4b3a 466c 9d3d 1391 b73c
000001f0: 6ccd bcbc ae0e 143d 63c7 0e3d cdb9 94bc
-0.046810504 -0.03424963 -0.093650945 -0.11297107 -0.014705791 0.078556515 0.093413986 -0.06501344
-0.027657937 -0.08951913 -0.039523836 0.08405122 0.0011782103 0.040029712 0.06437115 -0.013697589
-0.061804116 -0.058498427 -0.017696762 0.05157181 0.0010377595 -0.08960251 0.006005407 -0.0013230699
-0.057965275 -0.32151276 -0.076398894 0.036141727 -0.03433909 -0.060324717 -0.01076081 -0.041801237
-0.071011364 -0.04564747 0.043029573 0.01903494 -0.05698479 -0.17978433 -0.014156523 -0.1695569
-0.08080206 -0.04945491 0.067505985 0.018383779 0.0047537307 0.051361635 -0.006615918 -0.008453597
0.052860983 0.0050719264 -0.026289472 0.11054281 0.02778607 -0.04074907 0.034006752 -0.014262753
0.044857796 0.086423844 0.017195253 0.1656598 -0.10705845 -0.04988028 -0.008555614 -0.016306965
-0.007857658 0.0061663385 0.030588204 0.051027082 0.02842423 0.026143063 -0.05299064 -0.01383064
-0.010637506 -0.064674824 0.008502851 0.12944771 -0.10185969 0.043784227 -0.05768169 -0.06599373
0.05075654 0.060369052 0.016656062 -0.12803926 0.0054590236 -0.052759457 0.062792934 -0.11928324
0.15247993 0.048681896 0.19708085 0.059716582 -0.0824677 -0.04325313 -0.093913764 -0.056187492
0.15740556 0.04005014 0.096820995 -0.05297796 -0.009205477 0.0005236784 -0.09650871 -0.008121136
-0.035758533 -0.014563283 -0.08233634 -0.06823311 0.09161485 0.008856799 0.024005199 -0.001137312
-0.015286949 0.07849692 0.013777884 0.023962684 -0.062609755 -0.024562307 0.0008162955 0.05545292
0.076196104 0.0007755839 0.07686667 0.022408044 -0.023047172 0.036146812 0.03485812 -0.018155003

fc.weight f4 [2, 128]
00000000: 34e7 4abd 6ea0 44bc be5b 8f3d 87c9 9b3e
00000010: fda2 4f3b 4108 cbbb 7013 18bd 0b2a aa3c
00000020: ee0f fcbc 6fa5 5a3d 5493 6b3e 65f5 8fbe
00000030: 86ab 72bd 837a 463d 83b7 163d 191e 8fbd
00000040: 19ac 9a3e 5365 81bd b956 73bc 3dd4 d8bc
00000050: 06f0 4bbd b0ba 04bd b12f 6fbc 82fd 6c3d
00000060: 4e1d e53c 6d9e 723d f2f1 90bd 57de 76bc
00000070: 8a58 b73d b16c 673d 2ec0 76bd 3849 b33d
00000080: 4809 a03e fca8 7b3c bb2d 14bd d0ad 36bd
00000090: f464 ec3b f5d2 873e bc9e 433d e95a 163e
000000a0: 047e 583d ee98 16bd e089 45be c189 003d
000000b0: babd c5bd a31d 9bbb fe14 59bc 7d65 aa3b
000000c0: 0b52 b1bc c2e4 b33d e75b 023c 39a6 26bc
000000d0: c7be 8cbe 11c7 bfbc db0a 7ebd 1fca 5b3d
000000e0: 0b11 cebd 1a2b 08bd c061 223d 8aaa 24be
000000f0: 2aa1 7dbc 6004 853d 85ed 153d 7b24 c3bd
00000100: 4e75 963c abcb 863d 6e7a 2ebd 2720 033d
00000110: d0a1 67bd f2a7 1dbd a8b1 82bd 2839 a43d
00000120: 5060 773b 1dda 6f3e 3d5d a13a 8fc2 95bc
00000130: 6812 cd3d 5942 48be ddb4 6bbc a68b 16bd
00000140: 5bab 713c 88da 70be 2a21 b1bd 9c05 8bbd
00000150: 8cb6 a2bb c542 13bc 69b0 15bd 8e47 7c3e
00000160: 608f 4cbe 116a 60bd d486 a7be 3ae7 cf3b
00000170: 51aa 113e d4b2 bf3d 58f5 e1bc 475c cbbc
00000180: 9ae2 4abe 9268 043c 5a22 81bd 7c59 963e
00000190: 6f4d e63b 5d35 103c f063 b23d d368 1ebc
000001a0: 7a6a 4abb 9676 2f3d d784 70bc 52bb 3ebc
000001b0: e763 a63c 6ff9 3e3a 2424 e4bd 4485 36bc
000001c0: 9014 c93b 5434 92be fd94 353d 76c2 a6bc
000001d0: 9cff f4bd c531 f5bc 40ca ee37 7a65 32bd
000001e0: 73d0 e2bd 73ff 913b 134b 903d 4a09 c83b
000001f0: ce2d 0ebd 4701 ec3c 8322 25bd 8660 e0bc
00000200: 0b8f 35bd 777a 9f3c 1577 593c 1d94 85be
00000210: bc86 103d 9467 2d3d 8c36 a5bd abff a33d
00000220: 34c3 633b 80ef c4bd cdcc 9abe f599 2c3e
00000230: 5c2a 563d a0de 593d 123d a23d f47f 983b
00000240: 2b5d 63be 9cd4 02bd d406 8cbb 7d1b 1f3d
00000250: a76d 17bb 0065 f73a acd1 00be cb9a 17bd
00000260: 2bba 573c 1997 30bd 8414 d4bb 601a 6ebd
00000270: 726f 96bd ea4f 86bc 7f9d cebb 951a a0bc
00000280: c407 abbe 6915 0abd a93c 54bc 3708 04be
00000290: 5a7f a4bd 2ab5 9bbe 4bcf 823b d297 4dbe
000002a0: 2d05 2e3d aeea d0bc b5de 7b3e c71d ef3c
000002b0: 21e3 18bd 01bb 00bd 0c9c c5bb 4f9c 16bc
000002c0: 68c7 1c3d 5009 073c 6347 a1bd c0aa 7cbd
000002d0: 410e 403e dc21 cabc ac9b b7bc 3d54 973c
000002e0: 3479 43bc b0b8 a03d 9f6e 103d a84f 133e
000002f0: 3b4f 9fbd 8bd0 0cbd 2dd1 5f3d 7eba 0ebd
00000300: 3176 313d b6ae 903d c268 1c3d 5bfc 1ebc
00000310: 8967 613b 8f95 89bd 664e 073d a921 d63c
00000320: 0d19 7fbc ffab 6fbe 659d be3c 5eee 3f3d
00000330: de53 52bc ee0b a53e 8931 d2bd 05af 9fbd
00000340: 7a00 05bd fff4 a43e 5dcd b73d f239 8cbd
00000350: 6003 0dbd 3d6c 5cbd 1940 06bd 9ddb a1be
00000360: d3b9 373e a645 02bd e67e 903e 64cb a1bc
00000370: 4868 1bbe a26b 103c 3a24 5b3d a7ca 13bd
00000380: 9a5f 613e 08fe 153c b78c f43c 7461 8fbe
00000390: ab20 6fbd 1618 1e3d 5e69 f83c 543c 37bd
000003a0: f45c 1abd f6a3 85ba 17c5 593d 3445 67bd
000003b0: acc9 55bc dacd 7a3d 8a4c 003e f947 d6bc
000003c0: 5c96 3fbb 0de2 3b3e d534 5ebd 3c82 d83c
000003d0: 324d 1bbd 63fd 7f3b 817c 1fbc 8c4e 973d
000003e0: 641a aa3d bcd3 143d 8058 d63c 5b4e 3f3d
000003f0: 2246 70bc 2ca2 27bd 7d51 f93b 8cc0 a9bd
-0.0495369 -0.01200114 0.0699992 0.3042719 0.0031682842 -0.0061960523 -0.037127912 0.020772
-0.030769315 0.053380426 0.2300542 -0.2811691 -0.05924561 0.04845668 0.036796104 -0.069881625
0.30209425 -0.06318154 -0.014852219 -0.02646839 -0.04978945 -0.0324046 -0.014598773 0.05785895
0.027968075 0.059233118 -0.070773974 -0.015067658 0.08952434 0.05650014 -0.06024187 0.087542
0.3125708 0.015360113 -0.036176424 -0.044599354 0.007214183 0.26528135 0.047758803 0.14683117
0.052854553 -0.03676694 -0.19290876 0.031381372 -0.09655328 -0.0047337576 -0.013249634 0.0052000866
-0.021645566 0.087838665 0.007956482 -0.0101714665 -0.27489302 -0.023410352 -0.06202207 0.053659555
-0.100618444 -0.03324423 0.039644003 -0.1608068 -0.015480319 0.06494975 0.03660347 -0.095284425
0.018366482 0.06581815 -0.042597227 0.032013085 -0.0565508 -0.038490243 -0.063815415 0.08018714
0.0037746616 0.23423047 0.0012311112 -0.01828125 0.10013276 -0.1955656 -0.014386383 -0.036754273
0.014750327 -0.23520863 -0.08648904 -0.06788179 -0.004965609 -0.008988087 -0.03654519 0.24636671
-0.19976568 -0.054788653 -0.32720053 0.006344703 0.14225127 0.09360281 -0.02758281 -0.024824275
-0.19813004 0.008081572 -0.0630538 0.29365146 0.007028274 0.008801785 0.08710468 -0.009668547
-0.003088622 0.0428377 -0.014680109 -0.01164134 0.020311309 0.00072850933 -0.11139706 -0.011140171
0.0061364844 -0.28555548 0.04433154 -0.020356398 -0.11962816 -0.029930959 2.846599e-05 -0.043553807
-0.11074915 0.0044555007 0.07045569 0.006104623 -0.03471165 0.028809203 -0.040316116 -0.027389776
-0.04432587 0.019467575 0.01327302 -0.26089564 0.035284743 0.042335108 -0.080670446 0.08007749
0.0034753801 -0.096159935 -0.30234376 0.16855605 0.05228649 0.053190827 0.079218045 0.004653925
-0.2220351 -0.03194104 -0.004273275 0.038844574 -0.002310613 0.0018874705 -0.12579983 -0.037012856
0.0131669445 -0.043112848 -0.006472172 -0.058130622 -0.07345475 -0.016395528 -0.006305396 -0.019543925
-0.33404362 -0.033711825 -0.012953916 -0.12893759 -0.08032103 -0.30411655 0.0039919964 -0.20077446
0.042485405 -0.025502529 0.24596675 0.029189004 -0.037325982 -0.03142834 -0.006030565 -0.00919254
0.038276106 0.008241966 -0.07874944 -0.061686277 0.18755437 -0.024674349 -0.022413097 0.018472785
-0.011930753 0.07847726 0.035261746 0.14385855 -0.07778784 -0.03437857 0.054642845 -0.03484582
0.043325607 0.070645735 0.038185842 -0.009703721 0.0034393987 -0.06717979 0.03303375 0.026139097
-0.015569937 -0.23405455 0.023268411 0.046858184 -0.012837378 0.32235664 -0.10263354 -0.07797054
-0.032471158 0.32218167 0.08974717 -0.0684699 -0.034427047 -0.05381416 -0.032775972 -0.31612864
0.1794198 -0.031804703 0.28221816 -0.019750305 -0.15176499 0.008814724 0.053501345 -0.036081936
0.22009125 0.009154804 0.029852254 -0.28004038 -0.058380764 0.03859719 0.03032368 -0.044735268
-0.037686303 -0.0010195959 0.053166475 -0.05646248 -0.013048571 0.06123147 0.12529197 -0.026157366
-0.0029233908 0.1834795 -0.054249603 0.026429288 -0.037915416 0.0039060942 -0.009734274 0.073880285
0.08305815 0.036334738 0.026165247 0.046705585 -0.014665158 -0.040926144 0.007608591 -0.082886785

fc.bias f4 [2]
00000000: 33c1 c33c a3d2 82bd
0.023895836 -0.06387832
