detector/models/128_1_64_5_32_0.001_covert_detector_4.pth (torch, 72573 bytes, 6 tensors)

rnn.weight_ih_l0 f4 [128, 3]
000000 d7 5e 07 bd 0b 85 13 bc 91 87 49 bd 52 1a 6d 3d
       -0.03304943 -0.009003888 -0.04920155 0.05788643
000010 15 16 a1 3c 0a 6f 15 3d d7 95 a3 bd 60 eb 94 bd
       0.01966385 0.03648285 -0.07987564 -0.07271457
000020 32 78 92 bd 0f 2f 83 3d c1 12 26 3c 82 43 10 3b
       -0.07151832 0.0640546 0.010136307 0.0022012894
000030 b2 c7 96 bc 43 20 b0 3d 7a 3b 3d 3d 76 a9 b1 bd
       -0.018405769 0.085999034 0.0461993 -0.086749
000040 6f 7e f0 bb 37 e2 25 bc 0e 8f 44 3d ba 40 98 ba
       -0.007339291 -0.010124735 0.04798799 -0.001161597
000050 a7 97 6f 3d db 56 e8 3d 34 6a 19 bb 40 5f b3 3d
       0.058494236 0.11344691 -0.002340925 0.08758402
000060 30 88 89 bd 2f 92 ad 3d a2 68 49 bc b6 19 8b bd
       -0.06715429 0.08475148 -0.012293013 -0.06792013
000070 e9 d4 a4 3a 5b e4 b3 bd 35 92 82 bd e9 ca d7 bc
       0.0012575659 -0.0878379 -0.06375543 -0.026341872
000080 ee fa 87 bc 08 e2 a2 3d be a8 ff 3b a6 8e d9 3d
       -0.016599145 0.07953268 0.007802098 0.10622911
000090 89 51 78 3d 3e 18 ad bd 27 56 fe 3c 1e d6 13 3d
       0.060624633 -0.084518895 0.03104694 0.03609287
0000a0 ee f0 8d ba e0 87 c8 3c 46 70 0d 3d ec 77 9d 3d
       -0.0010829249 0.024478853 0.0345309 0.07688889
0000b0 5f a6 b3 3c c0 b8 fd bc 90 ba 7d bc ee 6e 0c 3d
       0.021929918 -0.030971885 -0.0154863745 0.03428548
0000c0 1b 7b af bd bb 8c 00 bc cf 77 06 bd 3b 2c 22 3c
       -0.085684024 -0.007846053 -0.032829102 0.009898241
0000d0 ca e0 48 bd b6 cf 0a 3c 0c 2f c4 3d 49 92 09 3d
       -0.0490425 0.008472374 0.09579286 0.033586774
0000e0 9b 5a df bc cf b0 03 3d c9 ca 20 bc 48 67 82 3c
       -0.027264884 0.03215104 -0.009813973 0.015918389
0000f0 ff 55 1d bd 2f 7e 04 3d 56 ed c0 3c 30 f6 b0 b9
       -0.03841209 0.0323469 0.02355067 -0.0003375276
000100 1c c6 78 3c 68 21 7a bd 58 b2 7e bd 34 54 25 bc
       0.015183952 -0.061067015 -0.0621818 -0.010090876
000110 eb a4 9c bd 98 7d f9 bd 7b 60 58 bc f2 6e 9e bd
       -0.07648643 -0.12182158 -0.0132065965 -0.07736005
000120 f3 06 2b bd c7 53 30 3a 8f d7 81 bb 04 3d 58 3d
       -0.041754674 0.0006726351 -0.003962464 0.052792564
000130 26 78 4f 3d 12 ab 6c bd ec 27 43 bd 26 a8 a4 3b
       0.05065169 -0.057780333 -0.047645494 0.0050249277
000140 61 ca 0b 3d 11 1d 89 3d 24 d9 84 3c 0d d4 5e 3c
       0.03412855 0.06694997 0.016216822 0.0136003615
000150 09 51 a2 3d 7b 96 a5 ba 7f 04 2b 3e a0 47 dd 3d
       0.079256125 -0.0012633348 0.16700934 0.10804677
000160 00 93 e5 ba 7f 49 34 3d 90 19 96 3d 5e 6a 08 ba
       -0.0017515123 0.044015404 0.073290944 -0.0005203838
000170 e8 d0 03 3c d3 8d 04 be f8 72 a7 bc 5b c2 74 bd
       0.008045413 -0.12944727 -0.020440564 -0.059755664
000180 e9 d7 6e bd 2f 83 75 bd 16 75 3d bd 52 0f 2b bc
       -0.058311377 -0.05993956 -0.04625424 -0.010440664
000190 46 57 d3 3b 94 b7 57 3d 84 08 ec 3c 21 94 2b 3d
       0.006449613 0.052665308 0.028812654 0.041889314
0001a0 99 f4 ae 3d 86 ea 56 bd 9e c7 90 bd e7 70 0e bc
       0.08542747 -0.052469753 -0.07069324 -0.00869391
0001b0 c8 10 98 3c bc 2f 7e 3c c1 74 c5 bc de f6 7f bd
       0.01856269 0.01551431 -0.024103524 -0.06249129
0001c0 ae 25 02 bd 9e 56 ee 3c 40 be c0 3d ea db 80 3b
       -0.031774215 0.029094037 0.09411287 0.003932466
0001d0 62 76 65 3d 16 ac ab 3c 04 a9 b8 bc c8 2a 6f 3d
       0.0560211 0.02095608 -0.02254153 0.05839041
0001e0 2d 0d 28 bd d7 87 c0 bb b0 8f 20 3d 87 4c 1a 3d
       -0.04102819 -0.0058755684 0.03919953 0.03767064
0001f0 67 b8 0f bc 52 c7 1e bc a4 23 5b 3d 4a 56 69 bd
       -0.008771992 -0.009691076 0.053500786 -0.056967057
000200 c7 0e 59 bd ed a8 88 3d 91 0f fe 3c 99 b7 ac 3d
       -0.05299261 0.06672845 0.031013282 0.08433456
000210 66 9f 05 bd 5b 19 74 bd 73 96 c9 3c 8d e3 b1 3c
       -0.032622717 -0.059594493 0.024607873 0.02171495
000220 56 f6 20 bd 24 07 71 bd 9a e8 d2 3d 61 93 0f 3c
       -0.039297424 -0.0588447 0.102982715 0.008763165
000230 e1 e6 c3 3d 34 6c a4 3c 8c 8f af 3c e9 c9 d1 bc
       0.09565521 0.020071127 0.021430753 -0.025608974
000240 cf ad 4f 3e fd 2c d0 ba 99 67 f8 3d 74 e0 d3 bd
       0.20281146 -0.0015882548 0.12129135 -0.103455454
000250 3b a5 c3 bd c6 bc e6 3c d9 4c 86 3d c5 b2 c0 3b
       -0.095529996 0.028166186 0.06557626 0.005880686
000260 02 58 b6 3d f0 48 41 bd 0b 08 78 bd 0d 25 87 bc
       0.08903505 -0.0471887 -0.060554545 -0.01649716
000270 1e 72 f3 bc 9f 84 ec 3c 5d 0e 68 3d 5e 3a 12 3d
       -0.029717501 0.028871832 0.056654323 0.035700195
000280 35 37 f3 3b 7f e8 0f bc 94 15 b0 bc 3a ca eb 3c
       0.0074223527 -0.008783459 -0.021494664 0.028782953
000290 ad 1d 3e bc e4 96 14 bd 95 9d c0 3d a4 af 8e 3c
       -0.011603755 -0.036276713 0.094050564 0.017417736
0002a0 b3 a2 ec bc c8 e4 a3 3d b8 d7 35 3c 5a fd f8 bd
       -0.028886175 0.08002621 0.011098795 -0.12157698
0002b0 a1 ae cc 3a d1 4e 1c be 7d f6 a6 bd 17 c0 85 3a
       0.0015616008 -0.15264441 -0.08152483 0.0010204342
0002c0 eb f7 fe bd 9a f9 bb bd b3 d5 cb bb d1 63 c2 3b
       -0.1244963 -0.09178467 -0.0062205433 0.005932309
0002d0 34 49 97 3d 9a 3a 87 bd be 27 55 3c 68 e9 05 3d
       0.07387009 -0.06602974 0.013009964 0.032693297
0002e0 e8 4c 68 3c d6 66 b1 3d aa c0 0e bd 93 4f 56 3c
       0.014178492 0.086621925 -0.034851708 0.013080495
0002f0 ae 8e a1 3d 5d 3f 0e 3e 89 a2 72 ba 51 36 ee 3c
       0.07888542 0.13891359 -0.0009255787 0.029078634
000300 dd 24 02 bd 55 03 b6 bd af 40 3f 3c 95 ee a2 3d
       -0.031773437 -0.08887354 0.011673137 0.07955662
000310 b2 7e a0 3d 1e d4 13 bd 6f b6 58 bc 7e 9d 9e bc
       0.07836665 -0.036090963 -0.013227089 -0.019362208
000320 46 05 e2 bb 44 66 fc 3b bb f9 91 3c 57 8b 4d bc
       -0.0068976013 0.0077026207 0.017819276 -0.012545428
000330 ee 40 90 bd 49 f1 85 bd 72 97 60 3d e1 06 ae bd
       -0.07043634 -0.06540162 0.05483193 -0.08497406
000340 78 9c 91 bc 1a 59 4e bd f2 c1 74 bd 20 50 43 3d
       -0.017774805 -0.050377943 -0.059755273 0.047683835
000350 35 e8 3f 3d 6d a3 80 3d d2 f6 29 3d 93 34 5b 3d
       0.04685231 0.06281171 0.04149515 0.053516936
000360 cd b7 03 3c 2d 52 1e 3b 97 b6 55 3d ec b4 d9 3d
       0.008039427 0.0024157867 0.052176084 0.10630211
000370 da b0 5e ba 09 d4 ca 3d cd 08 9b bd 44 9f 21 bd
       -0.0008494981 0.09903724 -0.07570038 -0.03945853
000380 c2 9f 44 3c 15 e4 31 3c 20 07 5f bc e3 66 01 3d
       0.01200098 0.010857602 -0.013612539 0.03159226
000390 b2 ea ee bb 16 39 ed 3b f4 72 53 3d bc b8 c3 bd
       -0.0072911615 0.007239471 0.0516233 -0.0955672
0003a0 f3 2c 95 bd 16 2e 43 3b 9f 0a 5b 3d d8 b2 ee ba
       -0.07283964 0.0029782108 0.053476926 -0.0018211259
0003b0 19 9a e6 3d e8 44 13 bd 9c e1 ec 3a 55 4b b8 bd
       0.112598605 -0.035954386 0.0018072608 -0.089987434
0003c0 9d 5b 36 bd f8 b1 fa 3b e4 fa 98 3d 6a aa d6 3c
       -0.044520963 0.00765061 0.074697286 0.026204307
0003d0 b0 4c 65 bd 17 e8 be bc 30 98 5d 3d c8 a1 68 bd
       -0.055981338 -0.023304028 0.054100215 -0.05679491
0003e0 3a 97 80 3d 96 ae a1 bd 8a 89 12 bd a6 d9 1d 3d
       0.06278844 -0.07894628 -0.0357757 0.038537644
0003f0 01 38 21 3d 61 5d c4 bd e5 91 9c bd fc 6c dd 3d
       0.03936005 -0.09588123 -0.07645015 0.10811803

rnn.weight_hh_l0 f4 [128, 128]
000000 57 88 7e 3d 42 57 32 bd a9 8b 18 bc ba 60 a2 bc
       0.062141743 -0.043540247 -0.009310641 -0.019821513
000010 12 8b 03 bc b5 fd b2 3d 20 52 28 bd f9 e8 c8 3d
       -0.008028762 0.08739797 -0.041093946 0.09810061
000020 c1 ba be bd 48 36 7a bd d4 12 56 bc a0 58 e0 3c
       -0.09312964 -0.061086923 -0.013066012 0.02738601
000030 12 53 6e 3d ae b5 6d bd d3 79 2c 3d ca b7 19 bd
       0.05818469 -0.05803459 0.042108368 -0.03752879
000040 4c 69 9a bd 90 8e b5 3d e3 8b 91 bb c8 5c 5b bc
       -0.07539615 0.08865082 -0.0044417246 -0.01338882
000050 29 d5 76 3d b8 1f a1 bc 82 27 9b bc de a9 87 bd
       0.06026188 -0.019668445 -0.018939737 -0.066241965
000060 aa c2 94 bd 27 bf fe bc ac 84 a5 bd 34 7d 45 bd
       -0.07263692 -0.031097008 -0.08081946 -0.048215106
000070 57 23 46 bc e6 94 71 3d 92 33 ca 3d c0 a9 48 bd
       -0.012093387 0.05897989 0.098731175 -0.04899001
000080 35 52 a2 3d 53 52 48 bd 79 12 09 3d 83 b5 e4 3c
       0.07925836 -0.048906635 0.033464883 0.027918583
000090 94 c6 d4 bd 91 17 7c bd a3 eb 1e bc cb 65 bf bc
       -0.10389438 -0.061545912 -0.009699735 -0.023363968
0000a0 0c 10 52 3c bd 19 d8 3c 38 e8 6b 3d 27 6c 70 bd
       0.012821209 0.02637946 0.057594508 -0.058696892
0000b0 c3 bc af 3d 5e 2b de 3d 13 71 93 3c 6b aa a8 3d
       0.08580925 0.108481154 0.017998254 0.0823563
0000c0 06 08 2b bd 79 9a 46 3d 04 73 fb bd c9 8f 51 bd
       -0.0417557 0.04848716 -0.12277797 -0.051162515
0000d0 27 37 03 3c 03 a0 16 bd ec a0 2a bd 1a 77 e7 bc
       0.008008755 -0.036773693 -0.041657373 -0.028255034
0000e0 60 8f 54 bd 45 f2 a2 bb 05 41 fe bc cb d0 42 bd
       -0.051894546 -0.0049727284 -0.031036863 -0.0475624
0000f0 73 32 20 bd 25 9e 0a 3d 07 5d e7 bc 46 b1 db bb
       -0.039110612 0.033842225 -0.028242601 -0.0067044822
000100 70 bb 14 bd e3 ec 3b bd 37 1d 0e bd 4a 10 88 bc
       -0.036311567 -0.04588021 -0.03469583 -0.01660933
000110 37 42 e3 3d 89 0a 94 bd c4 56 8c bd d4 5d 1e ba
       0.11096614 -0.07228572 -0.06852487 -0.0006041203
000120 eb 96 85 bc 8b 1a 5a bc 21 49 07 3d 1f 63 dc bc
       -0.016307315 -0.013311992 0.033028726 -0.026902733
000130 86 42 b6 3c 35 d9 8d 3d ae 78 0d 3d c9 f8 5d bc
       0.022248518 0.069261946 0.034538917 -0.013548085
000140 65 1c 17 3d 14 a9 fb 3b de 07 5e 3d 03 83 fb 3d
       0.036892314 0.007680068 0.05420672 0.12280848
000150 f2 d2 03 bd 5e e3 80 bb bd 47 ae 3d 70 38 b1 bd
       -0.032183595 -0.0039333543 0.08509777 -0.08653343
000160 2d b9 56 3d 0c ca 28 bb 2c a1 8d 3d 76 d8 8c bc
       0.05242269 -0.0025755195 0.06915507 -0.01719306
000170 46 db c8 bb 20 b9 eb 3c 05 1c 50 3d dc fd e0 bb
       -0.006129655 0.028774798 0.05080797 -0.0068662
000180 f8 2e b4 bd 35 b0 c9 3c ee 9b 6a bd 5d a2 d2 bd
       -0.08798021 0.024620155 -0.057277612 -0.102848746
000190 7d 51 22 bc 5f 12 50 bd e5 68 d6 3c d5 28 26 bd
       -0.009907124 -0.05079877 0.026173064 -0.040566284
0001a0 df 56 cb bc af 1a ed 3d 1b dd 0e bc ea dc 88 3d
       -0.024821697 0.11577355 -0.008719708 0.06682761
0001b0 42 81 61 3c 6d c4 83 3b 1b a0 8c bd 47 79 b0 3c
       0.013763728 0.0040212185 -0.06866475 0.021542205
0001c0 4b 44 d1 bc fb 75 65 3d 65 2d a9 bd 90 5a 3a bc
       -0.02554526 0.056020718 -0.082606114 -0.011374131
0001d0 05 6c 2f 3d 36 a3 f2 3c 53 0b 86 bc cb 38 38 3d
       0.042827625 0.02961884 -0.016362822 0.044976037
0001e0 7a 0b 5f 3d 37 99 e2 bc 53 f2 d4 3c 13 61 ef 3c
       0.054454304 -0.02766095 0.025994455 0.029221093
0001f0 94 fb e4 bc 27 08 a5 3d 06 34 5b 3d 47 07 a7 3c
       -0.027951993 0.080581956 0.05351641 0.020389212
000200 03 4a 10 bd ba ad 5f 3d f4 32 2d bd 97 a3 10 bd
       -0.035226833 0.054609038 -0.04228492 -0.03531226
000210 8c 22 ac bc a9 2c 46 bd 96 fc a8 3b 19 38 18 3d
       -0.021012567 -0.048382435 0.0051570637 0.037162874
000220 2b 9f 89 3d 9f 70 d5 bd 4d 7c 03 3d 39 92 6d 3d
       0.06719812 -0.104218714 0.032100964 0.058000777
000230 d3 6d 95 3c bc d0 b6 bc a5 46 c5 3d 21 4a 6c bd
       0.018240845 -0.02231633 0.09632615 -0.057687882
000240 b7 32 3d bd 00 5f 3d bc ce 65 bb 3d f2 1a b7 3c
       -0.046190944 -0.011558294 0.09150277 0.022351716
000250 40 b6 14 3c be 4d ee 3d 5f 4b 97 bc 83 4a 1f be
       0.009076655 0.11635922 -0.018468557 -0.15555768
000260 23 07 4a 3d 85 f3 8f bc b6 32 b1 3d d6 31 eb 3d
       0.049323212 -0.017572174 0.086522505 0.11484115
000270 0d 19 06 3b a0 31 f7 bc a9 44 f9 bd 10 a7 ea bd
       0.0020461709 -0.03017503 -0.12171299 -0.11457646
000280 fe 73 e5 bd 9e de 34 3d 09 87 80 3d fb 4c 46 3d
       -0.112037644 0.044157617 0.06275756 0.048413258
000290 d3 c2 90 3d d2 c4 54 3d 5e 83 c9 3d c2 bc c7 3b
       0.0706841 0.051945515 0.098395094 0.0060954997
0002a0 2a 1d 9c bd 21 1b cf bc 75 f2 32 3d 61 df c3 3d
       -0.0762275 -0.02528149 0.043688256 0.095640905
0002b0 84 57 d9 bd 2a 49 62 3d 1e 9b 20 3e 5d 00 1a bc
       -0.106123954 0.055245556 0.15684173 -0.009399501
0002c0 10 ab 51 3d ae 37 32 bc d5 83 57 3c 6f f2 c5 3c
       0.05118853 -0.010877533 0.01315399 0.024163453
0002d0 e4 f8 de bc e2 77 b3 3d ef 5f 9f bd bb 49 44 bb
       -0.02721829 0.087631 -0.0778197 -0.0029951173
0002e0 82 c1 22 bd df 8b d6 3c 9f d6 9f bd 20 87 8e bd
       -0.039735325 0.026189743 -0.078046076 -0.06959367
0002f0 66 66 6c bd 80 fb 57 3d 44 ef b5 3c e2 49 4a 3d
       -0.057714842 0.052730083 0.022208817 0.049386866
000300 a7 63 2c 3d 4d 97 21 bd a2 53 9c bd 47 d5 ef 3c
       0.042087223 -0.039450932 -0.07633139 0.029276503
000310 1f 34 14 3d db 91 c7 bc 01 1e 00 bd 1d 17 c4 3d
       0.03618252 -0.024361541 -0.031278614 0.09574721
000320 52 7b fb 3d 42 e3 0b 3b 05 76 00 3d 5f c1 ab 3b
       0.12279381 0.0021345173 0.031362552 0.0052415575
000330 10 71 bd bc 5c ae 30 bd 7e 26 d2 bb 0e 89 60 bc
       -0.023125201 -0.043135032 -0.00641328 -0.013704551
000340 59 92 96 3d db a8 69 ba 89 43 4d bd a7 86 78 3c
       0.07352132 -0.0008913406 -0.050113235 0.015168822
000350 a3 92 23 3c 91 b6 92 bd b6 b3 6d bc c5 34 6f bb
       0.009983691 -0.07163728 -0.014508178 -0.003649996
000360 47 f0 c0 bd 98 f8 9d 3d d0 a3 f6 bd bf 49 15 3d
       -0.09420829 0.07713431 -0.120429635 0.036447283
000370 41 b6 e2 3d cf 5f 63 3c b4 1f 81 bd 64 2e 24 39
       0.110699184 0.013877823 -0.06304875 0.0001565754
000380 56 50 b8 3d 39 d0 33 bc 97 d6 a1 3d d9 4b 49 3d
       0.08999698 -0.010974937 0.07902258 0.0491446
000390 85 55 04 bd 70 b9 f4 3d 5a 24 02 3e df d4 df 3c
       -0.03230812 0.11949432 0.1270918 0.027323185
0003a0 d7 58 b4 bd 4a df b9 bd e5 b9 ea 3d 83 f9 1a bc
       -0.08806007 -0.09075792 0.11461238 -0.009458902
0003b0 1a 38 3e 3d b3 de 06 bd 15 79 30 3c 02 67 fc bd
       0.04644022 -0.032927226 0.010771056 -0.12324335
0003c0 f9 44 50 bd 0a de 0b be 06 5c 3c bd fc 47 9c bb
       -0.050847027 -0.1365892 -0.045986198 -0.0047693234
0003d0 74 eb a5 bc 71 d0 e9 bb 0c 99 8c 3d 8d 88 b6 3c
       -0.020253874 -0.007135444 0.06865129 0.02228191
0003e0 a5 75 52 3d a0 7b d0 bc 8c 1a d6 3d da 96 bf bb
       0.051381726 -0.025449574 0.10454282 -0.0058468403
0003f0 14 65 8b bc 44 94 ef 3d 6c be 08 3e df 9a 74 bd
       -0.017015971 0.11698201 0.1335389 -0.05971801

rnn.bias_ih_l0 f4 [128]
000000 cc 35 c5 3b 77 50 fb bc 01 d4 3d bd e0 fa 46 3d
       0.006018376 -0.030678017 -0.04634476 0.048579097
000010 f7 3d ba 3d de 77 5b 39 18 84 5c 3d d3 7f 5f 3e
       0.0909385 0.00020930122 0.053836912 0.21826105
000020 af 4e 87 bd 01 18 1c be f6 a2 4d 3c c9 b5 c5 3d
       -0.066068046 -0.15243532 0.01255106 0.096538134
000030 c6 55 bf bd 80 c7 cc 3d bd 08 6c 3c fa b5 3b 3d
       -0.09342532 0.09998989 0.01440638 0.045827843
000040 fc f3 88 bd 42 2c 8d 3d ee f4 06 3d 7c b0 09 3d
       -0.06687161 0.06893207 0.032948427 0.033615574
000050 e3 88 bd bc af 2b 40 bd fe 8c 65 bd 5f 0a d9 ba
       -0.023136562 -0.04691666 -0.056042664 -0.0016558877
000060 c4 81 74 bd 94 b0 04 bb 0f ed 8d 3d 7b 46 2e bd
       -0.059694067 -0.002024685 0.06929981 -0.042547684
000070 6f 1f f7 3d e3 57 e7 3d 26 2d 93 3d 23 dc ae bb
       0.12066542 0.1129606 0.07186346 -0.005336301
000080 da e9 c2 bd c8 07 00 3e 59 d5 8e 3d 26 d5 9d 3c
       -0.0951726 0.12502968 0.069742866 0.019266676
000090 a8 c5 9c bd 6b 95 b3 bd f9 23 7a 3d 8a cb 9a bd
       -0.076548874 -0.087687336 0.061069462 -0.07558353
0000a0 0c 1b 69 3d e5 4e 45 bd 5b f4 5d bd cc 1e 56 3d
       0.05691056 -0.048170943 -0.054188114 0.052275464
0000b0 2f 0c 29 3d ec cf 8c 3d 56 86 de 3d b3 d2 82 3d
       0.041271385 0.068755955 0.10865466 0.06387844
0000c0 e6 0c 09 3e 95 f1 ea 3c d7 c3 49 3d 99 7c 53 3d
       0.13383827 0.028679648 0.049259033 0.051632497
0000d0 b8 75 4e 3c a1 37 5d bd 4f fa 0a 3e 35 1e b0 bb
       0.0126013085 -0.05400813 0.13572048 -0.0053746947
0000e0 e9 bf fd bc d0 4a ee bd b7 fa 31 be a3 10 f2 3b
       -0.030975299 -0.11635363 -0.17380796 0.007387237
0000f0 79 8b 91 3d 3d 60 93 bc 16 2b dc bc 7c 36 c8 3d
       0.071066804 -0.017990226 -0.026876014 0.09776017
000100 c0 16 1b bd b9 61 a7 3d e2 8b 55 bd 53 7f c4 bb
       -0.037863493 0.08172936 -0.052135356 -0.0059966235
000110 d5 c7 fe 3b c5 73 e4 bd 8c df 4c bd fa 70 02 bd
       0.0077752867 -0.11154894 -0.05001788 -0.031846024
000120 0e 8c aa 3d 14 8b 33 3e 02 d4 8a 3d f9 17 a6 bc
       0.083274946 0.17533523 0.067787185 -0.020275103
000130 8b 99 32 3c c4 c9 21 3c 13 3d 49 3e d6 89 9b bd
       0.010900865 0.009874765 0.19652204 -0.075946495
000140 7e f0 3f 3d b7 27 3f bd b7 64 33 bd 77 7c fb 3c
       0.04686021 -0.046668734 -0.04379722 0.030698998
000150 47 c3 57 bd a4 75 e8 3d fc b8 a9 bd 7b 4c 83 bd
       -0.052676465 0.11350563 -0.08287236 -0.06411072
000160 0b 52 85 3c 38 e9 e2 3d 4f 5c c9 bd f0 f3 e3 3d
       0.016274473 0.11079639 -0.098320596 0.11130512
000170 52 51 cd 3d ad 8d 86 bd 0f a8 0a be eb 5d 4d 3d
       0.10025276 -0.06569991 -0.13540672 0.050138395
000180 e0 6d 59 3d 57 64 b5 3d a5 3b fe 3c 37 87 77 3c
       0.0530833 0.08857029 0.0310343 0.015107921
000190 2f ef 94 bd 55 42 b8 3d 09 92 5b 3a a2 9d 97 bd
       -0.07272183 0.08997027 0.0008375948 -0.07403113
0001a0 b5 ae 10 bb 3c d8 b0 3d 6f 76 de 3d f0 44 9f bc
       -0.002207679 0.086349934 0.10862433 -0.019442052
0001b0 01 ff 35 3c 83 c6 83 bd 5b a4 da bd fd dc 01 3d
       0.011108161 -0.064343475 -0.106758796 0.03170489
0001c0 a8 1f c0 3d be 83 96 bc fc 4c c7 3d eb e0 cf bc
       0.09381038 -0.018373366 0.097314805 -0.025375804
0001d0 b4 4e 88 bc b6 71 c0 bc 37 c8 ce bd 81 65 6a bd
       -0.016639091 -0.023491722 -0.10096782 -0.057225708
0001e0 3d 66 87 3c 2f ce 24 3b 0e ec cb ba 45 88 9e bc
       0.016528243 0.002514731 -0.0015558021 -0.019352088
0001f0 84 06 8e bd bb 30 24 3e 78 42 43 3d 95 4d 90 bd
       -0.069348365 0.16034214 0.04767081 -0.070460476

rnn.bias_hh_l0 f4 [128]
000000 21 cf 3d 3c 6b a3 e3 3d 4c 24 99 3c dd 78 b4 3d
       0.011585028 0.11115154 0.018694066 0.08812115
000010 5c c8 7b 3d f5 aa 04 bd 25 0a 51 3e f4 63 be 3d
       0.061470374 -0.0323896 0.20414026 0.09296408
000020 fc e4 35 bd 4d a5 42 be b5 dd 82 bd 83 ce 04 3d
       -0.04440783 -0.1900837 -0.063899435 0.032423507
000030 df ea c8 3b 04 69 09 3e 4d 0f 03 3c 1a 38 d2 bd
       0.0061315144 0.13418967 0.007999253 -0.10264607
000040 7b f0 e0 bd 9c b2 47 bc c5 79 12 bd 75 33 df bd
       -0.10983368 -0.01218858 -0.03576066 -0.108984865
000050 5c fb 98 3d db ce c7 3d ec e1 e5 bd de 56 ba bd
       0.07469818 0.097562514 -0.11224732 -0.090986
000060 ab 83 96 bc 0f 94 8f 3c 3a c2 62 3c 38 e1 d5 ba
       -0.018373331 0.017526655 0.0138402525 -0.0016317731
000070 35 1a 96 3d f8 4f cb 3d 99 0a bf 3d 00 4a 67 3c
       0.07329217 0.09927362 0.09328193 0.014116764
000080 03 8d 23 3d 92 db d0 3d 35 fc dc bc 09 8c e8 bb
       0.0399294 0.1019813 -0.02697573 -0.0070967716
000090 56 c1 20 3d f6 5c b6 3c d5 c1 62 3d 44 20 17 3d
       0.03924688 0.022261124 0.055360634 0.036896005
0000a0 a1 a8 84 bd 33 69 d3 bc 74 f9 be bd 52 e7 c7 3d
       -0.06477476 -0.025806999 -0.09324923 0.09760918
0000b0 36 61 8f bd 93 16 03 3d a1 1c ea 3c 0a fc c9 3c
       -0.070009634 0.03200395 0.028578104 0.024656314
0000c0 53 50 99 3d 7d ce ea 3c 9e 91 b3 3d ff a1 a3 bc
       0.07486024 0.028662914 0.08768009 -0.019974707
0000d0 29 85 90 bc 37 bd 21 3d 9e bf 27 3c f5 1a cf bc
       -0.01764162 0.03948709 0.010238556 -0.025281409
0000e0 a6 28 10 3d fd 24 4c be a6 9b 5d bd 72 ae 0e bd
       0.035195015 -0.19935985 -0.054103516 -0.034834333
0000f0 90 48 26 3d db d0 a2 3b 25 80 aa 3d 13 b5 52 3e
       0.040596545 0.004968745 0.08325223 0.20576887
000100 1f ff 8a 3d 37 45 2e 3c a7 39 ed 3c 10 9f 9f 3a
       0.06786942 0.010636619 0.028958155 0.0012178142
000110 59 c1 a3 bb 71 7c 7e bc 31 f0 9f 3d 57 dc 13 3b
       -0.004997414 -0.015532599 0.07809485 0.0022561753
000120 35 b2 3b 3d 04 1f 75 3d a5 1e 74 3b a3 90 1e 3d
       0.04582425 0.059844032 0.003724971 0.038712155
000130 3f ad 06 3b 18 16 b1 bc 66 5a ac 3d 70 61 ef bd
       0.002055004 -0.02161698 0.0841568 -0.116885066
000140 e8 b1 44 3d 9f 00 fc bc 11 3a 45 3d af 2c c8 ba
       0.048021227 -0.030762015 0.04815108 -0.0015272106
000150 33 5d d0 bd 5e 20 87 3d 49 c1 a2 bc 16 57 37 bc
       -0.10174026 0.065979704 -0.019867556 -0.0111901965
000160 34 6b cf bd d7 47 aa 3d ea d4 7d bd 2f e5 17 3e
       -0.10127869 0.083144836 -0.06197063 0.1483352
000170 14 00 c5 bc d1 4a 10 bd 2c f1 f1 bc 4e 57 e5 bd
       -0.024047889 -0.0352276 -0.029533945 -0.11198293
000180 06 b0 6b 3d 98 d5 15 bd 90 31 c3 bc 7c 89 d2 bb
       0.057540916 -0.036580652 -0.023827344 -0.006425081
000190 b6 8f 98 3c 48 a2 ff 3c 3c 83 02 3e ac 69 64 3c
       0.018623214 0.031205311 0.12745374 0.01394121
0001a0 ad 31 b2 3d d1 8d 91 3d 25 92 46 3d b9 14 0b 3d
       0.08700881 0.071071275 0.048479218 0.03395531
0001b0 ed e5 b9 3d bf 61 97 3d e3 d2 95 bd 6f ec b7 3c
       0.09077058 0.073916905 -0.07315614 0.022451608
0001c0 6b d4 23 bd ab 2b ef 3c 0d 6a af bc 52 dd cf 3c
       -0.0399975 0.029195627 -0.021412874 0.025374088
0001d0 f6 fd a8 bc 6e 7c 2b 3c 01 00 95 bd e6 31 c0 3d
       -0.02062891 0.010466678 -0.07275391 0.09384517
0001e0 09 9f 89 3d b6 aa 5b 3d 87 f6 72 3d 41 f9 bd bd
       0.06719787 0.0536296 0.059317138 -0.09276057
0001f0 72 b8 6b bd b9 af 5f 3e 50 62 a5 bc e1 89 6b bb
       -0.057548948 0.21844377 -0.02018848 -0.0035940337

fc.weight f4 [2, 128]
000000 a6 c9 fc ba bb 85 45 3d 5b 72 93 3c 95 58 02 bd
       -0.001928617 0.04822324 0.017998865 -0.03182276
000010 ff 9c 4f 3d 5e 08 81 3a f1 09 ff be 1a fa 14 bf
       0.050686833 0.0009844413 -0.49812272 -0.58194125
000020 a7 cf 12 bc 4b 27 37 3f f5 d9 bd 3d 70 5b 78 bd
       -0.008960641 0.7154433 0.09270088 -0.060634077
000030 e0 97 8b bd ad 3d 47 bf 36 6c b0 bc 7f a2 25 bc
       -0.06816077 -0.77828485 -0.021535974 -0.010109543
000040 26 53 18 3d 58 81 fd bb 09 d5 48 3d 12 79 91 3d
       0.03718867 -0.0077363662 0.04903129 0.071031705
000050 93 5d 41 bc f2 44 4d bb e3 8c 89 3c e2 56 92 3d
       -0.011802095 -0.0031321612 0.016790813 0.07145478
000060 6f ac fa 3d cd 0d c1 3b 33 e6 e0 3c 14 3c 94 bd
       0.1223992 0.0058915378 0.027453518 -0.072380215
000070 14 49 67 be 28 ce 7b be e3 ef 14 be d2 9e 5d 3d
       -0.22586471 -0.24590361 -0.14544635 0.05410654
000080 00 ed da 3c f5 19 e8 bc fd 7b d1 bc 5c de 69 bd
       0.026724339 -0.02833269 -0.025571818 -0.057096824
000090 83 c0 b1 3c 1f fb 2e bb 59 24 e9 ba a1 cb 50 3d
       0.021698242 -0.0026699973 -0.0017787322 0.050975446
0000a0 43 94 69 3c 93 ca ee bd eb d1 ac 3c 9e 91 ac 3d
       0.01425654 -0.11659732 0.02109619 0.08426212
0000b0 6a ca 84 bd f2 df 26 3c 26 02 1f bd cf 71 db bd
       -0.0648392 0.010185229 -0.03882041 -0.10715067
0000c0 11 5c 41 be c3 aa 83 3b be 75 48 bc aa cf 57 bd
       -0.18882777 0.004018159 -0.012235103 -0.05268828
0000d0 1e cb e2 bd 7b 2a be 3b 8f 71 f0 bd 7c b2 0c 3d
       -0.11073898 0.005803404 -0.117404096 0.034349903
0000e0 b1 0c d4 bc eb 92 02 3f c3 6f 44 3f 80 09 dc 3c
       -0.025884958 0.5100543 0.76733035 0.026859999
0000f0 30 93 3b bd 81 80 8b bd 0c b0 8d bb 4c 16 04 bf
       -0.045794666 -0.068116195 -0.004323965 -0.5159652
000100 61 d5 a1 bd 1c 09 0c bb ab 45 a8 3b f0 fa 2e 3c
       -0.07902027 -0.0021367734 0.005135258 0.010679945
000110 d8 23 8a bd c2 2d cf 3d 25 3b f5 3a fc d4 98 bc
       -0.06745118 0.101161495 0.0018709643 -0.018656246
000120 f1 53 cf bd 94 75 1c bf 4b e8 b0 b9 8b 41 24 bb
       -0.101234324 -0.6111691 -0.00033742408 -0.002506348
000130 fb 1b a8 bd d1 ee ec bd 0c 36 c0 be f1 2b 31 3e
       -0.08208462 -0.11568988 -0.37541234 0.17301919
000140 e7 da 0f bd 85 94 4e bd 7d 53 89 bc 1d d6 8f 3c
       -0.03512087 -0.050434608 -0.016763443 0.017558152
000150 ab 43 d7 3c b1 22 1e 3b 65 3d a6 bc a0 45 9e 3b
       0.026277384 0.0024129564 -0.020292947 0.0048300773
000160 2a e4 98 3d 57 1d ef 3c 40 a9 09 bd 3b 72 c7 be
       0.07465394 0.029188795 -0.033608675 -0.38954338
000170 5b 0f 1a 3b de a1 21 bc 82 4a 9b 3d 34 9d 8f bd
       0.0023507688 -0.009865252 0.075825706 -0.07012406
000180 ce f7 dd 3d 1d 33 05 bd 2e c6 bf 3c 8f 82 6a 3c
       0.108382806 -0.03251945 0.02340993 0.014313354
000190 5a 29 35 bd cd 57 92 3b 57 ba 3b bd 53 11 31 3d
       -0.04422889 0.004466033 -0.045832004 0.043229412
0001a0 65 53 81 bd f8 5f a0 bd 57 78 c7 3d 41 1b 8b 3c
       -0.06314734 -0.078308046 0.0973975 0.01698077
0001b0 eb 41 80 bd 6f ef c6 3d 1e ed 88 ba 70 fb 03 3d
       -0.06262573 0.09713637 -0.0010446643 0.03222221
0001c0 a4 db cb bd 73 98 8d bd 3d e7 ba bc d2 84 30 bc
       -0.099540025 -0.06913843 -0.022815341 -0.010773854
0001d0 17 e5 5a bd a3 d8 c2 bc 66 88 9d 3e 7b 6e 86 3c
       -0.053441133 -0.023784941 0.30768126 0.016410103
0001e0 0e 05 4d bd 3b 95 9d 3b 8a 9f 50 3d 19 97 32 bd
       -0.05005365 0.0048090494 0.0509334 -0.04360113
0001f0 13 bf 1d 3d ce 27 0b bf cc a4 73 bd 9b 67 3f bd
       0.0385123 -0.5435761 -0.059483334 -0.046729665
000200 13 fe 52 bd b8 10 57 3d 2c e8 2d bb b9 91 0a 3d
       -0.051511835 0.05250618 -0.002653609 0.03383038
000210 ad ba 31 bb 97 7c b8 bc 26 e8 21 3f f5 44 09 3f
       -0.0027119324 -0.022520347 0.63244855 0.53620845
000220 91 73 ad bd 01 ed 3a bf 96 1d c6 3c 0b cd 0d bd
       -0.08469308 -0.7301789 0.02418403 -0.034619372
000230 5f 19 cb 39 8a 68 39 3f 6e 0c 6d bd 84 c6 08 3c
       0.0003873808 0.7242514 -0.057873182 0.008348111
000240 15 3c 90 bd cd 4f 69 3b 7f cd 9d 3c d8 69 26 3d
       -0.0704271 0.0035600543 0.019263027 0.040628284
000250 19 02 76 3d f8 f9 c6 3a b0 5e a8 3c 37 14 14 3d
       0.060060594 0.0015180698 0.020552963 0.03615209
000260 6a 74 78 be a9 38 73 bd 53 b6 3a bd a5 96 ef bc
       -0.24263158 -0.059380207 -0.045584034 -0.029246638
000270 88 6f c7 3e a7 7d 4d 3e 77 fc cf 3d e5 87 81 bc
       0.3895228 0.20067464 0.10155576 -0.01581187
000280 7c a7 00 3d ab 9c 15 bd 0a 91 a5 bd 1e 66 51 bc
       0.031409726 -0.036526363 -0.08084305 -0.012780694
000290 64 83 93 bc b2 4f 47 bd e1 6d 70 3d 53 c3 51 bc
       -0.018006988 -0.048659988 0.05869854 -0.012802917
0002a0 2e 9c 9e 3d 42 52 3a bd 22 58 0d 3d 09 57 9d 3b
       0.07744633 -0.045488603 0.034507878 0.004801635
0002b0 b5 4c 38 bc 01 42 98 3d b9 a3 3a bd f4 a5 6a 3c
       -0.011248757 0.07434464 -0.045566294 0.014321793
0002c0 03 1d 6c 3e 2c e2 89 3b 91 7f b1 bc c4 2b 6a 3d
       0.23057942 0.00420787 -0.021667274 0.057170644
0002d0 29 81 86 3d 76 d2 4e bb c9 00 74 bc 9c 45 c1 3b
       0.06567604 -0.003155855 -0.014892765 0.0058981907
0002e0 85 9e 63 bc 90 a7 fe be fd d2 41 bf da 81 ad bd
       -0.0138927745 -0.49737215 -0.7571257 -0.08472033
0002f0 cd fc c7 bc a8 3f 0e bc 70 24 52 3c a3 8d 12 3f
       -0.024412537 -0.008682169 0.01282607 0.5724737
000300 4b 6e 6f bc 61 be 39 3c f0 33 98 3d 7a 50 a1 3d
       -0.014613698 0.011336894 0.07431781 0.07876678
000310 fa 32 2c 3d 28 66 51 3d e5 d5 ae 3c 4f 6f d4 b9
       0.042040803 0.051122814 0.021342227 -0.00040518722
000320 b0 e4 f2 bc cb 87 15 3f b7 d7 be 3d ef b5 8f bd
       -0.029650062 0.5841033 0.09318488 -0.07017123
000330 5b 0b b0 3c b3 df 04 bc 69 2f 91 3e e2 6b 99 be
       0.02148979 -0.008109975 0.28356484 -0.2996512
000340 3f 5c 3c 3d d2 0d 01 3d 96 f3 f8 3c 99 59 ce bc
       0.04598641 0.03150732 0.030389588 -0.025189208
000350 32 f2 b2 3d 8a a7 75 3d 7e d4 b0 3c b7 db 5c bc
       0.08737601 0.05997423 0.0215857 -0.0134801185
000360 5b 05 43 bd 80 b5 29 bd d9 3b ba bc 16 b8 d9 3e
       -0.04761253 -0.041432858 -0.022733616 0.4252326
000370 a0 dc 25 bc e1 03 ca b8 38 58 33 bd 85 5d cd bc
       -0.010123402 -9.632833e-05 -0.043785304 -0.025069008
000380 13 3d 85 3b 01 b5 b7 bb e8 34 49 3a 3e e9 5e bd
       0.0040661185 -0.005606294 0.0007675425 -0.054421656
000390 e6 69 47 bd 02 95 1f bd 06 65 9a 3d 93 5c 10 bc
       -0.048684977 -0.038960464 0.075388 -0.008811134
0003a0 40 e6 3c bd 2a 0f 37 bb 70 1e 45 bd 5a a2 84 3d
       -0.04611802 -0.0027932622 -0.04812473 0.064762786
0003b0 4e 2e db 3c 82 5d 0b bd d8 b8 e8 bd af e6 0b 3d
       0.026755478 -0.034024723 -0.11363381 0.034155544
0003c0 77 59 38 3e 9c a2 0a bd 6f 32 6c bd b1 52 83 bc
       0.18002878 -0.033846483 -0.057665285 -0.016030641
0003d0 c6 75 9b b9 b1 91 55 bc b8 52 e8 be 76 3c f9 bd
       -0.00029651652 -0.013035224 -0.4537561 -0.12169735
0003e0 5b 0b b1 3d 16 95 1a bb 71 97 8c 3d e3 33 24 bc
       0.08644744 -0.0023587397 0.06864823 -0.010022136
0003f0 55 e8 48 3c be cc 16 3f da b2 1b 3d f7 7f ba bc
       0.0122624235 0.5890616 0.038012363 -0.022766097

fc.bias f4 [2]
000000 21 c6 b7 3c e7 86 b6 bd
       0.022433342 -0.08912449
