detector/models/128_1_16_5_32_0.001_covert_detector_5.pth (torch, 72573 bytes, 6 tensors)

rnn.weight_ih_l0 f4 [128, 3]
-0.0061245747 -0.06989123 -0.10572639 -0.0614596 0.106425494 -0.011066309 0.017920896 -0.011504427
-0.012688298 -0.12520336 0.0007331511 -0.038726494 -0.028174998 -0.099787265 -0.11190179 0.010880905
-0.001447505 0.048580237 0.0018554706 0.031540863 -0.031713914 -0.0036487351 0.021221694 -0.052410148
-0.06635742 0.03587695 -0.011502653 0.021772228 -0.019488385 -0.03620441 -0.046380166 0.00076933077
-0.13844642 0.113672286 -0.0008348485 0.09253089 0.02570839 0.009340362 0.10453947 0.06342318
0.009012954 0.015425403 0.045620937 0.016815405 0.05019989 -0.08263093 0.034564007 -0.010387404
-0.11038665 0.0007012137 -0.10768072 -0.05351047 -0.011504232 0.021295177 -0.034904398 -0.059903182
0.043178014 -0.04451224 0.10621699 0.024031164 -0.028960738 0.0039698184 0.05398836 0.042867985
-0.019334577 -0.078762606 0.01126437 0.0998075 0.044051945 -0.11341291 -0.013812783 -0.021438079
0.03146894 -0.04982172 0.04752758 -0.014616651 0.00291607 -0.18615331 0.031340748 0.029083122
-0.041761503 -0.03272379 -0.010702533 -0.10034108 -0.07498149 0.0010201191 -0.19420393 -0.024052829
0.08453154 -0.036146306 0.117568985 0.014561837 0.00055605266 -0.041908327 -0.03491909 -0.077520564
-0.05887858 0.0005943818 -0.046008237 -0.03442307 -0.018239317 0.05313771 0.10986394 0.03106868
-0.04533122 0.029901583 -0.031511948 0.0065015764 -0.035555948 -0.004313108 -0.006863649 -0.050053027
0.0006799063 -0.050061077 0.041774884 -0.015289743 -0.08086091 -0.13520211 0.0007726335 -0.07702594
-0.009867689 -0.01465969 -0.06603101 -0.10160817 -0.118617356 -0.078560464 0.08418439 -0.00072289334
0.12984441 -0.04659229 -0.005007133 0.043835785 0.020636791 0.027848106 0.039265633 -0.0012882832
-0.0065174997 0.018771185 -0.0034700339 0.00753827 -0.038440302 -0.016517969 -0.086321734 -0.051138885
0.061430994 0.015964413 -0.046426136 0.091898136 -0.05695934 0.042292457 -0.03001661 0.0014109926
-0.09117511 0.06524067 0.00051382725 -0.014992496 0.09916546 -0.0006561832 0.061017357 -0.04450369
-0.038678877 -0.011483375 -0.04213886 -0.0077985767 0.025562553 -0.05522453 0.0075790198 0.071752734
0.071925685 0.030530753 -0.059401076 0.0566249 0.0045647807 0.01852758 -0.0125538055 0.0074675996
0.07601606 0.02891085 -0.0009839089 0.105978 -0.1173511 -0.0068985205 -0.096966974 0.012815442
0.05859484 0.0041267113 0.06555142 -0.008927949 0.016745895 -0.07042218 0.031483382 0.058037322
0.022773298 -0.05769089 -0.116749436 -0.009221152 -0.0015399174 -0.014275168 0.08128013 0.005222711
-0.048629496 -0.10522421 -0.08999583 -0.014957453 -0.043387465 -0.09824186 -0.002227757 -0.030744867
-0.00649017 0.009267927 0.03846599 0.019378716 0.10830951 0.040424645 -0.047723893 0.010469037
-0.044094864 -0.10451451 0.016357483 -0.13821742 0.0005544318 -0.017760374 0.013416145 0.055665277
0.07914738 0.002370194 0.010651083 0.021821251 -0.07609722 -0.030169023 -0.03711364 0.0707455
-0.00087790925 0.12215526 0.0075106346 -0.02065551 -0.06028289 0.030202277 -0.012918503 -0.08190021
0.053190723 0.07109467 0.022154998 0.13727796 -0.00072396133 0.036974825 0.08394727 0.008940017
0.02140394 -0.005181118 -0.01140626 -0.07616981 -0.03738951 0.05760823 0.08932906 0.10328719
00000000: a8b0 c8bb 2223 8fbd 1487 d8bd 10bd 7bbd
00000010: 9cf5 d93d 774f 35bc d8ce 923c 107d 3cbc
00000020: 94e2 4fbc 4f35 00be f030 403a ac9f 1ebd
00000030: 41cf e6bc 445d ccbd c42c e5bd d345 323c
00000040: 35ba bdba 12fc 463d 4333 f33a fe30 013d
00000050: 73e6 01bd 9e1f 6fbb 1ed9 ad3c 06ac 56bd
00000060: 66e6 87bd b5f3 123d a075 3cbc ac5b b23c
00000070: 1ba6 9fbc 134b 14bd 21f9 3dbd eaac 493a
00000080: e6c4 0dbe 04cd e83d bcd9 5aba d680 bd3d
00000090: 679a d23c 5108 193c ca18 d63d 03e4 813d
000000a0: 12ab 133c d4ba 7c3c 05dd 3a3d 76c0 893c
000000b0: 669e 4d3d 683a a9bd fd92 0d3d ee2f 2abc
000000c0: 6512 e2bd a8d1 373a b687 dcbd cb2d 5bbd
000000d0: 3f7c 3cbc 3973 ae3c eaf7 0ebd 0a5d 75bd
000000e0: 6edb 303d 7752 36bd 4b88 d93d 01dd c43c
000000f0: 123f edbc 4015 823b e622 5d3d 5796 2f3d
00000100: 8c63 9ebc 4a4e a1bd 318e 383c e067 cc3d
00000110: d06f 343d 0745 e8bd 034f 62bc e99e afbc
00000120: 93e5 003d dc11 4cbd 48ac 423d ae7a 6fbc
00000130: 891b 3f3b f99e 3ebe 285f 003d ba3f ee3c
00000140: 1c0e 2bbd 6109 06bd ad59 2fbc a07f cdbd
00000150: e58f 99bd 84b5 853a 65dd 46be 700a c5bc
00000160: df1e ad3d 260e 14bd 02c8 f03d c594 6e3c
00000170: 10c4 113a 11a8 2bbd 5207 0fbd 1ac3 9ebd
00000180: aa2a 71bd 4ad0 1b3a 2273 3cbd 34ff 0cbd
00000190: 9f6a 95bc eda6 593d 5800 e13d bf83 fe3c
000001a0: 3bad 39bd 2af4 f43c ac12 01bd 2d0b d53b
000001b0: 1da3 11bd f954 8dbb 76e8 e0bb 6704 4dbd
000001c0: bd3b 323a d80c 4dbd 241c 2b3d d581 7abc
000001d0: 689a a5bd 6c72 0abe 8e8a 4a3a c7bf 9dbd
000001e0: 16ac 21bc 322f 70bc 443b 87bd f217 d0bd
000001f0: a8ed f2bd 4fe4 a0bd de68 ac3d 8d80 3dba
00000200: eff5 043e 8fd7 3ebd e012 a4bb 278d 333d
00000210: 7d0e a93c b621 e43c 00d5 203d 9cdb a8ba
00000220: c090 d5bb 07c6 993c 8269 63bb 9803 f73b
00000230: 9473 1dbd b150 87bc 73c9 b0bd 0277 51bd
00000240: 119f 7b3d cdc7 823c 5529 3ebd 1735 bc3d
00000250: 324e 69bd db3a 2d3d 65e5 f5bc 0ef1 b83a
00000260: 04ba babd e79c 853d 5db2 063a 16a3 75bc
00000270: 4317 cb3d b603 2cba 56ed 793d 8049 36bd
00000280: be6d 1ebd c424 3cbc cc99 2cbd 348b ffbb
00000290: 8f68 d13c 1e33 62bd 6d59 f83b 19f3 923d
000002a0: c64d 933d a11b fa3c 8b4e 73bd 83ef 673d
000002b0: 2894 953b 27c7 973c 7aae 4dbc c4b2 f43b
000002c0: 4fae 9b3d 72d6 ec3c 81f6 80ba fe0a d93d
000002d0: c655 f0bd fc0c e2bb 9f96 c6bd dcf7 513c
000002e0: 2501 703d 5d39 873b d33f 863d 8846 12bc
000002f0: b02e 893c 8139 90bd b8f4 003d 8bb8 6d3d
00000300: 118f ba3c 484d 6cbd 541a efbd 5114 17bc
00000310: 0ed7 c9ba 65e2 69bc 3276 a63d 4623 ab3b
00000320: b92f 47bd ca7f d7bd bc4f b8bd 1b10 75bc
00000330: 0eb7 31bd 0733 c9bd 8fff 11bb a9dc fbbc
00000340: 7eab d4bb 81d8 173c 848e 1d3d 1dc0 9e3c
00000350: 60d1 dd3d 5094 253d 217a 43bd 5386 2b3c
00000360: d19c 34bd b40b d6bd 2100 863c de88 0dbe
00000370: 4a57 113a 347e 91bc 64cf 5b3c 4601 643d
00000380: 0618 a23d 4255 1b3b e181 2e3c 7bc2 b23c
00000390: dcd8 9bbd 0725 f7bc 7904 18bd 04e3 903d
000003a0: 7e23 66ba 892c fa3d c51b f63b be35 a9bc
000003b0: 31eb 76bd c46a f73c 21a8 53bc 4cbb a7bd
000003c0: 84de 593d 159a 913d 667e b53c 9892 0c3e
000003d0: 39c8 3dba ea72 173d 8cec ab3d 2679 123c
000003e0: 5157 af3c 5ec6 a9bb 52e1 3abc ebfe 9bbd
000003f0: be25 19bd 9bf6 6b3d 27f2 b63d 3c88 d33d

rnn.weight_hh_l0 f4 [128, 128]
-0.04713348 -0.05960609 -0.062843814 -0.059170216 -0.05268961 -0.05388928 -0.010056637 -0.05614215
-0.052124843 -0.038437974 -0.040601548 -0.04517622 -0.051399514 -0.039671715 -0.04486528 -0.032227457
0.03228005 0.04881149 0.036158692 -0.085533515 -0.04977161 -0.005470029 0.000949426 0.07807517
-0.025376929 -0.018635537 0.0021576833 0.08092146 0.0077709137 0.05150284 0.022679415 -0.07192874
0.105957106 -0.022808718 -0.09773251 0.050921343 -0.035516627 0.08129071 -0.05888509 0.07456761
0.011468201 0.043298595 0.08670483 0.071462736 -0.05578894 -0.021439115 -0.08522945 -0.040605683
-0.057375997 -0.026402665 -0.017607877 -0.041255277 0.013585409 -0.018458933 0.005804507 -0.038507856
0.053983487 -0.10472339 -0.09362211 -0.029900977 -0.0068981214 -0.041182116 0.027665265 0.079362944
-0.0359901 -0.075757064 0.045838896 0.094326645 0.09860865 -0.06003548 -0.06397284 0.041258343
0.08154275 -0.0014230013 -0.033715554 -0.033494975 0.04233312 0.024353527 0.050268896 -0.06846666
-0.031610403 -0.0038212591 -0.0070799966 0.0014863175 -0.008368344 -0.11200798 -0.0147833815 -0.0754718
0.02999965 0.08044256 0.052108575 0.018168261 -0.062401928 0.0153796915 0.05222842 -0.022860063
-0.041357376 -0.07413268 0.06450627 0.009681666 0.033812903 0.031459235 0.08446827 0.028851023
-0.08439899 -0.073896356 0.038937043 -0.10444897 0.03851373 -0.002640102 0.042256538 -0.046421856
0.04839357 0.016746521 -0.06934663 -0.06619878 -0.0024247805 0.055800002 -0.045713946 0.020937022
0.06936971 0.078312136 -0.10364117 0.043886803 0.061756726 -0.062925264 0.040959075 -0.08982247
-0.022351291 0.042573273 0.031531904 0.054952934 -0.07821666 -0.085958675 0.11369891 0.046624076
0.022574792 0.05780927 -0.08341985 -0.058566295 0.018193861 -0.018289145 -0.06852687 -0.090779915
0.028485846 -0.00597705 0.027209612 0.028559389 0.0009822161 -0.11019253 0.08162345 -0.053446922
-0.07894403 0.0055254735 -0.0347638 -0.023200575 0.00032975688 0.04506522 -0.015393058 0.076893464
0.031405527 0.028720586 0.05024314 0.041011296 -0.011967734 -0.09838735 0.077904195 0.030030968
0.036765076 -0.11798214 -0.006204244 -0.0053625945 -0.07549255 0.036814064 0.09181833 -0.11293665
0.01929523 0.07791279 0.027893195 0.07546585 -0.067013055 -0.060759183 -0.040638335 -0.030884907
-0.038077313 -0.00637006 -0.016191866 -0.03682676 0.020221641 0.120713755 0.08837421 0.032951336
-0.029252158 -0.055485856 0.096166216 -0.08924987 -0.114806205 -0.062218428 0.08789867 0.048978616
0.022757487 -0.10525915 0.044020645 0.072727576 0.09424506 0.07830397 0.0012181624 0.05895037
0.10606506 -0.03499333 0.015780652 0.043403827 0.064825974 0.018791134 -0.0032382242 0.030393992
-0.04006952 -0.0027195185 0.07916431 -0.03793354 0.069831245 -0.070791155 -0.065213315 -0.086960554
0.07084442 -0.041180503 -0.027952153 -0.07994191 -0.0049231765 0.030257182 0.013989759 0.0046556727
0.09023016 0.01364556 0.0820631 0.07207461 -0.005672179 -0.045226272 0.072884604 -0.058317382
0.06869288 -0.046532616 0.07163409 0.0077247317 0.015531923 0.056648057 -0.046600334 0.08012499
-0.024088351 -0.063682355 0.07428784 0.06720685 0.045660272 0.10944484 -0.0025089525 0.117258325
00000000: 090f 41bd 8425 74bd 42b4 80bd 785c 72bd
00000010: 0fd1 57bd 01bb 5cbd 98c4 24bc 50f5 65bd
00000020: dc80 55bd 2371 1dbd cf4d 26bd b30a 39bd
00000030: 4c88 52bd cf7e 22bd a8c4 37bd f000 04bd
00000040: 1638 043d 8fee 473d 231b 143d 322c afbd
00000050: 51dd 4bbd ee3d b3bb e6e2 783a e0e5 9f3d
00000060: 47e3 cfbc 8ea9 98bc eb67 0d3b 27ba a53d
00000070: 26a3 fe3b a4f4 523d 2eca b93c 604f 93bd
00000080: 0a00 d93d 59d9 babc fb27 c8bd e692 503d
00000090: e279 11bd be7b a63d 7e31 71bd e7b6 983d
000000a0: 1fe5 3b3c de59 313d 4d92 b13d 0e5b 923d
000000b0: f282 64bd 15a1 afbc c78c aebd 2552 26bd
000000c0: 1803 6bbd 674a d8bc 653e 90bc 4bfb 28bd
000000d0: 5695 5e3c 3037 97bc bc33 be3b 6aba 1dbd
000000e0: ca1d 5d3d 3779 d6bd f3bc bfbd e5f2 f4bc
000000f0: a309 e2bb 94ae 28bd 44a2 e23c 0a89 a23d
00000100: 5b6a 13bd 8526 9bbd 91c1 3b3d 542e c13d
00000110: 55f3 c93d c3e7 75bd 3104 83bd 82fe 283d
00000120: e3ff a63d 0084 baba 5219 0abd 0732 09bd
00000130: 7e65 2d3d 0c81 c73c c2e6 4d3d 4038 8cbd
00000140: e979 01bd 176e 7abb 51ff e7bb 8ad0 c23a
00000150: 611b 09bc 7164 e5bd ff35 72bc f690 9abd
00000160: d3c1 f53c 12bf a43d cd6f 553d 9bd5 943c
00000170: 2a99 7fbd 1afb 7b3c 78ed 553d 0745 bbbc
00000180: 5a66 29bd e0d2 97bd dd1b 843d da9f 1e3c
00000190: 667f 0a3d 66db 003d b3fd ac3d fb58 ec3c
000001a0: 61d9 acbd f956 97bd 737c 1f3d 57e9 d5bd
000001b0: 93c0 1d3d 9005 2dbb 3115 2d3d d824 3ebd
000001c0: 5638 463d 0030 893c 9b05 8ebd 3a93 87bd
000001d0: 11e9 1ebb 8b8e 643d 8c3e 3bbd 1e84 ab3c
000001e0: b511 8e3d 1d62 a03d d241 d4bd a6c2 333d
000001f0: 9ff4 7c3d f6de 80bd b4c4 273d d8f4 b7bd
00000200: 0e1a b7bc 5061 2e3d 9927 013d 5416 613d
00000210: 0e30 a0bd 1a0b b0bd f9da e83d e3f8 3e3d
00000220: c5ee b83c 6ac9 6c3d 07d8 aabd 36e3 6fbd
00000230: 4b0b 953c 1ed3 95bc d157 8cbd d2ea b9bd
00000240: 265b e93c 21db c3bb b1e6 de3c 61f5 e93c
00000250: b4bd 803a 9fac e1bd 322a a73d 29eb 5abd
00000260: 68ad a1bd 080f b53b 7d64 0ebd 220f bebc
00000270: 38e3 ac39 4f96 383d 2a33 7cbc 527a 9d3d
00000280: 15a3 003d 6f47 eb3c c0cb 4d3d 76fb 273d
00000290: 5114 44bc 4f7f c9bd 3c8c 9f3d 8103 f63c
000002a0: fa96 163d 9fa0 f1bd f94c cbbb b4b8 afbb
000002b0: d79b 9abd 58ca 163d 400b bc3d 554b e7bd
000002c0: 0811 9e3c be90 9f3d 4580 e43c d78d 9a3d
000002d0: 243e 89bd 9fde 78bd 6274 26bd 5802 fdbc
000002e0: f5f6 1bbd f0bb d0bb cea4 84bc a8d7 16bd
000002f0: dba7 a53c c638 f73d 8afd b43d fbf7 063d
00000300: 39a2 efbc 2345 63bd cbf2 c43d a3c8 b6bd
00000310: 841f ebbd c0d8 7ebd 3804 b43d cd9d 483d
00000320: e96d ba3c 1c92 d7bd fe4e 343d 32f2 943d
00000330: 8e03 c13d d55d a03d bfaa 9f3a f175 713d
00000340: a338 d93d 2a55 0fbd 6d46 813c 36c8 313d
00000350: 7bc3 843d ddef 993c 6338 54bb d2fc f83c
00000360: f01f 24bd f339 32bb e620 a23d 3360 1bbd
00000370: af03 8f3d f4fa 90bd 8f8e 85bd 6018 b2bd
00000380: e116 913d e3ac 28bd eafb e4bc 96b8 a3bd
00000390: 9952 a1bb e9dd f73c 4d35 653c 9d8e 983b
000003a0: 97ca b83d a091 5f3c b310 a83d da9b 933d
000003b0: b0dd b9bb 2f3f 39bd 8644 953d 35de 6ebd
000003c0: daae 8c3d fc98 3ebd e5b4 923d bf1f fd3b
000003d0: 9b79 7e3c cb07 683d fedf 3ebd 9218 a43d
000003e0: ef54 c5bc e56b 82bd 3924 983d bfa3 893d
000003f0: 4406 3b3d 9e24 e03d 3d6d 24bb 2225 f03d

rnn.bias_ih_l0 f4 [128]
0.007538755 -0.03724421 0.007846885 -0.1547559 -0.112995945 0.017411739 -0.038714465 -0.043828543
0.0037092527 -0.008190871 -0.10387771 0.11318203 -0.03392431 0.057122894 0.002392264 0.07348555
-0.12044987 0.055296954 -0.09871767 0.013749399 0.031969827 -0.05411151 -0.04375817 -0.11752582
-0.10186484 -0.2956053 -0.023690825 0.016624874 -0.14516762 0.075448416 0.13338266 -0.07751987
-0.14426313 0.0005274544 -0.0452576 -0.06423419 -0.08460449 -0.04366729 0.04434945 -0.08820506
-0.13048907 0.017615398 0.1196926 0.035908878 -0.0019608436 0.02195643 0.0107797235 -0.06833124
-0.07872349 0.02246023 -0.066747844 0.045350384 0.16337433 0.021161547 0.0142522445 -0.02796104
0.0015384209 0.11119776 -0.049102522 0.15799455 -0.1644456 -0.051809553 0.0102826785 -0.06974725
-0.072149314 -0.014688064 0.025601568 -0.081363566 -0.056514405 -0.10962999 -0.05150726 0.052081708
-0.04076762 -0.03686678 0.11233894 -0.011107645 -0.09355321 0.08466968 -0.07788883 -0.12650956
-0.017164655 0.061767817 0.0030175427 0.004414085 0.087227635 0.10347987 0.059327256 -0.13809502
0.22150524 -0.051142648 0.066306375 -0.021209365 -0.106780805 -0.12239232 -0.08929242 0.025357084
0.072974056 0.062710606 0.14488669 -0.17067377 -0.15513723 0.0023351896 -0.045888897 0.10002845
0.016124645 0.071596704 0.022652974 -0.0586983 -0.024827572 0.11731014 0.1007679 0.035642546
0.07792693 0.08997064 -0.0045330888 -0.0032625434 -0.06863165 0.09371931 0.11389578 0.06561081
0.109548785 -0.06366728 -0.06934397 0.07290922 0.009871954 -0.052432913 0.06308605 0.019201804
00000000: a907 f73b 628d 18bd 3990 003c 5578 1ebe
00000010: 6b6a e7bd 10a3 8e3c 0f93 1ebd 8f85 33bd
00000020: ef16 733b 0133 06bc d6bd d4bd fbcb e73d
00000030: 38f4 0abd b2f9 693d 88c7 1c3b 987f 963d
00000040: 6cae f6bd 0f7f 623d 7d2c cabd 2945 613c
00000050: cbf2 023d 08a4 5dbd c43b 33bd 61b1 f0bd
00000060: 839e d0bd 9459 97be 4313 c2bc e330 883c
00000070: d2a6 14be b384 9a3d 7795 083e bdc2 9ebd
00000080: b7b9 13be de44 0a3a 0860 39bd 378d 83bd
00000090: 1e45 adbd 79dc 32bd c5a7 353d dba4 b4bd
000000a0: ed9e 05be 2b4e 903c 6521 f53d 3015 133d
000000b0: 7f81 00bb f9dd b33c 709d 303c 40f1 8bbd
000000c0: c839 a1bd 84fe b73c 18b3 88bd 53c1 393d
000000d0: 9a4b 273e fb5a ad3c 3f82 693c 8d0e e5bc
000000e0: d7a4 c93a a7bb e33d ba1f 49bd 53c9 213e
000000f0: 6d64 28be 4136 54bd ae78 283c a5d7 8ebd
00000100: 05c3 93bd 35a6 70bc 61ba d13c f1a1 a6bd
00000110: a67b 67bd b085 e0bd 47f9 52bd a153 553d
00000120: f3fb 26bd 9f01 17bd f511 e63d d7fc 35bc
00000130: d398 bfbd 4c67 ad3d 2e84 9fbd b98b 01be
00000140: e49c 8cbc 4000 7d3d f7c1 453b 07a4 903b
00000150: 67a4 b23d 41ed d33d 2301 733d c868 0dbe
00000160: 45d2 623e f47a 51bd a3cb 873d 43bf adbc
00000170: e5af dabd d3a8 fabd f2de b6bd a9b9 cf3c
00000180: 6c73 953d 6b6e 803d 2d5d 143e 1bc5 2ebe
00000190: 4bdc 1ebe fb09 193b fff5 3bbd b7db cc3d
000001a0: d517 843c 4ba1 923d bb92 b93c a16d 70bd
000001b0: 3163 cbbc 4c40 f03d 675f ce3d ebfd 113d
000001c0: 2798 9f3d 8742 b83d 4e8a 94bb 65d0 55bb
000001d0: c08e 8cbd e9ef bf3d 3142 e93d f65e 863d
000001e0: 1d5b e03d fe63 82bd 3604 8ebd 6e51 953d
000001f0: fabd 213c e5c3 56bd 4233 813d 1a4d 9d3c

rnn.bias_hh_l0 f4 [128]
-0.04857788 -0.030303422 -0.0937475 -0.12645273 -0.018863447 0.11097679 0.083960615 -0.056960028
-0.024392704 -0.08982876 -0.0501696 0.09361156 0.0040255357 0.038655628 0.064359665 0.013311107
-0.07759209 -0.055622768 -0.022009801 0.053221766 0.029409224 -0.0908468 0.0055694073 -0.0014364586
-0.060313795 -0.33657062 -0.06195479 0.035093542 -0.041710783 -0.060520492 -0.0100162905 -0.041966733
-0.085063905 -0.04561059 0.04628046 0.00800163 -0.05987277 -0.19440663 -0.025133746 -0.1824192
-0.08050914 -0.05598777 0.0813748 0.017815925 0.017326934 0.050693035 -0.0060074977 -0.010522942
0.052976053 -0.0038168503 -0.12236479 0.06976109 0.04072841 -0.046295058 0.038075905 -0.01483492
0.045371715 0.08717354 0.016790617 0.16858554 -0.10705455 -0.052598353 -0.007367871 -0.005290766
-0.011342283 -0.0037587269 0.0321983 0.04982225 0.027328141 0.026221018 -0.052812815 -0.018235663
-0.014106313 -0.08094804 0.013791953 0.12986273 -0.10204627 0.05838605 -0.057674516 -0.06573194
0.051498167 0.07509079 0.018932145 -0.12650934 0.008247023 -0.05088195 0.06623085 -0.13297245
0.15470117 0.045729045 0.21057774 0.061935153 -0.08497494 -0.043284755 -0.095483944 -0.05878341
0.16842964 0.04311829 0.09733321 -0.06508003 -0.009240156 -0.0027655473 -0.097584784 -0.0060369214
-0.032373633 -0.007886589 -0.08208529 -0.06383347 0.094634175 0.0094739245 0.07828088 -0.0013686704
-0.012403363 0.09488063 0.010737113 0.029052509 -0.041473825 -0.023816908 0.0031357629 0.05709193
0.10282537 -0.00056505285 0.05869077 0.023083083 -0.02501861 0.03744718 0.037036013 -0.017349891
00000000: 99f9 46bd e23e f8bc b0fe bfbd d37c 01be
00000010: 8487 9abc cd47 e33d 8bf3 ab3d eb4e 69bd
00000020: 35d3 c7bc 24f8 b7bd a37e 4dbd 6bb7 bf3d
00000030: a4e8 833b 5d55 1e3d 00cf 833d d416 5a3c
00000040: 9ae8 9ebd b3d4 63bd e64d b4bc 11ff 593d
00000050: 9deb f03c e30d babd 937f b63b 8d47 bcba
00000060: 990b 77bd fc52 acbe 4ec4 7dbd 3fbe 0f3d
00000070: edd8 2abd 56e4 77bd 5e1b 24bc 4fe5 2bbd
00000080: fc35 aebd 2cd2 3abd 9490 3d3d 4519 033c
00000090: 263d 75bd 8812 47be 49e5 cdbc 19cc 3abe
000000a0: fae1 a4bd 6f53 65bd d5a7 a63d b4f2 913c
000000b0: 37f1 8d3c 80a3 4f3d 8bda c4bb 6b68 2cbc
000000c0: 6bfd 583d 1f24 7abb 649a fabd e7de 8e3d
000000d0: d5d2 263d e39f 3dbd 7bf5 1b3d 2a0e 73bc
000000e0: b1d7 393d 0a88 b23d 7a8c 893c b0a1 2c3e
000000f0: 6a3f dbbd 5f71 57bd 2e6e f1bb 295e adbb
00000100: fcd4 39bc f954 76bb 5de2 033d 6a12 4c3d
00000110: 44df df3c 76cd d63c 4052 58bd f562 95bc
00000120: 2a1e 67bc 16c8 a5bd a5f7 613c bcfa 043e
00000130: a3fd d0bd 3626 6f3d 1d3c 6cbd 789e 86bd
00000140: beef 523d 33c9 993d 9617 9b3c aa8b 01be
00000150: 861e 073c 9769 50bd 0aa4 873d ee29 08be
00000160: fc69 1e3e 614e 3b3d b1a1 573e b7af 7d3d
00000170: 5707 aebd 5b4b 31bd 168d c3bd dfc6 70bd
00000180: d278 2c3e ce9c 303d a256 c73d ae48 85bd
00000190: 0664 17bc 2f3e 35bb 88da c7bd 5ed1 c5bb
000001a0: 379a 04bd c036 01bc 551c a8bd 1fbb 82bd
000001b0: 90cf c13d 8538 1b3c ba51 a03d f564 b3ba
000001c0: 7a37 4bbc c750 c23d b7ea 2f3c 87ff ed3c
000001d0: 75e0 29bd ad1b c3bc 5f81 4d3b 3ad9 693d
000001e0: 1c96 d23d 0e20 14ba bc65 703d bc18 bd3c
000001f0: d4f3 ccbc 3762 193d 13b3 173d 5c21 8ebc

fc.weight f4 [2, 128]
-0.02534277 -0.03619231 0.09353368 0.45636675 0.027350146 -0.021253858 -0.06076719 -0.005899177
-0.05494257 0.07755926 0.43012866 -0.4847129 -0.08236234 0.02593917 0.01260773 -0.09593894
0.3847052 -0.039284054 0.009334622 -0.050663624 -0.08342811 -0.008230647 -0.038789943 0.08167137
0.052159686 0.26819652 -0.10193522 0.007921229 0.2984318 0.032319117 -0.08331448 0.11173687
0.44597757 0.03955601 -0.060333874 -0.010906865 0.026647804 0.36165547 0.087121546 0.341602
0.07704201 -0.012587369 -0.39442414 0.05284172 -0.1262568 0.018213382 -0.036746465 0.029393971
-0.0458453 0.1269559 0.14082976 0.077199616 -0.46496633 0.000765231 -0.0393552 0.029812736
-0.12475759 -0.052848596 0.015952867 -0.3709604 0.008391117 0.040773567 0.059594702 -0.13153774
0.04255406 0.09845672 -0.06577646 0.05620885 -0.032360874 -0.019811615 -0.08800692 0.11769253
0.027965982 0.30039373 -0.022959847 -0.041669466 0.124329254 -0.3745548 0.009809849 -0.0144418385
-0.009442165 -0.40353915 -0.11055746 -0.045071788 -0.029147187 -0.03315353 -0.060736407 0.42693093
-0.4081694 -0.03071583 -0.50287837 -0.01782485 0.3502363 0.117425635 -0.0033954268 -0.0006333587
-0.40525493 -0.01611069 -0.087155245 0.4066091 0.031049073 0.0329816 0.10812897 -0.033847626
-0.027255109 0.0186559 -0.038888045 -0.035800643 -0.0038743843 -0.023288425 -0.18484215 -0.034973055
-0.018044006 -0.35257807 0.06738783 -0.044544175 -0.14659707 -0.0533532 -0.024155924 -0.06694412
-0.09525599 0.028650237 0.07903699 -0.017259117 -0.010556393 0.0046151164 -0.06345493 -0.05158428
0.002694928 -0.027554484 0.059052683 -0.4159401 0.08231128 0.09040997 -0.12797433 0.035516035
-0.043562133 -0.049155552 -0.50627685 0.37601206 0.0067622806 0.00871293 0.032212667 -0.040506277
-0.3062786 0.015184393 0.042750776 -0.008175535 -0.03996883 0.048922464 -0.17282057 0.009270956
0.060189113 -0.2561198 -0.046559677 -0.012867055 -0.28640777 -0.063420765 -0.05129998 0.027472502
-0.4701312 0.013306653 -0.06000169 -0.09140309 -0.040491812 -0.40244415 0.035817627 -0.3993353
0.0895019 0.021525761 0.45138267 0.0733663 -0.07886367 0.015617964 -0.052692488 0.037828278
-0.008772003 0.040257484 -0.21565695 -0.15307282 0.3812981 0.022358038 0.024612589 -0.028263489
-0.05897256 0.04009436 -0.011666022 0.35805458 -0.03137701 -0.081404865 0.10100752 -0.069823995
0.090349235 0.08504326 -0.0074860016 0.037316166 0.05046253 -0.026126983 -0.013986008 0.059902087
0.031451907 -0.30156597 -0.023753835 0.0011522906 0.034181844 0.5048207 -0.05561536 -0.03365373
-0.079492904 0.49380141 0.0427472 -0.023789395 -0.081454284 -0.10085099 -0.07979856 -0.5001917
0.39182532 0.015290336 0.4612996 -0.0667853 -0.36375785 0.05510181 0.100524426 0.010939422
0.4312043 -0.037866853 -0.017034454 -0.39523706 -0.011695779 0.085623555 0.071418285 -0.09176215
-0.08472114 -0.048045885 0.006104771 -0.103500694 -0.060073685 0.014357502 0.20348981 -0.073661596
-0.049949728 0.25184706 -0.008659946 -0.020593956 -0.082168646 -0.043167714 -0.056758244 0.027938724
0.13351052 0.083355226 0.01195391 0.00096815627 0.03237655 -0.08794684 -0.038360894 -0.12990719
00000000: a49b cfbc 633e 14bd 968e bf3d e7a8 e93e
00000010: 6a0d e03c 921c aebc 04e7 78bd e24d c1bb
00000020: 760b 61bd 64d7 9e3d d339 dc3e 4a2c f8be
00000030: 96ad a8bd 627e d43c a790 4e3c a37b c4bd
00000040: 14f8 c43e 51e8 20bd 3ef0 183c a984 4fbd
00000050: 5bdc aabd d6d9 06bc 34e2 1ebd 5243 a73d
00000060: 65a5 553d 0e51 893e 6ac3 d0bd 0bc8 013c
00000070: 0ecc 983e 0d61 043d c8a0 aabd 4dd6 e43d
00000080: 2c57 e43e 7c05 223d a720 77bd b5b2 32bc
00000090: 7f4c da3c e82a b93e c86c b23d 75e6 ae3e
000000a0: 34c8 9d3d 413b 4ebc f6f1 c9be 8f70 583d
000000b0: 7649 01be 3b34 953c 7683 16bd a0cb f03c
000000c0: 48c8 3bbd ba00 023e ad35 103e d51a 9e3d
000000d0: 1110 eebe c899 483a eb32 21bd d739 f43c
000000e0: e880 ffbd c577 58bd 96af 823c 86ee bdbe
000000f0: e57a 093c 2f02 273d 9319 743d d4b1 06be
00000100: 2b4d 2e3d ada3 c93d cfb5 86bd 403b 663d
00000110: d68c 04bd f84b a2bc f93c b4bd c808 f13d
00000120: ea18 e53c 35cd 993e 4a16 bcbc 9aad 2abd
00000130: 56a0 fe3d a6c5 bfbe 7db9 203c 769d 6cbc
00000140: 4fb3 1abc af9c cebe f36b e2bd 329d 38bd
00000150: 15c6 eebc ffcb 07bd bdc6 78bd b196 da3e
00000160: 94fb d0be c49f fbbc a3bc 00bf 6b05 92bc
00000170: 2c52 b33e da7c f03d cf85 5ebb fc07 26ba
00000180: 937d cfbe 91fa 83bc 737e b2bd 112f d03e
00000190: a05a fe3c b717 073d b972 dd3d cfa3 0abd
000001a0: 1b46 dfbc 42d4 983c 1249 1fbd b2a3 12bd
000001b0: 62e9 7dbb 5ec7 bebc 4347 3dbe e83f 0fbd
000001c0: 06d1 93bc 1d85 b4be a102 8a3d f473 36bd
000001d0: 8b1d 16be e388 5abd a5e2 c5bc 001a 89bd
000001e0: 9315 c3bd e7b3 ea3c 25de a13d fe62 8dbc
000001f0: b9f4 2cbc 673a 973b a9f4 81bd 0a4a 53bd
00000200: 649d 303b f1b9 e1bc 3ae1 713d 1af6 d4be
00000210: d192 a83d dd28 b93d b40b 03be 4379 113d
00000220: 356e 32bd 5557 49bd 5c9b 01bf a784 c03e
00000230: 1f96 dd3b adc0 0e3c 6ef1 033d e9e9 25bd
00000240: 8cd0 9cbe f6c7 783c 701b 2f3d aef2 05bc
00000250: 5bb6 23bd ec62 483d e0f7 30be 35e5 173c
00000260: dc88 763d 2222 83be 5cb5 3ebd 57d0 52bc
00000270: 0aa4 92be bfe2 81bd ee1f 52bd 030e e13c
00000280: 09b5 f0be 2604 5a3c 55c4 75bd 8b31 bbbd
00000290: beda 25bd 290d cebe 81b5 123d ad75 ccbe
000002a0: c64c b73d cb56 b03c a11b e73e 1241 963d
000002b0: 4783 a1bd 7de2 7f3c 14d4 57bd d3f1 1a3d
000002c0: 73b8 0fbc 08e5 243d 2dd5 5cbe 1fbf 1cbe
000002d0: 8139 c33e 3428 b73c 57a0 c93c d588 e7bc
000002e0: 368d 71bd fc39 243d d822 3fbc ee52 b73e
000002f0: 2e85 00bd 98b7 a6bd 08dd ce3d e2ff 8ebd
00000300: 0509 b93d 292b ae3d 224d f5bb d6d8 183d
00000310: ccb1 4e3d 4108 d6bc 9225 65bc e45b 753d
00000320: b7d3 003d db66 9abe 6797 c2bc 7508 973a
00000330: 4302 0c3d ee3b 013f efcc 63bd 7ed8 09bd
00000340: 2dcd a2bd 8ad3 fc3e b017 2f3d fae1 c2bc
00000350: 81d1 a6bd f78a cebd 6d6d a3bd 900c 00bf
00000360: 549d c83e 5184 7a3c 762f ec3e bbc6 88bd
00000370: 783e babe 6fb2 613d c0df cd3d 433b 333c
00000380: cfc6 dc3e 461a 1bbd d78b 8bbc 835c cabe
00000390: a79f 3fbc 675b af3d c043 923d cbed bbbd
000003a0: 4782 adbd c3cb 44bd 880a c83b 2cf8 d3bd
000003b0: d30f 76bd ba3b 6b3c a25f 503e e4db 96bd
000003c0: 1698 4cbd 19f2 803e 72e2 0dbc a8b4 a8bc
000003d0: 0948 a8bd a1d0 30bd 557b 68bd c0df e43c
000003e0: fbb6 083e 25b6 aa3d 55da 433c decb 7d3a
000003f0: 469d 043d 791d b4bd 5020 1dbd 6406 05be

fc.bias f4 [2]
-0.00030164898 -0.11089764
00000000: a426 9eb9 4d1e e3bd
