detector/models/128_1_32_5_32_0.001_covert_detector_4.pth (torch, 72573 bytes, 6 tensors)

rnn.weight_ih_l0 f4 [128, 3]
000000 5b 67 37 3d 71 3d 22 3e ec cf a3 3d 18 dc 1e bc
       0.0447763 0.1584375 0.07998642 -0.009696029
000010 42 77 30 bc 1b 27 1a be 67 48 a5 bd 12 4f e5 3c
       -0.010770621 -0.1505398 -0.0807045 0.027991805
000020 88 64 df bd 50 23 c2 3d 26 6e 74 3c d0 4c c1 3d
       -0.10907847 0.094793916 0.01491884 0.09438479
000030 85 fe e0 3b d8 e7 ef 3c 68 c3 88 3d 8f 2c 41 3d
       0.0068662786 0.029285356 0.06677896 0.047161635
000040 ae 4c b7 3c 4d 16 bc 3d 8e b2 e3 bd 85 9c 2c bd
       0.02237543 0.09183941 -0.11118041 -0.042141456
000050 01 f6 d2 bd a5 b6 3e be 75 a8 26 bd 18 ba 2c be
       -0.10300828 -0.18624361 -0.040687997 -0.16867864
000060 2f bd 9e 3c 3e 9b 06 bd 3f ae 0d 3d 08 d0 5e bd
       0.01937732 -0.032862894 0.034590002 -0.054397613
000070 a8 77 16 bd 6a 71 8a bc ea 62 b0 3c da 49 8a 3c
       -0.036735207 -0.016899783 0.02153154 0.016880918
000080 d9 1a 12 3e 08 63 a9 3d b0 86 2d 3b 15 cb 35 3e
       0.14268054 0.08270842 0.0026477985 0.17753251
000090 15 03 26 ba b4 56 4d bc c3 71 9f bd 1f 97 10 3d
       -0.0006332857 -0.012532879 -0.0778537 0.03530037
0000a0 85 c3 3d bd 99 75 2c 3c df d0 58 be da 7a 15 bd
       -0.04632904 0.010526084 -0.21173428 -0.036494114
0000b0 d4 31 2b be 9e de b4 3b 85 e7 04 3d 49 25 04 3e
       -0.16718227 0.005519702 0.032447357 0.12904848
0000c0 3c eb 06 be da 91 8e bd de 7c 73 bc c5 2d ad 3d
       -0.13175672 -0.06961413 -0.014861314 0.084559955
0000d0 d9 c4 ed 3c 94 7a 36 3e e9 5a ee 3d a6 79 0b 3d
       0.029024528 0.17820197 0.116384335 0.03405156
0000e0 5f f7 2c 3e ee 17 e6 bd 50 f3 03 bd a0 64 f8 bd
       0.1689124 -0.11235033 -0.032214463 -0.12128568
0000f0 54 23 62 3c 93 1a f5 bd 97 a5 f0 bd a3 2e d3 3d
       0.013802368 -0.11967959 -0.11750334 0.103116296
000100 d7 f5 04 3d 67 d7 00 3e ce 02 02 be ad 29 00 bd
       0.032461014 0.1258217 -0.12696382 -0.031289745
000110 21 da 94 3d c7 45 33 be 45 61 cb bc 08 80 f3 bd
       0.07268167 -0.17507087 -0.024826655 -0.118896544
000120 ae f6 52 3c a6 6f d7 3d 84 37 f3 3c 5e 65 e5 bd
       0.012876196 0.10519342 0.029689558 -0.11200975
000130 58 f6 f8 bc 79 1e 0e be b9 2b 7c be 7c e1 fe bc
       -0.030390903 -0.13878812 -0.24626054 -0.031113379
000140 b8 e3 a2 be 09 3e c7 3b ba 38 01 3d 71 fc ae bc
       -0.3181436 0.006080393 0.03154824 -0.021360608
000150 5f a3 35 3c bf 2b 08 3d b1 f4 85 3c 00 e2 77 bd
       0.011086314 0.033244845 0.01635203 -0.060518265
000160 5f be 89 bd ea c0 9e 3b 92 30 96 3e c3 11 0b 3d
       -0.067257635 0.0048447745 0.2933393 0.033952486
000170 b5 6c a1 3e 17 88 76 bc a4 64 06 bd e3 34 a5 3b
       0.3152825 -0.015047095 -0.032810822 0.005041705
000180 53 99 0d bd 7b 04 04 bd 4f f3 f3 bc 91 67 94 3d
       -0.03457005 -0.032230835 -0.029779105 0.07246316
000190 5d 49 fc 3c dd 31 c0 3d a9 09 ac bd aa 28 29 bd
       0.030796701 0.09384511 -0.0840028 -0.041298546
0001a0 cd 81 1b be a6 8a bb 3d bf 09 0d 3e 90 ba 06 3d
       -0.15186234 0.091573045 0.13773249 0.032892764
0001b0 5e 77 f1 bd 8f 9e fc bc 43 31 c9 bd fc 00 c3 3e
       -0.117903456 -0.030837325 -0.09823849 0.3808669
0001c0 e1 21 95 bb 1b 90 7a 3e 99 f9 08 3d 02 4e f7 3c
       -0.004551158 0.24469034 0.03344116 0.030188564
0001d0 9d 6e 33 bd a5 02 e1 3d f2 a2 23 3c 53 42 3c 3c
       -0.04380666 0.109868325 0.00998758 0.011490422
0001e0 dc 73 5c bd 51 40 fc bc e4 62 22 be 6f c9 46 3d
       -0.05382143 -0.030792387 -0.15858036 0.048531946
0001f0 02 6e 11 bd 91 0f 7d 3d 43 66 c9 bd 40 d5 01 bd
       -0.035505302 0.061782423 -0.09833958 -0.03169751
000200 0e 3f 99 3d 0a 13 4f be b3 7e ee bc 63 d9 1c be
       0.0748273 -0.20222107 -0.02911315 -0.15317301
000210 2d fb 7f 3c 36 37 08 bd 9f 2d 2d be 79 91 b1 bd
       0.01562385 -0.03325578 -0.16911934 -0.08670325
000220 1b 74 05 bd da 5d 2d bc e4 18 55 be 10 64 20 bb
       -0.03258143 -0.010581458 -0.20810276 -0.0024473704
000230 f1 b2 b5 bd aa b0 83 3d bf be 6c bb 70 0e 92 3e
       -0.08872021 0.0643018 -0.0036124436 0.2852664
000240 85 ca 0a 3d 44 70 fb 3c a9 d7 c4 bc c8 ba 19 3c
       0.033884544 0.03069318 -0.024028616 0.009382911
000250 47 98 c7 3d 75 35 01 3c 2b a9 27 bd d9 70 47 bd
       0.097458415 0.00788628 -0.040932816 -0.048691604
000260 e8 ff bc bd 48 3f 8a 3d 17 11 bb 3d 08 68 61 3d
       -0.09228498 0.06750351 0.09134119 0.055030853
000270 46 f4 d0 bd 58 c4 49 be 5e 9f d8 39 f4 8a f3 3c
       -0.102028415 -0.19703805 0.00041317468 0.029729344
000280 ff f5 1d be 79 98 b4 bc 4d e0 6b bd ae 47 82 3b
       -0.15425871 -0.02204536 -0.057586957 0.00397583
000290 99 64 32 be 08 25 2f be fc 7f f6 bc 73 3e 2a be
       -0.17421187 -0.1710397 -0.030090325 -0.16625385
0002a0 0f 5f cb bd f9 dd 3d 3d 56 81 81 3a a6 89 70 bd
       -0.0993024 0.046354268 0.0009880464 -0.05872502
0002b0 cb a3 bc bc 7d 58 97 be 3a 4b 88 3e 7a d5 d3 3b
       -0.023027321 -0.295597 0.26619893 0.0064646574
0002c0 49 1e b0 3e 18 ff 80 bc c0 70 00 3d 9c a1 fc 3d
       0.34398106 -0.015746638 0.031357527 0.12335512
0002d0 7c 67 7e 3c 63 3b f8 bc ba 92 24 3d 38 74 1d be
       0.015527602 -0.030301755 0.04017899 -0.15376365
0002e0 af dc de bc 61 8e 11 be 7a 49 a1 3d ac a1 03 3d
       -0.02720484 -0.1421447 0.07875343 0.032136604
0002f0 41 ad b9 3d 57 23 aa 3c 2d e6 f4 3c 24 a9 b0 3d
       0.09066249 0.020768804 0.029894913 0.08626011
000300 6d 61 a3 bd 53 53 1d 3d d1 02 11 bd d0 1b bc 3d
       -0.07977567 0.038409542 -0.035403077 0.09184992
000310 32 4d 9e bb ad c5 1d 3e f2 f9 af 3d 4e 4e 18 3d
       -0.0048309797 0.15407439 0.08592595 0.037184052
000320 d8 86 1d bc e4 27 26 bc 52 19 9c 3d f9 ef 70 3d
       -0.009614669 -0.010141347 0.07622017 0.058822606
000330 2c c5 07 be 6b 6a 03 bd ed 0c 08 bd 82 fb a2 bd
       -0.13258809 -0.03208391 -0.033215452 -0.079581276
000340 eb ee 13 bd 9b d6 e6 bc 0e 46 e2 3d 32 d8 8d 3c
       -0.03611652 -0.028178504 0.11048518 0.017315004
000350 52 6f 18 3e 6d 7c b1 3d bf f1 b7 3c 96 5f 9e 3d
       0.14886215 0.086663105 0.02245414 0.07733075
000360 03 ba a0 3c 70 8e fd bc aa dc f3 3b ad c3 b9 3d
       0.019619947 -0.030951709 0.0074420767 0.09070525
000370 8e 06 f3 3d 86 34 0b bd 75 08 f8 bc 0a c2 33 3d
       0.118664846 -0.033985637 -0.03027747 0.043886222
000380 6f e4 79 bd dd f1 1a bd 62 36 00 be ea d4 d5 bc
       -0.061008867 -0.037828315 -0.12520745 -0.026102502
000390 6d d9 d7 3d 1d 3e 06 3d 1b a1 26 bd 0e e1 0d 3e
       0.105395176 0.03277408 -0.040680986 0.13855383
0003a0 a6 76 0e 3e 3b ae c2 bc a7 97 1b bd ae df f0 bd
       0.13912448 -0.02376472 -0.037986424 -0.117614135
0003b0 e1 0b 57 3c d0 bd 5b 3d 7b bb ec 3c be 50 32 3e
       0.013125391 0.053647816 0.028897991 0.17413613
0003c0 3c a8 a8 bc 75 61 b5 3d 4b 2c d7 b7 1c f0 aa 3d
       -0.020588033 0.08856479 -2.5650623e-05 0.083465785
0003d0 83 17 e2 3d c0 e0 22 3d eb 5e 18 bd 7f e1 e5 3c
       0.11039641 0.03976512 -0.037199896 0.028061626
0003e0 6f a1 ec 3d 52 f2 1b 3d 4f 59 bb 3c d0 89 3a 3c
       0.115542285 0.03807289 0.022869734 0.011385396
0003f0 b8 a1 17 3e 5c 80 12 3d ba 8f bd 3d 37 b2 4b bc
       0.14807785 0.035766944 0.09255929 -0.012432626

rnn.weight_hh_l0 f4 [128, 128]
000000 75 a1 74 bb 0e dd f6 bd 76 1e b5 bc ea 96 25 bc
       -0.0037327681 -0.120538816 -0.022109251 -0.0101067815
000010 b0 93 48 3d ad 66 d5 bc ae e3 8d 3d d8 cb c2 bc
       0.04896897 -0.026049936 0.06928192 -0.02377884
000020 27 b6 2e 3d 82 ad 8d bd 47 50 d5 bd 57 3a 7d 3a
       0.042654183 -0.069178596 -0.10415702 0.00096598774
000030 2b ab 31 be 32 59 2e be 6c 31 5b 3d ee 03 b5 bd
       -0.17350452 -0.17026213 0.05351393 -0.0883864
000040 9d ea 96 3b 87 bc 4b 3d fc 86 87 3d a0 1b 44 bb
       0.004605605 0.04974034 0.06617543 -0.0029923692
000050 e2 89 2c bd 6b 1f c1 3d 30 16 f2 bc e6 f8 2c 3d
       -0.042123683 0.094298206 -0.029551595 0.042229556
000060 24 36 0b 3e c4 7c a6 3d 81 53 fa bc 9f e7 ad bd
       0.13594872 0.08129266 -0.030557396 -0.08491444
000070 5a 49 6a bd b3 f7 6d bd ef ea ef bc 70 b1 4a bc
       -0.05719886 -0.058097553 -0.02928683 -0.012371406
000080 5b 0c b2 3d 06 23 4e 3d 42 10 21 3d 89 4a 32 3e
       0.08693763 0.05032637 0.039322145 0.17411245
000090 92 9b 44 bd 44 33 b5 3d ce 7b 76 3d 9a 98 a4 3b
       -0.047999926 0.08847669 0.060176663 0.0050230743
0000a0 91 65 c2 3d f5 da 95 bd ca a8 93 bd 9c cb c8 3d
       0.094920285 -0.07317153 -0.07209928 0.098044604
0000b0 2b bf 70 3d 9b 83 89 3d 2e 6d 9f 3c 88 10 a8 3c
       0.058776062 0.06714555 0.01946124 0.020515695
0000c0 e0 94 78 3d 61 13 7c 3d 34 8a 87 3d 33 48 44 3e
       0.060688853 0.06154192 0.06618157 0.19168167
0000d0 ff c7 3e be be 07 07 bd 29 6c 75 3c 18 ef c2 bd
       -0.1863098 -0.032966368 0.014979401 -0.0951826
0000e0 11 40 09 3e 86 9b 57 bd 8c 11 85 3a 0a c4 a8 bc
       0.13403346 -0.052638553 0.0010152324 -0.020601291
0000f0 92 a6 6d 3d 1d 1e 95 bd 94 7e 85 bd 05 cc 5f bd
       0.058020182 -0.07281134 -0.065182835 -0.054637928
000100 b9 4c d4 bd 11 ce 1e bc de 43 d1 3d d3 43 bc 3d
       -0.10366196 -0.009692685 0.10218023 0.09192624
000110 fa 43 15 3d af c4 c8 3b ee cb a9 3b 89 d8 1e bd
       0.03644178 0.006126962 0.005181781 -0.038780723
000120 99 a0 72 3d a2 d8 0f 3e 3a e9 89 bd 1b 3c 8e bd
       0.05923519 0.14047483 -0.067339376 -0.06945058
000130 a1 df 34 3d 5e ec 3b 3e e5 79 b7 bd cd bd b8 bd
       0.04415858 0.18351886 -0.089587964 -0.090205766
000140 0b ea 08 3e b3 26 09 3d d9 21 2b 3c ff b6 83 bd
       0.1337053 0.033484172 0.010445082 -0.06431388
000150 f8 e6 14 3d c1 45 e8 bc 83 59 c0 3d 92 68 9a bd
       0.03635308 -0.028353574 0.09392073 -0.075394765
000160 4a 8d 4f bb 3c 3b 82 bd 2f f4 3b bd 68 67 34 3e
       -0.0031669908 -0.06358954 -0.04588717 0.17617571
000170 b1 2f 91 3d 40 1d 4e 3b 62 e7 62 bd 11 88 a3 bc
       0.070891745 0.003145054 -0.055396445 -0.019962342
000180 12 89 0a 3e 74 37 18 bd 0c 7f 31 3e 3a cc cf bd
       0.1352885 -0.03716226 0.17333621 -0.10146375
000190 65 3f ec 3d 0e fd 12 3d b2 ef b6 3b 86 de 2a 3e
       0.11535529 0.035885863 0.005582773 0.16686448
0001a0 2b 0f 0f bd 3f f6 58 bd c2 6b 88 bd 55 b1 9f bc
       -0.034926575 -0.052969214 -0.06661178 -0.019493738
0001b0 3c 46 3c 3c 9f d6 ae bc ba 02 0b be 5e 2a 9e bd
       0.011491355 -0.021342574 -0.13575259 -0.07722925
0001c0 f7 29 e3 3d 00 bd a6 3c d1 a2 e5 bd 6c 68 c9 3c
       0.110919885 0.020353794 -0.112126954 0.024585925
0001d0 60 2c db bd c7 81 bd 3c bd f5 48 bb c9 54 14 be
       -0.10701823 0.023133172 -0.003066405 -0.14485468
0001e0 07 0b d0 bd b3 ff 40 bd a3 89 b1 3b 8f 95 1b 3d
       -0.10158353 -0.047118854 0.005418019 0.037984427
0001f0 fd ff 03 be 94 de 0f 3c 4b 79 49 bd 91 31 74 bd
       -0.1289062 0.008781094 -0.04918794 -0.059617583
000200 fd 23 10 be 32 90 32 bd 28 e2 df bc 6f 99 63 bd
       -0.14076228 -0.043594547 -0.02732952 -0.055566248
000210 48 4f d9 3c 23 bf b3 bd b1 9f cc 3d b9 a1 f1 3a
       0.026527062 -0.08776691 0.09991396 0.0018435038
000220 32 ac a8 bd f1 69 88 3d 35 8a ce 3c b4 4c f4 bd
       -0.08235969 0.06660832 0.025212387 -0.119286925
000230 68 76 9e 3d 75 a2 0a be ae e1 80 bd 74 2b dc bd
       0.07737428 -0.13538535 -0.06293045 -0.107504755
000240 40 07 4a bc a4 f1 2e be 59 a1 df bd fe b9 c8 3d
       -0.01233083 -0.17084366 -0.109194465 0.098011
000250 17 ae 6c 3d be 71 03 be 93 e1 02 3c 79 98 92 3d
       0.057783213 -0.12836358 0.007988351 0.07157988
000260 99 34 c8 bc 3b 56 c5 bc d0 7f ca bd a1 a3 03 3e
       -0.024439143 -0.02408897 -0.098876595 0.12855388
000270 1f 18 d7 bc 2c e1 2d 3e e7 f4 f2 bc 62 04 3e bc
       -0.026256619 0.16980428 -0.029657794 -0.011597725
000280 be ae bc 3d d0 20 fb bc e3 b6 52 bb d0 ea 2f bd
       0.09213017 -0.030655295 -0.0032152466 -0.042948544
000290 ad 7a 83 bd 2c 3d 2c 3a 77 a8 ee 3c c2 96 b2 bd
       -0.06419883 0.00065703946 0.029133065 -0.08720161
0002a0 d2 c0 84 bd 38 05 3a 3d 06 e2 ab 3c 54 4c 7a 3d
       -0.0648209 0.045415133 0.0209818 0.06110795
0002b0 31 b0 ec bd 8a 1e 4b 3d da 28 d4 3d 9b 4e 7e 3d
       -0.11557043 0.04958967 0.10359354 0.062086683
0002c0 50 24 a2 bd 9d 3f c0 ba b5 ce 92 3c d8 d1 01 be
       -0.07917082 -0.0014667396 0.017920831 -0.12677705
0002d0 bf 8b d2 3c 3f af 1d 3e cd dd db 3b 19 72 c7 bd
       0.025701402 0.15398882 0.0067097903 -0.09738559
0002e0 22 73 2c 3c 5c 52 ba 3d 4f 05 c2 3c e2 24 da bc
       0.010525497 0.0909774 0.023684172 -0.026628915
0002f0 c5 1b de bd 76 c5 20 bd 91 d3 4e bd aa 40 1c 3c
       -0.1084514 -0.039250813 -0.050494734 0.0095369015
000300 5a 35 77 bc 32 0f 0b bd bb e6 12 bd 74 e5 16 bd
       -0.015088404 -0.03395004 -0.035864573 -0.036839917
000310 eb 84 99 3d 62 1a 71 bd 3f 21 c0 3c 31 fe d0 3b
       0.07496055 -0.05886305 0.023453353 0.006377958
000320 ff 2f 23 3d 64 af 08 be 27 a9 0d bc e8 cd 21 3e
       0.039840695 -0.13348156 -0.008646286 0.15801203
000330 7b 7e dc 3c 69 ec f5 bd c8 6b bb 3d e6 f4 2b 3d
       0.02691578 -0.12007982 0.09151417 0.0419816
000340 36 1c b5 bd 41 55 80 bd fa a3 63 3b b9 24 a3 bd
       -0.088432714 -0.06266261 0.0034735189 -0.07965989
000350 8b 95 13 3d 2a 2d fc bc 69 97 67 bb 87 e6 01 3c
       0.036031287 -0.030783255 -0.003533805 0.007928497
000360 29 49 2a bc 43 85 c9 bc b3 b6 5d bd 56 00 ec bd
       -0.010393419 -0.024599677 -0.054129314 -0.115235016
000370 1d 6d 01 be d4 9c 08 3d 9f 52 28 3e 50 2e 04 3d
       -0.1263928 0.033352688 0.16437767 0.03227073
000380 b9 e3 2d ba 0b b0 23 3e 26 fd 3d be 19 08 ee 3c
       -0.00066333596 0.15985124 -0.185536 0.029056596
000390 19 99 14 be a6 2f 5c 3a 04 19 9a bd 83 7a fd bd
       -0.14511527 0.0008399434 -0.075243026 -0.12376883
0003a0 27 c3 01 3d ff cc 8e bc af b9 8e bd ba 07 4b 3d
       0.031680252 -0.017431734 -0.0696901 0.049567915
0003b0 ec d2 a4 3d 67 85 e8 bb ff a0 cf 3d 4c a4 dd bc
       0.08048043 -0.007095981 0.101381294 -0.027055882
0003c0 34 f9 33 be 17 5e 19 3c b6 ba a2 3d 81 da fc bd
       -0.17575532 0.009360812 0.079457685 -0.12346364
0003d0 4e 51 d3 3d 5c 08 66 3d af 55 55 bd 36 d0 d3 3d
       0.10318242 0.056160316 -0.052083667 0.103424475
0003e0 ed ef 5f 3d 74 41 4d bd db 3b d3 3a 18 5f 8a 3d
       0.05467217 -0.05011125 0.0016115861 0.06756419
0003f0 e1 21 04 3e f1 3a 56 bd b2 90 0b bd 29 06 da 3c
       0.12903549 -0.052302305 -0.03407354 0.026614266

rnn.bias_ih_l0 f4 [128]
000000 9a 3f e4 3d 4a 11 24 be a2 27 12 be 3b 28 e2 3d
       0.111449435 -0.1602222 -0.14272931 0.110428296
000010 3f 3a e8 bb 50 a0 66 3b f3 09 74 bd ea 02 5c be
       -0.0070870216 0.0035190769 -0.0595798 -0.21485487
000020 35 4d 96 3d 4d 1d 16 be 61 9e 8e bb 36 8d 5f 3e
       0.07338945 -0.14659615 -0.0043523763 0.21831211
000030 93 dd f1 bd 2b 46 82 bd aa bd 0c be 0b aa 01 3d
       -0.1180984 -0.0636104 -0.13744226 0.031656306
000040 e6 a0 d3 bd bf d9 ba 3d 5d 6a f9 3d d0 4f 83 bd
       -0.10333423 0.09123563 0.1217849 -0.064117074
000050 49 31 c6 bc 5c 96 18 3e b5 0a 00 bd 4d cf 72 be
       -0.024193423 0.14901108 -0.03126021 -0.23711891
000060 29 f0 59 3d ec dc 9a bd 20 5f d6 be 3d f5 eb 3a
       0.05320755 -0.07561669 -0.4186945 0.0018002164
000070 68 52 50 3c 8d ce 11 bc d2 5b bc 3e d0 f6 ae bc
       0.01271496 -0.008899343 0.36788803 -0.021357924
000080 1a 39 69 bd 1b 33 86 3c fc 92 d5 bd bf 4b 2e 3e
       -0.056939222 0.01638179 -0.10428426 0.17021082
000090 6c af a2 3b 4c fd bf 3e 67 87 d0 bb ab ec 0f 3e
       0.0049647596 0.37497938 -0.0063637975 0.14055125
0000a0 ae 58 0e be 97 5a 93 3b b8 3c 9a bd cb 2c 5e be
       -0.13901016 0.004496883 -0.075311124 -0.21696775
0000b0 57 61 0e be a4 d0 84 bd 4e 55 14 be b2 09 47 3e
       -0.1390432 -0.064851075 -0.14485666 0.19437292
0000c0 55 94 36 bd d7 a3 27 3e aa d4 65 bd ff 13 11 3e
       -0.044575054 0.16371094 -0.056111015 0.14167784
0000d0 0e b4 2f be 12 38 88 bc e0 0e 8d be b7 6a c6 bd
       -0.17158529 -0.016628299 -0.2755041 -0.09688323
0000e0 b6 9a c4 bd 4d 86 9f be 39 37 c0 3e 4e db ca 3d
       -0.09599821 -0.3115715 0.37542132 0.0990511
0000f0 47 44 94 3c 3d 08 2b be fe 5f f2 3d 83 9a a1 3d
       0.018098963 -0.16702361 0.11834715 0.07890799
000100 ab 5f d7 3d f1 ab c9 3e 0b 85 17 3d 74 3f a8 3d
       0.10516294 0.39388993 0.036992114 0.08215228
000110 c2 d5 80 bc 09 c3 b4 bc 61 77 bd 3d 75 1d 7f 3e
       -0.015726928 -0.022065656 0.09251285 0.2491358
000120 6d c5 2d 3d b8 b5 83 bb 1d e0 8e 3d ff 8e f9 bc
       0.042424608 -0.0040194653 0.0697634 -0.030463694
000130 8d e8 f7 3c 04 b8 6e 3d 72 e8 21 be a5 56 b8 3d
       0.030262256 0.05828096 -0.15811327 0.09000901
000140 52 cc e5 3d 0e e1 d8 3d f8 c0 ad 3d ea 9f 7b 3d
       0.11220612 0.10589801 0.084840715 0.061431803
000150 06 89 e1 3d cc 2e 01 3e 6f 31 b6 bc 26 82 8f 3a
       0.11012463 0.12615508 -0.022240369 0.0010948821
000160 ef a3 57 be 80 01 91 bd f3 d2 ac 3d d6 20 8f 3c
       -0.2105863 -0.07080364 0.08438673 0.017471712
000170 07 e0 f4 3d 85 20 86 3d 22 04 b7 bd cc e1 06 be
       0.11956792 0.06549171 -0.08936335 -0.13172072
000180 55 5c 45 3e 9f b3 80 be 0a 42 7e 3d 2d d9 0c be
       0.19273503 -0.2513704 0.0620747 -0.13754721
000190 c3 cc 1c 3e 78 dd 61 be 3c 5c 84 3d 9b 3f 8e 3c
       0.15312485 -0.2205714 0.06462905 0.017364314
0001a0 48 53 3f be 81 6c cf bd 67 c0 ff bc 66 0a 32 be
       -0.18684113 -0.10128117 -0.031219674 -0.17386779
0001b0 64 72 02 be 42 fb fe 3d 3b d3 7a be 3a 03 77 3d
       -0.12738949 0.124502674 -0.2449464 0.06030581
0001c0 18 00 8d 3e aa f3 7c 3d 2a ab 0b be 7c 95 dd 3c
       0.27539134 0.061755814 -0.13639513 0.027048819
0001d0 d6 99 11 be 1d e8 18 bd dc 0d 5d be c4 2d 1f be
       -0.1421884 -0.037330735 -0.21587318 -0.15544802
0001e0 cf d3 9e bd 8f 8f ac 3e 29 b7 b2 bc 1f 9f c3 bc
       -0.07755243 0.33703277 -0.021815853 -0.023879586
0001f0 2d 93 96 bd d5 66 67 3c f3 03 72 3d 5b 7c 20 bd
       -0.0735229 0.014123638 0.059085798 -0.039181095

rnn.bias_hh_l0 f4 [128]
000000 aa 49 83 3d 10 4d c1 bd 7c 90 9e bd 1a ee b5 3d
       0.06410535 -0.09438527 -0.07742402 0.08883305
000010 e9 eb 38 3d 0f 75 fd 3c a7 54 03 3d 3c 9f 4c be
       0.045146856 0.030939607 0.032063153 -0.19982618
000020 aa d2 79 bc 04 95 e7 bc 9c 0f 14 3e 3b 9f 1f 3e
       -0.01524798 -0.028269298 0.1445908 0.15588085
000030 ee 37 ae bd 1f df aa 3d c7 65 ef bd 02 69 e4 3d
       -0.085067615 0.08343338 -0.11689334 0.11152841
000040 bb 2b 21 be 22 39 45 3e 97 b1 6e 3e de f4 37 bc
       -0.15739338 0.19260076 0.23309933 -0.0112278145
000050 13 28 45 bc 67 2d f5 3d d6 b8 d2 bc 20 29 dc bd
       -0.01203348 0.119715504 -0.025722902 -0.107500315
000060 1c 2b 49 3d e5 92 39 bc 4a 05 c7 be ac 81 64 bd
       0.049113378 -0.011326526 -0.38871223 -0.055787727
000070 a3 2b 98 bc 5d e8 1f be 16 81 ce 3e b9 2a 46 3c
       -0.018575495 -0.15615983 0.4033286 0.012095147
000080 7b f1 3d 3c 55 9a 13 bd c7 66 74 bd ba a5 2c 3e
       0.011593218 -0.036035854 -0.05966833 0.16860095
000090 73 52 fe bd ea 31 bf 3e 82 84 d1 bd 75 ff 1f 3e
       -0.1241807 0.3734277 -0.10230352 0.15624793
0000a0 d9 59 13 bd 01 fb 97 3d 42 45 e3 bd f1 34 62 be
       -0.035974357 0.07420922 -0.11097194 -0.22090508
0000b0 47 9e 13 bd e7 a2 ab bc ed f1 12 be 11 19 77 3e
       -0.036039617 -0.020951701 -0.143501 0.24130656
0000c0 43 cc 88 3d 34 ad 89 3d 60 a5 ff 3b 23 26 d4 3d
       0.06679585 0.06722489 0.0078016967 0.103588365
0000d0 eb a4 38 bd c5 81 20 be cd 9a 72 be 79 9d 37 bd
       -0.045079153 -0.15674503 -0.23691864 -0.044827912
0000e0 6a 61 08 3d 5b 94 a4 be fb 89 fe 3e 95 14 09 bd
       0.033296026 -0.32144436 0.49714646 -0.033466894
0000f0 21 78 2d bd 0c 79 34 be 25 d1 90 3d af 2f 8e 3c
       -0.042350892 -0.176243 0.07071141 0.017356722
000100 b1 04 71 38 2d 11 af 3e 91 74 6d 3d 18 86 08 3e
       5.7463247e-05 0.34192792 0.057972495 0.13332403
000110 91 0c 01 be 3c e8 84 3c 82 c8 8f 3c d3 14 4b 3e
       -0.1260245 0.01622402 0.017551664 0.19832163
000120 38 00 ac bd de 9c 8b 3d c9 7c b6 3c 4e 4b 20 be
       -0.08398479 0.068170294 0.0222763 -0.15653726
000130 86 09 ff 3d 54 5c 14 3d a8 20 15 bd 8d ae 14 3d
       0.12452988 0.036220863 -0.036408097 0.036299277
000140 44 52 06 3d 6a 59 06 3e 0c 1d 6b 3d 74 e2 8a bc
       0.0327933 0.13120046 0.057400748 -0.016953684
000150 1d 2e 50 3d 40 b1 21 3e ed c0 c5 bd 0a 6d e0 3d
       0.050825227 0.15790272 -0.09655938 0.109582976
000160 60 24 28 be cf 90 9a bd 00 2e fb 3d 99 50 7f 3c
       -0.16420126 -0.07547151 0.12264633 0.015583181
000170 a5 a6 f0 3b 0d 22 37 3d 46 1a d4 bd 07 61 14 be
       0.0073440843 0.044710208 -0.10356574 -0.14490138
000180 84 bd 4c 3e a3 78 55 be a8 4f e7 3d ac 2e 54 bd
       0.1999417 -0.208468 0.1129449 -0.051802322
000190 0d a1 91 3e 57 bd 78 be 74 72 24 3e e6 46 50 3d
       0.28443184 -0.24290977 0.16059285 0.050848864
0001a0 41 b0 40 be 43 e4 b0 bd 4b 87 a1 bd ab ff 04 be
       -0.18817236 -0.086372875 -0.07887133 -0.12988155
0001b0 8e 64 3f be ac b3 1d 3e ad f7 01 be 40 e2 db 3d
       -0.18690702 0.1540057 -0.12692137 0.10736513
0001c0 17 7a 57 3e a2 fe 0c bd 52 a8 51 be 6f ba 99 3c
       0.21042667 -0.034422524 -0.20474365 0.018765656
0001d0 aa 45 5a bd c1 83 9c 3c 54 1f 4d be fd 8f 89 3c
       -0.053289093 0.019105794 -0.20031482 0.016792292
0001e0 ba e7 22 be 0d 81 84 3e 6d 10 45 bc 67 5e 3a bc
       -0.15908709 0.25879708 -0.012027842 -0.011375046
0001f0 7e 2a 2b bc 31 8a ed bd 80 03 ea 3b 87 3b 80 bd
       -0.010447143 -0.115986235 0.0071415305 -0.06261354

fc.weight f4 [2, 128]
000000 4b 45 92 3e 6f e8 09 be f8 ef 14 3e 54 82 1b 3e
       0.2856849 -0.13467573 0.14544666 0.15186435
000010 85 5d e9 bb e4 33 a2 bd c8 96 b2 3c fb f4 ea bc
       -0.007121744 -0.079200536 0.021800414 -0.028681269
000020 a8 81 3a bd 72 e7 90 3d d7 c3 9f bd 12 80 8a 3d
       -0.045533806 0.07075395 -0.07801025 0.06762709
000030 1b 6f 07 be 00 80 f8 3b 32 3e ef bc 07 8b 20 bd
       -0.13225977 0.007583618 -0.029204462 -0.039195087
000040 8d 4f 1e be 7f c3 48 3e fc 23 e5 3d 83 a6 69 3c
       -0.15460034 0.19605826 0.11188504 0.014260891
000050 61 da 35 be 06 cd 15 bd 3e b1 7d 3b db 78 f1 3e
       -0.17759086 -0.03657248 0.003871038 0.47162518
000060 88 1a 47 3e be ff c6 bd 34 b6 93 3f 94 2a 57 be
       0.19443715 -0.09716748 1.1539979 -0.21012336
000070 6f 99 35 3c 11 f7 30 be c5 df 99 bf 45 4d 9b 3d
       0.011083945 -0.17281748 -1.2021414 0.07583097
000080 ab 0e 08 3e 3f 4e ae bc 50 c4 9e 3d 21 9f 6d 3e
       0.13286845 -0.021277545 0.077522874 0.23205234
000090 a2 22 4d 3d 13 b2 ab bf a7 5a 65 bd 38 1d 2a 3e
       0.050081857 -1.3413719 -0.055994656 0.16612709
0000a0 b2 a0 3d 3d 22 21 77 3c 87 55 9e bd ad 0e 7c 3b
       0.04629583 0.015083583 -0.07731157 0.0038460896
0000b0 39 d1 0e 3e 6e 7d 02 3d bb 25 3d 3e 64 b1 47 bf
       0.13947 0.0318579 0.18471424 -0.7800505
0000c0 07 7d 27 3e 30 fd 4c 3e 7d 7f a5 3d 42 d0 5d 3e
       0.16356288 0.20018458 0.08080957 0.21661475
0000d0 c6 29 74 be ec 86 99 be 0b a8 b5 3f ee 08 e1 bd
       -0.2384406 -0.2998575 1.4191908 -0.10988031
0000e0 aa 4b 53 bd 71 be 13 3e 34 35 0b bf a3 47 12 bd
       -0.05158583 0.14428116 -0.54378057 -0.03571285
0000f0 cb 90 2d be a2 bd a3 bc 3a 8b 72 3c 96 03 45 be
       -0.16949765 -0.019987885 0.014803702 -0.19239649
000100 10 88 0f be e0 64 ae bf 92 b2 a2 bd de a9 49 3e
       -0.14016747 -1.3624535 -0.07944216 0.19693705
000110 7e 27 1e be b1 f1 64 3c 95 c8 0e 3e 9c 40 ec 3b
       -0.15444753 0.013973639 0.13943703 0.0072098505
000120 83 32 f5 bc b1 aa 5b 3e 82 b5 e3 ba d8 04 73 be
       -0.029931312 0.21451832 -0.0017372819 -0.23732316
000130 41 59 f0 bd 8d 30 57 3e b1 c8 2c be 3a ae c6 be
       -0.11735774 0.21014614 -0.16873433 -0.388048
000140 f0 a0 0a 3e f3 38 46 3e ae 55 ec bc e4 8e a3 bd
       0.13537955 0.19357662 -0.028849449 -0.079862386
000150 ce d0 7f 3c 94 e2 1a 3e ce 93 4d 3e bf 47 85 bd
       0.015613748 0.15125495 0.20075914 -0.06507825
000160 e9 61 03 3d 30 18 0c be 93 f3 b4 bc 5b dc 2e 3e
       0.032075796 -0.13681102 -0.022088801 0.17076246
000170 fe ca 99 3d af 0f 83 bc ce 77 80 be e2 a9 50 bd
       0.07509421 -0.01599869 -0.25091404 -0.050943263
000180 ad e7 f3 bc e2 79 b1 3e e4 3a 5a be 53 9f 41 be
       -0.029773558 0.34663302 -0.21311527 -0.18908434
000190 68 8e 46 be 8f c3 e1 3e ca 52 86 3c c1 9c 44 3e
       -0.19390261 0.44094512 0.016396899 0.19200422
0001a0 d3 22 c0 3d 6d 42 73 bd 11 4d ec bd a1 f0 90 3d
       0.09381642 -0.05938952 -0.11538137 0.07077146
0001b0 4d f7 40 3d 74 b8 04 3e 97 f3 19 3e e5 ae 72 3d
       0.047110844 0.12960988 0.15034328 0.059248824
0001c0 7e 0d 01 be 6e 0d b0 bd d8 4c 61 3e f1 fb ae 3d
       -0.12602803 -0.085963115 0.2200197 0.08544148
0001d0 8c 8e 5a be 5e 5d 96 bd 08 c2 4e bd 75 6c 83 be
       -0.2134344 -0.07342027 -0.05047801 -0.25668684
0001e0 19 08 01 be 97 27 68 be 4a b3 93 3d db 77 c0 bd
       -0.12600745 -0.22671352 0.07211931 -0.093978606
0001f0 bf 73 54 be 18 89 78 bc ea 10 18 bc 34 c9 a1 3d
       -0.20747279 -0.015169404 -0.009281376 0.078997046
000200 75 4b 2d be 00 e0 10 3e e1 83 57 be 98 12 f1 bd
       -0.16923316 0.14147949 -0.21046402 -0.117711246
000210 f7 ad a5 bd e4 cc ae bb 8f 95 70 bd f6 93 dc 3d
       -0.08089822 -0.0053344835 -0.05873638 0.10770409
000220 e7 bb fd bc 55 b1 f0 bd 3e 63 13 3e fb 15 f8 bd
       -0.030973388 -0.117525734 0.14393327 -0.121135674
000230 04 2a 53 3e a0 5b 01 bd bd 09 dd bb 02 bf 48 bc
       0.20621496 -0.03158152 -0.0067455457 -0.012252571
000240 ce 6b da 3c eb f5 5e bd af 7e 46 3d 51 ae b4 bc
       0.026662733 -0.054433744 0.04846066 -0.022055777
000250 73 ba 26 3e bf e9 cb ba 08 73 8a 3b a2 50 05 bf
       0.16282062 -0.0015557333 0.0042251386 -0.5207616
000260 f6 97 2a be 56 e6 07 bd 76 87 94 bf 30 30 bf 3d
       -0.16659531 -0.03317865 -1.1603839 0.09335363
000270 4b de ee bc ea 31 4a 3e 32 0b 8e 3f d7 2c c9 bd
       -0.029158732 0.19745603 1.1097167 -0.09823006
000280 82 2f 9d bd 8e b5 86 bc de b1 5a bd 7e bc 2e be
       -0.07675077 -0.016443994 -0.053392284 -0.17064092
000290 70 be d2 bd 5f 5f b8 3f d6 65 d0 3d 19 57 17 be
       -0.10290229 1.4404105 0.10175674 -0.14779319
0002a0 76 9c f5 bd 2a f1 cd bd 9f 31 97 bc 79 b6 0d be
       -0.11992733 -0.10055764 -0.018456278 -0.13839139
0002b0 e0 88 97 be d4 c7 45 3d 0f a6 da bd 96 79 40 3f
       -0.29596615 0.048286274 -0.106762044 0.75185525
0002c0 5c dd 6b be 25 7c 26 be 18 36 0a be 9a ea 53 be
       -0.2303366 -0.16258295 -0.13497198 -0.20694962
0002d0 dc cc 58 3e b5 cf 43 3e 07 a4 a9 bf cd 23 d7 3d
       0.21171898 0.19122203 -1.3253182 0.10504875
0002e0 1d ce 54 3e 84 5e 5a be ce de 10 3f 6d 73 04 be
       0.20781751 -0.21325117 0.5658997 -0.12934656
0002f0 96 3c d7 3d 37 b5 ea bc cf 40 2e bd 2e 11 34 3e
       0.10509603 -0.028650863 -0.042542275 0.17584679
000300 dc 5c ac bc a1 89 a0 3f 7a 78 a2 3d a4 19 03 be
       -0.021040373 1.2542001 0.07933135 -0.1280275
000310 b7 98 ba 3d da 61 fe bb c0 8d 33 be 04 77 34 be
       0.09111159 -0.0077631297 -0.17534542 -0.17623526
000320 e6 04 6b bd 5a ae 7d be 50 9a 18 3d 65 a2 4c 3e
       -0.05737772 -0.24773541 0.03725654 0.19983824
000330 64 95 69 bb 25 ea 82 be 47 a0 8b 3e 2c df bb 3e
       -0.0035642022 -0.25569263 0.2727072 0.36693704
000340 1e 75 43 be 4b 44 8b be 87 66 46 3e e1 ae 43 3c
       -0.19087645 -0.2720054 0.19375049 0.01194355
000350 59 2b 6c bb d5 b5 2c be 83 47 0d be 07 2e 4c 3e
       -0.003603658 -0.16866238 -0.13796811 0.19939433
000360 5a b4 21 3d 65 71 f6 b8 60 3b 9d 3d 08 20 76 be
       0.039478637 -0.000117513155 0.076773405 -0.24035656
000370 21 8a e5 bb 6c f2 68 3d 98 fa 41 3e 65 b9 c9 3d
       -0.0070049916 0.056871817 0.1894325 0.09849814
000380 2f b9 8f 3d 67 78 8b be 43 63 eb 3d 37 59 91 3e
       0.07017743 -0.27240297 0.11493542 0.28388378
000390 b0 c4 31 3e b7 a0 c5 be 59 07 21 bd 71 0e 8b be
       0.17360187 -0.38599178 -0.039313648 -0.27159455
0003a0 2c e3 0b be 81 c4 5b 3e 95 b3 46 3d f3 e7 23 3d
       -0.13660878 0.21461679 0.048511107 0.040016126
0003b0 49 9e a0 bd f9 b6 05 be 2e 51 18 be 40 c1 23 be
       -0.078426905 -0.1305808 -0.14874718 -0.15991688
0003c0 33 ea 72 3e 58 15 df 3d 18 c8 94 be 07 d4 d9 bd
       0.23722152 0.10892743 -0.2905891 -0.10636144
0003d0 16 4b 4b 3e bc a0 b1 3c e3 9c 08 3e a2 21 2d 3e
       0.19852862 0.02168309 0.13341098 0.16907361
0003e0 fe 28 2d 3e d7 24 4e 3e 95 af 1f bd 66 56 98 3d
       0.16910169 0.20131241 -0.038985807 0.07438354
0003f0 3d 55 51 3e c4 64 4f bd 90 2d ae 3c 33 08 4d bd
       0.20442672 -0.050633207 0.02126196 -0.050056648

fc.bias f4 [2]
000000 3f 1a 70 3e c3 23 46 be
       0.23447512 -0.1934958
