detector/models/128_1_32_5_32_0.001_covert_detector_3.pth (torch, 72573 bytes, 6 tensors)

rnn.weight_ih_l0 f4 [128, 3]
0.04477928 0.15843792 0.079992495 -0.009698274 -0.010770621 -0.1505398 -0.06856232 0.028208688
-0.09405909 0.09479392 0.01491884 0.09438479 0.0073678 0.029285356 0.06690742 0.047148425
0.02237543 0.09183685 -0.11118041 -0.042141456 -0.10300828 -0.18626307 -0.040687997 -0.16868009
0.019387947 -0.032862894 0.034610886 -0.054397613 -0.036735207 -0.016899783 0.02153154 0.016880918
0.14268054 0.082817785 0.002660861 0.17762376 -0.0008709045 -0.012579116 -0.07812634 0.035300437
-0.04632904 0.010526439 -0.2117421 -0.036494114 -0.16720384 0.005519701 0.032447357 0.12904848
-0.13175675 -0.06961413 -0.014862392 0.084559955 0.029024528 0.17820197 0.11645531 0.034051586
0.16896887 -0.11234462 -0.032214463 -0.12128545 0.013801458 -0.11967961 -0.11750342 0.10311627
0.032461014 0.1258217 -0.12698103 -0.031289745 0.07267919 -0.17481047 -0.024807908 -0.11839078
0.012876593 0.10519342 0.029690202 -0.11286581 -0.03047501 -0.13961956 -0.24626054 -0.031113379
-0.3181436 0.006080393 0.03154824 -0.021360608 0.011093344 0.033244845 0.01635571 -0.06052195
-0.06726269 0.0048310165 0.2933393 0.033952486 0.3152825 -0.015047093 -0.032810822 0.0050417935
-0.034546897 -0.032230835 -0.02975771 0.07246265 0.030796701 0.09384511 -0.0840028 -0.041298546
-0.15186234 0.09157462 0.13773304 0.03290033 -0.117903456 -0.030837325 -0.09823849 0.38086498
-0.004604012 0.24467182 0.03344116 0.030188564 -0.04380666 0.109874554 0.009991233 0.011504904
-0.05382143 -0.030792387 -0.15858036 0.048531946 -0.035505302 0.061782423 -0.09935564 -0.03170114
0.07438674 -0.20137553 -0.029070912 -0.15192088 0.01562385 -0.03325578 -0.16911934 -0.086726844
-0.03258143 -0.0105813285 -0.20810276 -0.0024473704 -0.08872021 0.06432621 -0.0035672549 0.28537294
0.0386384 0.030756736 -0.018498333 0.0093829315 0.097458415 0.007886342 -0.040932816 -0.048691604
-0.09228498 0.06750462 0.09134119 0.05503203 -0.102046356 -0.19707409 0.00027252373 0.029727705
-0.15425871 -0.02204718 -0.057540964 0.0040357765 -0.17416781 -0.1710403 -0.030090535 -0.1662554
-0.0993024 0.046354268 0.0009879046 -0.05872502 -0.023027321 -0.295597 0.26619828 0.0064644706
0.34398106 -0.014918568 0.03136983 0.12467343 0.014568989 -0.030310133 0.039431185 -0.15376365
-0.02720484 -0.1421447 0.08073609 0.032184336 0.0919769 0.020768804 0.029894913 0.08626011
-0.07977567 0.038409542 -0.035403088 0.09185003 -0.0048235925 0.1540745 0.08592595 0.037184052
-0.009614669 -0.010133572 0.07623409 0.058839772 -0.1326671 -0.032090966 -0.033294346 -0.07958127
-0.03611652 -0.028177984 0.11053514 0.017337 0.14890108 0.086663105 0.02245414 0.077330776
0.019648623 -0.030951709 0.0074686883 0.0908139 0.11869646 -0.033879373 -0.030354504 0.043868776
-0.061106548 -0.03783113 -0.12520772 -0.026109412 0.105395176 0.03277408 -0.040680986 0.13858652
0.13923645 -0.0236127 -0.038074374 -0.117628574 0.013070745 0.053137142 0.028889395 0.1730746
-0.020588027 0.08856479 -2.5228492e-05 0.083677515 0.110459656 0.039923828 -0.037199896 0.028061626
0.115542285 0.037478786 0.022856483 0.0105175525 0.14807752 0.035766944 0.0925599 -0.012418886
00000000: 7a6a 373d 8d3d 223e 1bd3 a33d 82e5 1ebc
00000010: 4277 30bc 1b27 1abe 676a 8cbd e815 e73c
00000020: 0da2 c0bd 5123 c23d 266e 743c d04c c13d
00000030: 966d f13b d8e7 ef3c c206 893d b51e 413d
00000040: ae4c b73c f514 bc3d 8eb2 e3bd 859c 2cbd
00000050: 01f6 d2bd bfbb 3ebe 75a8 26bd 79ba 2cbe
00000060: 79d3 9e3c 3e9b 06bd 25c4 0d3d 08d0 5ebd
00000070: a877 16bd 6a71 8abc ea62 b03c da49 8a3c
00000080: d91a 123e 5f9c a93d d761 2e3b 01e3 353e
00000090: 694d 64ba a318 4ebc b400 a0bd 3197 103d
000000a0: 85c3 3dbd 1677 2c3c ecd2 58be da7a 15bd
000000b0: 7c37 2bbe 9cde b43b 85e7 043d 4925 043e
000000c0: 3eeb 06be da91 8ebd 6481 73bc c52d ad3d
000000d0: d9c4 ed3c 947a 363e 1f80 ee3d ad79 0b3d
000000e0: 2d06 2d3e f014 e6bd 50f3 03bd 8264 f8bd
000000f0: 831f 623c 951a f5bd a2a5 f0bd 9f2e d33d
00000100: d7f5 043d 67d7 003e 5107 02be ad29 00bd
00000110: d4d8 943d 8401 33be f439 cbbc de76 f2bd
00000120: 58f8 523c a66f d73d de38 f33c 3126 e7bd
00000130: baa6 f9bc 6ef8 0ebe b92b 7cbe 7ce1 febc
00000140: b8e3 a2be 093e c73b ba38 013d 71fc aebc
00000150: dbc0 353c bf2b 083d 69fc 853c dde5 77bd
00000160: 05c1 89bd 814d 9e3b 9230 963e c311 0b3d
00000170: b56c a13e 1588 76bc a464 06bd a135 a53b
00000180: 0c81 0dbd 7b04 04bd 71c6 f3bc 4c67 943d
00000190: 5d49 fc3c dd31 c03d a909 acbd aa28 29bd
000001a0: cd81 1bbe 798b bb3d e409 0d3e 7fc2 063d
000001b0: 5e77 f1bd 8f9e fcbc 4331 c9bd bc00 c33e
000001c0: 40dd 96bb 408b 7a3e 99f9 083d 024e f73c
000001d0: 9d6e 33bd e905 e13d 45b2 233c 117f 3c3c
000001e0: dc73 5cbd 5140 fcbc e462 22be 6fc9 463d
000001f0: 026e 11bd 910f 7d3d f87a cbbd 0ed9 01bd
00000200: 1358 983d 6335 4ebe 1f26 eebc 2691 1bbe
00000210: 2dfb 7f3c 3637 08bd 9f2d 2dbe d89d b1bd
00000220: 1b74 05bd 4f5d 2dbc e418 55be 1064 20bb
00000230: f1b2 b5bd 76bd 833d 9bc8 69bb 671c 923e
00000240: 4d43 1e3d 8df5 fb3c d189 97bc deba 193c
00000250: 4798 c73d b735 013c 2ba9 27bd d970 47bd
00000260: e8ff bcbd dd3f 8a3d 1711 bb3d 4469 613d
00000270: aefd d0bd cacd 49be 84e1 8e39 8487 f33c
00000280: fff5 1dbe 4a9c b4bc 13b0 6bbd 8c3e 843b
00000290: 0c59 32be 3025 2fbe 6d80 f6bc db3e 2abe
000002a0: 0f5f cbbd f9dd 3d3d 947c 813a a689 70bd
000002b0: cba3 bcbc 7d58 97be 244b 883e e9d3 d33b
000002c0: 491e b03e 026d 74bc a77d 003d c954 ff3d
000002d0: c5b2 6e3c f54c f8bc 9882 213d 3874 1dbe
000002e0: afdc debc 618e 11be f758 a53d b9d3 033d
000002f0: 635e bc3d 5723 aa3c 2de6 f43c 24a9 b03d
00000300: 6d61 a3bd 5353 1d3d d402 11bd de1b bc3d
00000310: 3a0f 9ebb b5c5 1d3e f2f9 af3d 4e4e 183d
00000320: d886 1dbc 4807 26bc 9e20 9c3d f901 713d
00000330: e2d9 07be d171 03bd a75f 08bd 81fb a2bd
00000340: ebee 13bd 84d5 e6bc 3f60 e23d 5306 8e3c
00000350: 8679 183e 6d7c b13d bff1 b73c 995f 9e3d
00000360: 26f6 a03c 708e fdbc e6bb f43b a3fc b93d
00000370: 2117 f33d 19c5 0abd 02aa f8bc bfaf 333d
00000380: dc4a 7abd d1f4 1abd 7436 00be 68e3 d5bc
00000390: 6dd9 d73d 1d3e 063d 1ba1 26bd a0e9 0d3e
000003a0: 0094 0e3e 6c6f c1bc e0f3 1bbd 40e7 f0bd
000003b0: ae26 563c 55a6 593d 74a9 ec3c 783a 313e
000003c0: 39a8 a8bc 7561 b53d c6a1 d3b7 1e5f ab3d
000003d0: ac38 e23d 2b87 233d eb5e 18bd 7fe1 e53c
000003e0: 6fa1 ec3d 5b83 193d 853d bb3c d051 2c3c
000003f0: a2a1 173e 5c80 123d 0b90 bd3d 9578 4bbc

rnn.weight_hh_l0 f4 [128, 128]
-0.0037258044 -0.12054408 -0.022113966 -0.010100294 0.048969984 -0.026044752 0.06927768 -0.023783037
0.042651303 -0.06918232 -0.104152866 0.0009726402 -0.173508 -0.17026637 0.053508643 -0.08837919
0.0046000457 0.049744196 0.06617962 -0.0029983523 -0.04212943 0.094302684 -0.029555237 0.04222532
0.13595173 0.081295185 -0.030562261 -0.0849107 -0.057195015 -0.05810401 -0.029281536 -0.012377829
0.08693362 0.050332252 0.0393179 0.174115 -0.048004035 0.088480346 0.0601813 0.0050299973
0.094916895 -0.0731753 -0.07209838 0.09804144 0.05876913 0.06714749 0.01945466 0.020520993
0.06068365 0.061548218 0.06617831 0.1916887 -0.18631375 -0.032974415 0.014973936 -0.09518649
0.1340371 -0.05264409 0.0010200647 -0.020604514 0.058023725 -0.07281599 -0.06518612 -0.054631826
-0.10365839 -0.0096853925 0.10218457 0.09193055 0.0364372 0.0061200275 0.0051892684 -0.0387764
0.059230004 0.14048234 -0.0673353 -0.069454946 0.044162866 0.18352258 -0.089593366 -0.09020286
0.13370937 0.03348909 0.010450656 -0.06431325 0.036357827 -0.028346643 0.093915865 -0.07538922
-0.0031727129 -0.06359423 -0.04588169 0.17617865 0.07089162 0.003147381 -0.055402458 -0.019968584
0.13529131 -0.037168 0.17333889 -0.1014693 0.11535905 0.035878506 0.0055881855 0.16686727
-0.034932673 -0.052974336 -0.06660855 -0.019499864 0.01148475 -0.021336297 -0.1357563 -0.07722425
0.11092405 0.020360325 -0.112132534 0.02457894 -0.107023865 0.023135914 -0.0030721775 -0.14486288
-0.10158931 -0.0471148 0.0054108137 0.03798823 -0.1289091 0.008776843 -0.049175557 -0.059621736
-0.14076228 -0.043594416 -0.027329277 -0.055566356 0.02652616 -0.08776691 0.099914 0.0018467503
-0.082359284 0.06660832 0.025207615 -0.119286925 0.07737428 -0.13538535 -0.06293045 -0.10750584
-0.012327155 -0.17084366 -0.109194465 0.09801109 0.05778338 -0.12836358 0.00799211 0.07157988
-0.024441374 -0.024089 -0.098876595 0.12855388 -0.02625856 0.16980428 -0.029659163 -0.011594391
0.09213017 -0.030657994 -0.0032120629 -0.04294864 -0.06419883 0.0006526702 0.029131107 -0.08720161
-0.0648209 0.04541534 0.020986967 0.06110806 -0.11557043 0.04958967 0.10359354 0.062086515
-0.07917082 -0.0014717533 0.017922798 -0.12677705 0.025702784 0.15398882 0.006713152 -0.09738559
0.010521742 0.0909774 0.0236828 -0.026628926 -0.1084514 -0.039250746 -0.05049472 0.009533192
-0.015091612 -0.033950176 -0.035865035 -0.03685427 0.07496055 -0.058862973 0.02345174 0.0063749445
0.039840776 -0.13348156 -0.008649808 0.15801203 0.02691029 -0.12007982 0.09151417 0.041981496
-0.08843317 -0.06266261 0.003470036 -0.07965989 0.036031228 -0.030784892 -0.0035307142 0.007925161
-0.010390192 -0.024596205 -0.054130387 -0.115235016 -0.1263928 0.033352677 0.16437767 0.032271054
-0.00066638325 0.15985124 -0.185536 0.029057967 -0.14511527 0.00084295584 -0.075243026 -0.12376883
0.031680323 -0.017428055 -0.0696901 0.049568005 0.08048043 -0.007099205 0.101381294 -0.027065672
-0.17575532 0.009357172 0.079457685 -0.12346364 0.10318242 0.05616031 -0.0520836 0.103424475
0.054672655 -0.050111696 0.0016145953 0.06756419 0.12903549 -0.05230212 -0.034073714 0.02661657
00000000: a02c 74bb d1df f6bd 5928 b5bc b47b 25bc
00000010: c094 483d ce5b d5bc 75e1 8d3d a5d4 c2bc
00000020: 22b3 2e3d 76af 8dbd 194e d5bd c7f8 7e3a
00000030: 15ac 31be 4f5a 2ebe e12b 5b3d 2600 b5bd
00000040: fbbb 963b 92c0 4b3d 2e89 873d 0180 44bb
00000050: e98f 2cbd c421 c13d d31d f2bc 75f4 2c3d
00000060: ee36 0b3e 177e a63d b55d fabc a9e5 adbd
00000070: 5245 6abd 78fe 6dbd d5df efbc 61cc 4abc
00000080: 410a b23d 3129 4e3d ce0b 213d 344b 323e
00000090: e19f 44bd 2f35 b53d ab80 763d add2 a43b
000000a0: ca63 c23d efdc 95bd 51a8 93bd f3c9 c83d
000000b0: e6b7 703d a084 893d 615f 9f3c a41b a83c
000000c0: 6b8f 783d fc19 7c3d 7e88 873d 0b4a 443e
000000d0: 08c9 3ebe 2e10 07bd 3d55 753c 22f1 c2bd
000000e0: 0641 093e 54a1 57bd b1b3 853a ccca a8bc
000000f0: 49aa 6d3d 8d20 95bd 4d80 85bd 9fc5 5fbd
00000100: da4a d4bd 7baf 1ebc 2546 d13d 1646 bc3d
00000110: 2c3f 153d 838a c83b bd0a aa3b 01d4 1ebd
00000120: 299b 723d 9ada 0f3e 17e7 89bd 653e 8ebd
00000130: 1fe4 343d 58ed 3b3e ba7c b7bd 47bc b8bd
00000140: 1ceb 083e db2b 093d 3a39 2b3c aab6 83bd
00000150: f2eb 143d 3837 e8bc f656 c03d aa65 9abd
00000160: 4aed 4fbb b13d 82bd 70ee 3bbd 2d68 343e
00000170: a02f 913d 4a44 4e3b b0ed 62bd 2895 a3bc
00000180: ce89 0a3e 793d 18bd c07f 313e 23cf cfbd
00000190: 5e41 ec3d 57f5 123d 191d b73b 41df 2a3e
000001a0: 9015 0fbd 9efb 58bd 106a 88bd 2ebe 9fbc
000001b0: 882a 3c3c 75c9 aebc b303 0bbe bf27 9ebd
000001c0: 262c e33d b2ca a63c bea5 e5bd c659 c93c
000001d0: 542f dbbd 8787 bd3c 9656 49bb ef56 14be
000001e0: 0e0e d0bd 73fb 40bd 324d b13b 8c99 1b3d
000001f0: bf00 04be bfcc 0f3c 4f6c 49bd ec35 74bd
00000200: fd23 10be 0f90 32bd a6e1 dfbc 8c99 63bd
00000210: 644d d93c 23bf b3bd b69f cc3d a80e f23a
00000220: fcab a8bd f169 883d 3380 ce3c b44c f4bd
00000230: 6876 9e3d 75a2 0abe aee1 80bd 062c dcbd
00000240: d6f7 49bc a4f1 2ebe 59a1 dfbd 0aba c83d
00000250: 44ae 6c3d be71 03be 57f1 023c 7998 923d
00000260: 4739 c8bc 4b56 c5bc d07f cabd a1a3 033e
00000270: 311c d7bc 2ce1 2d3e c6f7 f2bc 67f6 3dbc
00000280: beae bc3d 7926 fbbc 7981 52bb eaea 2fbd
00000290: ad7a 83bd f517 2b3a 5ca4 ee3c c296 b2bd
000002a0: d2c0 84bd 7005 3a3d dcec ab3c 724c 7a3d
000002b0: 31b0 ecbd 8a1e 4b3d da28 d43d 6e4e 7e3d
000002c0: 5024 a2bd d9e7 c0ba d5d2 923c d8d1 01be
000002d0: a58e d23c 3faf 1d3e 00fa db3b 1972 c7bd
000002e0: 6263 2c3c 5c52 ba3d 6e02 c23c e824 dabc
000002f0: c51b debd 64c5 20bd 8dd3 4ebd 1b31 1c3c
00000300: cf42 77bc 570f 0bbd 37e7 12bd 81f4 16bd
00000310: eb84 993d 4d1a 71bd dd1d c03c e9e4 d03b
00000320: 1530 233d 64af 08be edb7 0dbc e8cd 213e
00000330: f872 dc3c 69ec f5bd c86b bb3d caf4 2b3d
00000340: 731c b5bd 4155 80bd 8b69 633b b924 a3bd
00000350: 7b95 133d 9930 fcbc 8e63 67bb 89d8 013c
00000360: a03b 2abc fb7d c9bc d3b7 5dbd 5600 ecbd
00000370: 1d6d 01be d19c 083d 9f52 283e a72e 043d
00000380: 39b0 2eba 0bb0 233e 26fd 3dbe f90a ee3c
00000390: 1999 14be cff9 5c3a 0419 9abd 837a fdbd
000003a0: 3ac3 013d 48c5 8ebc afb9 8ebd d207 4b3d
000003b0: ecd2 a43d 73a0 e8bb ffa0 cf3d d4b8 ddbc
000003c0: 34f9 33be d34e 193c b6ba a23d 81da fcbd
000003d0: 4e51 d33d 5a08 663d 9d55 55bd 36d0 d33d
000003e0: 6ff0 5f3d ec41 4dbd d4a0 d33a 185f 8a3d
000003f0: e121 043e bf3a 56bd e190 0bbd fe0a da3c

rnn.bias_ih_l0 f4 [128]
0.11145309 -0.1602222 -0.12912574 0.110428296 -0.0069432184 0.0035078852 -0.0595798 -0.21487808
0.073401846 -0.14659615 -0.0043523763 0.21846883 -0.1185338 -0.063610375 -0.13746957 0.031656306
-0.10333423 0.09123563 0.121879876 -0.06411572 -0.024194617 0.14901108 -0.03126229 -0.2363078
0.053207755 -0.07690819 -0.4186945 0.0018002164 0.012719563 -0.008910045 0.36788803 -0.021357924
-0.056924466 0.0163817 -0.10428426 0.17021379 0.0049647596 0.3749354 -0.0063637975 0.14055213
-0.13901016 0.004496883 -0.075893104 -0.21558343 -0.1390432 -0.06485957 -0.14485666 0.19440466
-0.039204367 0.16371094 -0.056111015 0.14167795 -0.17165208 -0.016629988 -0.27545112 -0.096893124
-0.09599821 -0.3115715 0.37541354 0.10001342 0.017382802 -0.16702355 0.119502425 0.07890799
0.10516292 0.39388993 0.036992114 0.082167506 -0.015811825 -0.022065276 0.09258816 0.24913578
0.04244511 -0.003922544 0.06967595 -0.03047007 0.030262256 0.05838835 -0.15815975 0.08941952
0.11220612 0.10607548 0.084840715 0.060631346 0.11012613 0.12616388 -0.022240369 0.0010948721
-0.2105863 -0.070806086 0.08438673 0.017474944 0.12149695 0.065327264 -0.08937169 -0.13172072
0.19273503 -0.2513704 0.059069835 -0.13776991 0.15309724 -0.16207463 0.064850666 0.017368395
-0.18684113 -0.10128123 -0.031219685 -0.17386761 -0.12738949 0.12455717 -0.2449464 0.06030581
0.27523395 0.061755735 -0.13639513 0.027048819 -0.1422135 -0.040716212 -0.21587321 -0.1554494
-0.07755309 0.19850682 -0.021814607 -0.023879599 -0.07352937 0.01412383 0.059085798 -0.039178684
00000000: 8541 e43d 4a11 24be 8a39 04be 3b28 e23d
00000010: f083 e3bb 8ce4 653b f309 74bd 0009 5cbe
00000020: b553 963d 4d1d 16be 619e 8ebb 4bb6 5f3e
00000030: d9c1 f2bd 2846 82bd d3c4 0cbe 0baa 013d
00000040: e6a0 d3bd bfd9 ba3d 289c f93d 1a4f 83bd
00000050: ca33 c6bc 5c96 183e e30c 00bd acfa 71be
00000060: 60f0 593d 0b82 9dbd 205f d6be 3df5 eb3a
00000070: b765 503c 70fb 11bc d25b bc3e d0f6 aebc
00000080: a129 69bd ea32 863c fc92 d5bd 864c 2e3e
00000090: 6caf a23b 88f7 bf3e 6787 d0bb e6ec 0f3e
000000a0: ae58 0ebe 975a 933b d86d 9bbd e7c1 5cbe
000000b0: 5761 0ebe 18d5 84bd 4e55 14be 0412 473e
000000c0: c294 20bd d7a3 273e aad4 65bd 0614 113e
000000d0: 90c5 2fbe 9d3b 88bc ee07 8dbe e76f c6bd
000000e0: b69a c4bd 4d86 9fbe 3436 c03e d6d3 cc3d
000000f0: 6166 8e3c 3908 2bbe b0bd f43d 839a a13d
00000100: a85f d73d f1ab c93e 0b85 173d 7047 a83d
00000110: cd87 81bc 3dc2 b4bc dc9e bd3d 731d 7f3e
00000120: ecda 2d3d af88 80bb 44b2 8e3d 5e9c f9bc
00000130: 8de8 f73c 9f28 6f3d a1f4 21be 9521 b73d
00000140: 52cc e53d 1a3e d93d f8c0 ad3d 9358 783d
00000150: cf89 e13d 1b31 013e 6f31 b6bc d081 8f3a
00000160: efa3 57be c802 91bd f3d2 ac3d 9d27 8f3c
00000170: 65d3 f83d 4dca 853d 8108 b7bd cce1 06be
00000180: 555c 453e 9fb3 80be 36f3 713d 8e13 0dbe
00000190: 86c5 1c3e e4f6 25be 6dd0 843d 2a48 8e3c
000001a0: 4853 3fbe 896c cfbd 6dc0 ffbc 5a0a 32be
000001b0: 6472 02be d417 ff3d 3bd3 7abe 3a03 773d
000001c0: 77eb 8c3e 95f3 7c3d 2aab 0bbe 7c95 dd3c
000001d0: 6aa0 11be 0bc6 26bd de0d 5dbe 212e 1fbe
000001e0: 28d4 9ebd 5f45 4b3e 8cb4 b2bc 269f c3bc
000001f0: 9196 96bd a367 673c f303 723d d479 20bd

rnn.bias_hh_l0 f4 [128]
0.064109005 -0.09438527 -0.06382044 0.08883305 0.045290675 0.030928563 0.032063153 -0.1998494
-0.015233004 -0.028269298 0.1445908 0.15603757 -0.08550301 0.083433405 -0.11692496 0.11152841
-0.15739338 0.19260076 0.23319396 -0.011222481 -0.012034961 0.119715504 -0.025724746 -0.106689125
0.049113583 -0.012618043 -0.38871223 -0.055787727 -0.018571237 -0.15616468 0.4033286 0.01209515
0.011608483 -0.036035944 -0.05966833 0.16860391 -0.1241807 0.3733837 -0.10230352 0.15624881
-0.035974357 0.07420922 -0.11155392 -0.21952076 -0.036039617 -0.020960474 -0.143501 0.2413383
0.072166525 0.06722489 0.0078016967 0.10358882 -0.04514839 -0.15674508 -0.23685257 -0.044840813
0.033296026 -0.32144436 0.49713868 -0.03250464 -0.043066923 -0.17624295 0.07186668 0.017356722
5.7360387e-05 0.34192792 0.057972495 0.13333566 -0.12610997 0.0162244 0.017626673 0.1983216
-0.08396591 0.06826588 0.022188583 -0.1565401 0.12452988 0.036328252 -0.036457997 0.035709813
0.0327933 0.13137597 0.057400726 -0.01775416 0.050827906 0.15791152 -0.09655938 0.109582976
-0.16420126 -0.07547396 0.12264633 0.015586708 0.009272997 0.04454572 -0.103574075 -0.14490138
0.1999417 -0.20846796 0.10993996 -0.052027192 0.2844299 -0.184413 0.16081448 0.05085243
-0.18817236 -0.086372934 -0.07887133 -0.12988137 -0.18690702 0.15406185 -0.12692137 0.10736513
0.2102695 -0.034422603 -0.20474365 0.018765656 -0.053317454 0.0157202 -0.20031485 0.016787047
-0.1590873 0.120271124 -0.012025977 -0.011375095 -0.010455341 -0.115986235 0.0071415305 -0.06261192
00000000: 954b 833d 104d c1bd 4ab4 82bd 1aee b53d
00000010: b782 393d e65d fd3c a754 033d 52a5 4cbe
00000020: d993 79bc 0495 e7bc 9c0f 143e 50c8 1f3e
00000030: 341c afbd 22df aa3d 5a76 efbd 0269 e43d
00000040: bb2b 21be 2239 453e 66ca 6e3e 7fde 37bc
00000050: 492e 45bc 672d f53d b4bc d2bc d47f dabd
00000060: 532b 493d e9bb 4ebc 4a05 c7be ac81 64bd
00000070: b522 98bc a2e9 1fbe 1681 ce3e bc2a 463c
00000080: 8231 3e3c 6d9a 13bd c766 74bd 81a6 2c3e
00000090: 7352 febd 262c bf3e 8284 d1bd b0ff 1f3e
000000a0: d959 13bd 01fb 973d 6276 e4bd 0dca 60be
000000b0: 479e 13bd 4db5 abbc edf1 12be 6321 773e
000000c0: 0bcc 933d 34ad 893d 60a5 ff3b 6026 d43d
000000d0: 85ed 38bd c881 20be 7b89 72be 00ab 37bd
000000e0: 6a61 083d 5b94 a4be f688 fe3e 9623 05bd
000000f0: f166 30bd 0879 34be d72e 933d af2f 8e3c
00000100: 3f96 7038 2d11 af3e 9174 6d3d 2589 083e
00000110: f922 01be 08e9 843c d065 903c d114 4b3e
00000120: 52f6 abbd fbce 8b3d d5c4 b53c 0c4c 20be
00000130: 8609 ff3d efcc 143d fb54 15bd 7444 123d
00000140: 4452 063d 6c87 063e 061d 6b3d 2c71 91bc
00000150: ec30 503d 8fb3 213e edc0 c5bd 0a6d e03d
00000160: 6024 28be 1792 9abd 002e fb3d 645f 7f3c
00000170: c5ed 173c 9375 363d a51e d4bd 0761 14be
00000180: 84bd 4c3e a078 55be 3428 e13d 771a 55bd
00000190: cca0 913e c3d6 3cbe 8dac 243e a34a 503d
000001a0: 41b0 40be 4be4 b0bd 4b87 a1bd 9fff 04be
000001b0: 8e64 3fbe 64c2 1d3e adf7 01be 40e2 db3d
000001c0: e350 573e b7fe 0cbd 52a8 51be 6fba 993c
000001d0: 6763 5abd a6c7 803c 561f 4dbe fd84 893c
000001e0: c8e7 22be b550 f63d 9a08 45bc 9b5e 3abc
000001f0: e14c 2bbc 318a edbd 8003 ea3b ae3a 80bd

fc.weight f4 [2, 128]
0.28215185 -0.13114233 0.14157332 0.14833103 -0.010646891 -0.08271563 0.02533078 -0.025130494
-0.042008188 0.07430325 -0.08154131 0.064093634 -0.12872611 0.011110681 -0.025675835 -0.04266287
-0.151069 0.19252685 0.108347744 0.017749367 -0.17405742 -0.040042054 0.0073957047 0.47515568
0.19090372 -0.09359366 1.1575236 -0.21363585 0.007554359 -0.16928418 -1.2056713 0.07936174
0.13634244 -0.024811491 0.080982074 0.22851892 0.05356046 -1.1411513 -0.05953398 0.1625938
0.04981887 0.018608343 -0.07377387 0.007320359 0.14294364 0.035408925 0.1882475 -0.48823786
0.15981665 0.1966513 0.08432442 0.2130813 -0.23490717 -0.29632443 1.1858562 -0.10634898
-0.055117752 0.14770375 -0.5472105 -0.03924745 -0.16585514 -0.016454512 0.011203513 -0.19592533
-0.14361493 -1.1993902 -0.08296796 0.19340372 -0.15091617 0.017505057 0.13590363 0.0036763917
-0.026399335 0.21098472 -0.005268599 -0.23378974 -0.120858066 0.2066127 -0.16520084 -0.39158124
0.13184625 0.19004297 -0.032147467 -0.08328065 0.01208911 0.14772162 0.20429051 -0.06860905
0.035609305 -0.13327974 -0.02561752 0.16722903 0.07154872 -0.019504577 -0.24738088 -0.047411233
-0.033306688 0.3501624 -0.20946771 -0.18555088 -0.19743335 0.3001014 0.012866674 0.1884708
0.09734953 -0.055856798 -0.11890481 0.074303344 0.05057904 0.12607647 0.15387535 0.05571542
-0.12952696 -0.089494914 0.2235371 0.088956766 -0.20990098 -0.06984769 -0.046944447 -0.25315377
-0.12247413 -0.19939955 0.07565023 -0.097508475 -0.20393933 -0.011643462 -0.012810383 0.082502075
-0.16570269 0.13794906 -0.20659374 -0.11418114 -0.07737631 -0.0018223275 -0.06226358 0.104156636
-0.034495827 -0.12107173 0.14746128 -0.11760539 0.20268446 -0.0351056 -0.010271127 -0.00878773
0.023134511 -0.050905444 0.051994875 -0.025541209 0.15929015 0.0019108141 0.00070355565 -0.52429086
-0.16306487 -0.036749326 -1.1639059 0.09686343 -0.02563222 0.19392575 1.113243 -0.10175789
-0.08022154 -0.012913111 -0.056848582 -0.16711046 -0.10637775 1.2401942 0.10529303 -0.14426304
-0.12344735 -0.10407937 -0.02199104 -0.14186202 -0.29943654 0.04473823 -0.11029187 0.46004656
-0.22659355 -0.15905267 -0.13848397 -0.20341915 0.20818853 0.18769155 -1.0919864 0.10152035
0.21134634 -0.21667062 0.5693271 -0.12581457 0.101456195 -0.032181177 -0.03894502 0.17937288
-0.017595522 1.0911411 0.08285426 -0.12449679 0.087583445 -0.011291479 -0.17181495 -0.17270485
-0.060906667 -0.2442047 0.04078472 0.19630781 -6.6591274e-05 -0.2521616 0.2691761 0.37046856
-0.18734613 -0.26847395 0.19704498 0.015358702 -8.2052204e-05 -0.16513197 -0.14149623 0.20292221
0.035948288 -0.0036456662 0.080299035 -0.23682614 -0.00346281 0.06037462 0.18590209 0.09496921
0.07370725 -0.2759298 0.1112906 0.28035274 0.17712928 -0.24514908 -0.035786506 -0.26806352
-0.1401389 0.21108718 0.052031476 0.03648714 -0.08189222 -0.12705038 -0.15227598 -0.15638654
0.24071734 0.11245605 -0.29410502 -0.10987377 0.19499815 0.018113531 0.12988047 0.16554314
0.16557127 0.1740039 -0.042513806 0.07791046 0.20089625 -0.054156035 0.024787832 -0.05355876
00000000: 3576 903e 2d4a 06be 99f8 103e 17e4 173e
00000010: 4c70 2ebc d066 a9bd 7f82 cf3c 77de cdbc
00000020: c710 2cbd 4d2c 983d 21ff a6bd 8643 833d
00000030: c7d0 03be 9309 363c 2156 d2bc 43bf 2ebd
00000040: d5b1 1abe c225 453e 6ce5 dd3d 1f67 913c
00000050: 1c3c 32be 2303 24bd ab57 f23b 9b47 f33e
00000060: 447c 433e 08ae bfbd bc29 943f 5bc3 5abe
00000070: 8e8a f73b d558 2dbe 7053 9abf 6888 a23d
00000080: 5a9d 0b3e 7841 cbbc eed9 a53d dd00 6a3e
00000090: 3762 5b3d 3f11 92bf e7d9 73bd fd7e 263e
000000a0: df0e 4c3d 8670 983c c116 97bd 9fdf ef3b
000000b0: d15f 123e f308 113d f4c3 403e 50fa f9be
000000c0: faa6 233e f55e 493e 48b2 ac3d fc31 5a3e
000000d0: 818b 70be d6b7 97be 23ca 973f 7ecd d9bd
000000e0: 27c3 61bd a73f 173e fd15 0cbf efc1 20bd
000000f0: eed5 29be 9dcb 86bc f08e 373c a6a0 48be
00000100: cb0f 13be 9e85 99bf 1beb a9bd a00b 463e
00000110: c589 1abe c466 8f3c 522a 0b3e 9eef 703b
00000120: 6b43 d8bc 610c 583e 36a4 acbb 9466 6fbe
00000130: 6f84 f7bd 4892 533e 692a 29be 567d c8be
00000140: b402 073e a09a 423e 10ad 03bd 0c8f aabd
00000150: 6711 463c 5644 173e 8831 513e e782 8cbd
00000160: 10db 113d 7c7a 08be d5db d1bc 163e 2b3e
00000170: 2388 923d 10c8 9fbc 6a51 7dbe 4832 42bd
00000180: 986c 08bd 7c48 b33e b47e 56be 0d01 3ebe
00000190: f82b 4abe e4a6 993e bece 523c 7dfe 403e
000001a0: 315f c73d 19ca 64bd 5d84 f3bd 5a2c 983d
000001b0: f82b 4f3d 311a 013e 8091 1d3e da35 643d
000001c0: b7a2 04be 1c49 b7bd e9e6 643e f72e b63d
000001d0: 48f0 56be 4e0c 8fbd d248 40bd 5f9d 81be
000001e0: b7d3 fabd 652f 4cbe 82ee 9a3d 86b2 c7bd
000001f0: 79d5 50be 38c4 3ebc a4e2 51bc d9f6 a83d
00000200: f7ad 29be 8542 0d3e 4f8d 53be cdd7 e9bd
00000210: 7977 9ebd 2adb eeba 1808 7fbd 1350 d53d
00000220: 7f4b 0dbd 75f4 f7bd 1700 173e 18db f0bd
00000230: 848c 4f3e e4ca 0fbd 3b48 28bc 69fa 0fbc
00000240: 9684 bd3c 3a82 50bd 94f8 543d cc3b d1bc
00000250: f51c 233e 4874 fa3a d26e 383a ed37 06bf
00000260: 7afa 26be 7686 16bd defa 94bf 5660 c63d
00000270: a9fa d1bc 7994 463e bf7e 8e3f 7166 d0bd
00000280: 314b a4bd 8391 53bc 0fda 68bd 011f 2bbe
00000290: 94dc d9bd afbe 9e3f dfa3 d73d b1b9 13be
000002a0: f7d1 fcbd 9127 d5bd 8e26 b4bc 4744 11be
000002b0: bf4f 99be 6f3f 373d b4e0 e1bd 398b eb3e
000002c0: 2408 68be b4de 22be bece 0dbe 1c4d 50be
000002d0: 602f 553e 3732 403e 36c6 8bbf e7e9 cf3d
000002e0: 2d6b 583e e7de 5dbe 6cbf 113f 89d5 00be
000002f0: 44c8 cf3d 69d0 03bd d084 1fbd 86ad 373e
00000300: 7c24 90bc 83aa 8b3f 7faf a93d 2cf8 febd
00000310: f35e b33d e5ff 38bc 42f0 2fbe 8ad9 30be
00000320: 4579 79bd cc10 7abe e10d 273d ea04 493e
00000330: eba6 8bb8 531b 81be 73d1 893e 0eae bd3e
00000340: aad7 3fbe 6b75 89be 29c6 493e 11a3 7b3c
00000350: 7113 acb8 5b18 29be 63e4 10be d7ca 4f3e
00000360: 833e 133d 21ec 6ebb d273 a43d 8d82 72be
00000370: 50f0 62bb 614b 773d 1e5d 3e3e 387f c23d
00000380: d4f3 963d ac46 8dbe 53ec e33d 658a 8f3e
00000390: 6161 353e 5c08 7bbe df94 12bd 9f3f 89be
000003a0: 9280 0fbe 3d27 583e f51e 553d 8a73 153d
000003b0: 1cb7 a7bd 7f19 02be 3cee 1bbe cb23 20be
000003c0: 9b7e 763e 5c4f e63d ef94 96be 8005 e1bd
000003d0: 98ad 473e d462 943c 63ff 043e 2484 293e
000003e0: 848b 293e 142e 323e f522 2ebd 858f 9f3d
000003f0: bfb7 4d3e b8d2 5dbd da0f cb3c 6e60 5bbd

fc.bias f4 [2]
0.23094167 -0.18996532
00000000: f97b 6c3e 4586 42be
