detector/models/128_1_64_5_32_0.001_covert_detector_2.pth (torch, 72573 bytes, 6 tensors)

rnn.weight_ih_l0 f4 [128, 3]
000000 99 0f 04 bd 58 2a 13 bc a8 f7 41 bd a4 20 6d 3d
       -0.032241438 -0.0089822635 -0.047355324 0.057892457
000010 1a 16 a1 3c 04 86 15 3d 49 03 a3 bd 88 81 94 bd
       0.01966386 0.03650476 -0.07959611 -0.072512686
000020 69 e6 91 bd aa 49 80 3d 7a df 25 3c 2e 9d 85 3a
       -0.071240254 0.0626405 0.010124082 0.0010193938
000030 d4 ec 95 bc 2a a4 b0 3d e5 03 3e 3d 7c c7 af bd
       -0.018301405 0.08625062 0.046390433 -0.085829705
000040 1a 2c ef bb 68 ce 17 bc fa f6 2b 3d e3 f4 95 ba
       -0.0072989585 -0.00926552 0.041983582 -0.001144078
000050 68 fd 71 3d 49 5f e7 3d fb 2b 24 bb 34 af b4 3d
       0.059079558 0.11297471 -0.0025050628 0.0882248
000060 e9 38 89 bd cc f1 ad 3d 46 7c 45 bc f4 48 82 bd
       -0.06700308 0.08493385 -0.012053555 -0.06361571
000070 15 24 a8 3a c1 37 bb bd d9 d3 6c bd 4d 77 c4 3c
       0.0012828136 -0.091414936 -0.05781922 0.023982668
000080 8e 9c d7 bb c0 67 a1 3d ba 02 ff 3b c7 f0 d6 3d
       -0.006579942 0.07881117 0.0077823075 0.104951434
000090 ef c1 77 3d f5 68 ad bd c3 07 fd 3c 26 fa e8 3c
       0.060487684 -0.084672846 0.03088749 0.028439593
0000a0 69 9e 8b ba 25 07 ab 3c bf d3 0d 3d 3f fc 9d 3d
       -0.0010652068 0.02087743 0.034625765 0.07714128
0000b0 7b c0 b4 3c bd 94 ff bc 0d d9 81 bc 8a f0 0a 3d
       0.022064438 -0.031198854 -0.015850568 0.033920802
0000c0 1c 99 ae bd 67 62 00 bc 5c 6b 04 bd 93 46 24 3c
       -0.08525297 -0.007835961 -0.03232895 0.010026592
0000d0 ad bf 48 bd b9 2b 0d 3c 5c 6c c4 3d 2d 43 0b 3d
       -0.04901092 0.008616381 0.095909804 0.03399961
0000e0 6d 33 de bc 85 7c 08 3d 7e 63 20 bc 1c a5 8c 3c
       -0.027124131 0.033321876 -0.009789346 0.017168574
0000f0 90 d9 1f bd 98 b3 01 3d 63 b5 b9 3c f5 ef 59 ba
       -0.039025843 0.031665415 0.0226695 -0.00083136495
000100 20 cc 76 3c b3 52 7c bd 5f 46 7f bd ca 58 25 bc
       0.015063316 -0.061602306 -0.06232297 -0.01009197
000110 2a 24 9d bd 0a 58 f7 bd c3 dd 57 bc d8 b8 9b bd
       -0.07672913 -0.12077339 -0.013175431 -0.076036155
000120 d3 21 08 bd fc c3 08 3a 68 6b 33 3c 1c 24 64 3d
       -0.033235382 0.0005217192 0.010950901 0.0556985
000130 3c 6b 6c 3d 55 b0 58 bd 18 e2 0e bd 95 eb d6 3b
       0.057719454 -0.05290254 -0.03488359 0.0065588453
000140 35 52 54 3d 8e 22 89 3d 24 d9 84 3c c1 e2 5e 3c
       0.05183621 0.06696044 0.016216822 0.013603867
000150 16 c7 9f 3d c1 a6 ac ba 1b 6a 2f 3e 09 2f dd 3d
       0.078016445 -0.0013172255 0.1713032 0.10799987
000160 93 05 f5 ba 05 d8 33 3d f5 f5 42 3d 8c 26 94 bb
       -0.0018693678 0.043907184 0.047597844 -0.0045211967
000170 48 67 f4 bc c5 86 04 be f8 72 a7 bc ac 8a 74 bd
       -0.029834405 -0.12942035 -0.020440564 -0.05970256
000180 4d cb 6c bd e0 a5 73 bd 8d 35 3b bd 2c 89 30 bc
       -0.05781107 -0.059484363 -0.045705367 -0.010774892
000190 23 3d d3 3b 51 54 56 3d da d5 ef 3c 59 e8 2f 3d
       0.006446497 0.052326504 0.029276777 0.042946193
0001a0 28 82 b0 3d 94 40 57 bd 03 14 91 bd ca 24 10 bc
       0.08618575 -0.05255182 -0.07083895 -0.008797834
0001b0 d1 c4 a0 3c 6e 58 8b 3c 56 39 ba bc ac 4e 7e bd
       0.0196251 0.01700994 -0.022732418 -0.062086746
0001c0 ea 60 01 bd 5d 38 fd 3c f3 21 c0 3d 01 bd 80 3b
       -0.031586565 0.030910665 0.09381475 0.003928781
0001d0 84 1d 64 3d 10 8f ac 3c f3 a8 b8 bc 75 0b 70 3d
       0.05569221 0.021064311 -0.022541499 0.058604676
0001e0 39 14 6f bd fc b3 f4 bb b4 57 52 3c 52 03 b5 3c
       -0.058368895 -0.007467745 0.012838293 0.02209631
0001f0 7c 59 27 bc 93 b2 ff bc c9 af 5b 3d a3 13 69 bd
       -0.010214206 -0.03121308 0.05363444 -0.056903493
000200 fd 8b 58 bd 2e 2b 89 3d cb 01 02 3d d5 a7 ad 3d
       -0.05286788 0.06697689 0.03173999 0.08479277
000210 dd 85 06 bd 48 cd 77 bd 17 b0 c4 3c 77 f7 af 3c
       -0.032842506 -0.060498506 0.024009747 0.021480305
000220 ad 8c 23 bd 24 91 72 bd c0 f7 d2 3d 2c 94 0f 3c
       -0.03992908 -0.059220448 0.10301161 0.008763354
000230 2b f2 c3 3d e2 2e a4 3c 89 8f af 3c ad 61 d2 bc
       0.09567674 0.020041887 0.021430748 -0.025681341
000240 bb f8 21 3e 53 32 08 bc db a5 c5 3d aa 46 d2 bd
       0.1581754 -0.0083127795 0.09650775 -0.10267384
000250 59 b3 c2 bd 98 4b ec 3c 76 7a 85 3d 64 a5 c0 3b
       -0.09506864 0.02884464 0.06517498 0.005879091
000260 97 d0 b5 3d cf 9a 41 bd af ed 78 bd ae cd 88 bc
       0.08877676 -0.047266778 -0.060773548 -0.016699638
000270 a7 8d f3 bc 9f 84 ec 3c f5 fe 67 3d 33 01 12 3d
       -0.029730631 0.028871832 0.05663963 0.035645675
000280 d1 49 f3 3b c2 6b 10 bc 05 1d b0 bc 3a ca eb 3c
       0.007424571 -0.008814754 -0.021498213 0.028782953
000290 e1 64 3e bc dd a8 14 bd ec 96 c0 3d 61 5f 8e 3c
       -0.011620731 -0.036293853 0.09403786 0.017379465
0002a0 82 e9 f2 bc f0 f2 a2 3d b0 da 2a 3c 73 e6 f5 bd
       -0.02965236 0.07956493 0.010428116 -0.12006845
0002b0 0c 4d d4 3a 21 86 1f be da 2c a0 bd 11 c6 80 3a
       0.0016197278 -0.1557851 -0.07821055 0.0009824653
0002c0 8f d3 03 be 7a f6 bb bd b3 d5 cb bb d0 ff c2 3b
       -0.12873672 -0.09177871 -0.0062205433 0.0059509054
0002d0 52 eb 97 3d 23 f7 86 bd de bd 5a 3c 2e 73 04 3d
       0.07417931 -0.06590106 0.013350932 0.032336406
0002e0 c8 49 68 3c 05 03 b1 3d 4f 11 0e bd c4 51 56 3c
       0.014177747 0.08643154 -0.034684476 0.013081018
0002f0 fd cc a1 3d af a0 09 3e f0 68 6e ba 7f 7b da 3c
       0.079004265 0.13440202 -0.00090946164 0.026670216
000300 d4 72 03 bd 7c b3 b6 bd f6 f1 39 3c 44 5f a1 3d
       -0.03209193 -0.08920953 0.011349192 0.078794986
000310 c4 99 9f 3d a5 9a 16 bd 59 27 7a bc 0a 0f dc bc
       0.07793 -0.036768574 -0.01526817 -0.02686264
000320 10 5a 30 bc a0 6e fa 3b bb f9 91 3c 0e e0 4f bc
       -0.01076366 0.007642582 0.017819276 -0.012687696
000330 98 84 90 bd 08 07 87 bd 2d 81 5e 3d 22 e1 ad bd
       -0.0705654 -0.06593138 0.05432241 -0.08490206
000340 44 9c 91 bc c6 a5 4d bd ec aa 7a bd 4d 71 3e 3d
       -0.017774709 -0.050206922 -0.06119816 0.04649477
000350 ed 31 3a 3d 5f ac 7f 3d ea b4 28 3d 7a 77 59 3d
       0.04545777 0.062420245 0.041188158 0.053092457
000360 c8 b4 03 3c 2d 52 1e 3b 3f b6 55 3d b1 f2 d1 3d
       0.008038707 0.0024157867 0.052175757 0.10251368
000370 a0 1f 5a ba 66 e1 cf 3d 06 14 9c bd 2e 55 28 bd
       -0.00083207525 0.10150413 -0.07621007 -0.04109686
000380 20 c4 31 3c 9f d8 32 3c fc e0 5e bc d8 58 02 3d
       0.0108499825 0.010915904 -0.013603445 0.03182301
000390 8a 62 b5 bc 13 9e 6e bc a2 9e fd 3c c8 02 c4 bd
       -0.022141714 -0.014564055 0.030959431 -0.09570843
0003a0 8a cf 95 bd c7 35 30 3b 46 4c 5a 3d ea e5 00 bb
       -0.073149756 0.0026887523 0.053295396 -0.001966829
0003b0 b6 f1 e6 3d 47 da 0f bd 34 8f 1a 3b 5a c1 b6 bd
       0.112765715 -0.035120275 0.002358389 -0.08923598
0003c0 c4 4c 3a bd 18 cf f9 3b 7e 78 96 3d 5c 9e d2 3c
       -0.045483366 0.0076235645 0.07347201 0.025710277
0003d0 cb a9 68 bd 8c 01 c6 bc 20 8b 5c 3d ed d0 6b bd
       -0.056802552 -0.02417066 0.053843617 -0.057572294
0003e0 fb 69 7f 3d 69 fb 9d bd 23 2e 0d bd 33 5d 24 3d
       0.06235693 -0.07713968 -0.034467828 0.040127944
0003f0 8e 1d 21 3d 29 75 c4 bd de a7 9c bd a7 6c dd 3d
       0.039334826 -0.09592659 -0.076492056 0.108117394

rnn.weight_hh_l0 f4 [128, 128]
000000 9b 32 6c 3d b1 a5 2d bd 0a 2d 2b bc 1c f6 9a bc
       0.05766545 -0.042394344 -0.01044775 -0.018916182
000010 5b cb e1 bb fd 0e b1 3d 9a 9c 23 bd 0b 41 cb 3d
       -0.006890697 0.08645437 -0.03994427 0.09924515
000020 88 65 bc bd 07 e6 7e bd bf 00 66 bc 33 39 e7 3c
       -0.09199053 -0.06223109 -0.014038264 0.028225517
000030 15 ae 69 3d 8a 50 60 bd e2 09 31 3d c9 68 1d bd
       0.057050783 -0.054764308 0.043222316 -0.03843001
000040 1c a4 9c bd 52 45 b3 3d cd 10 5b bb a3 95 63 bc
       -0.07648489 0.08753456 -0.0033426762 -0.013890657
000050 de 67 7b 3d f5 53 98 bc 58 0d 9f bc 5c 3b 89 bd
       0.061378352 -0.018594721 -0.019415542 -0.06700775
000060 b8 1e 97 bd aa fd f7 bc 73 14 a6 bd 43 e1 40 bd
       -0.07378906 -0.030272324 -0.08109369 -0.047089826
000070 b9 41 33 bc b6 49 76 3d d3 50 cc 3d fa 58 4d bd
       -0.0109409625 0.06012889 0.099763535 -0.050133683
000080 f1 06 a0 3d 92 5e 44 bd 1d 37 0d 3d fd 5b db 3c
       0.07813824 -0.04794175 0.03447639 0.026777262
000090 cd e6 d2 bd ee 5c 80 bd 9b 7a 0c bc ab be c8 bc
       -0.10297928 -0.06267725 -0.008574153 -0.02450498
0000a0 c1 1f 5e 3c 57 b8 d7 3c 2e 47 67 3d e6 c0 6b bd
       0.013557375 0.026333017 0.056464367 -0.05755701
0000b0 0a 6a ad 3d 88 d9 db 3d 4e 2a 9c 3c 80 02 ab 3d
       0.08467491 0.1073485 0.019063141 0.08350086
0000c0 3f 55 26 bd 64 16 42 3d b1 76 f9 bd df 41 56 bd
       -0.04060864 0.047384635 -0.12180842 -0.052308913
0000d0 f7 00 16 3c 71 66 13 bd e9 f1 25 bd a4 21 de bc
       0.0091555035 -0.035986368 -0.040513907 -0.02711565
0000e0 0c 0b 50 bd 39 8c c8 bb a7 db 03 bd 7f 7f 47 bd
       -0.050791785 -0.0061202315 -0.0321919 -0.048705574
0000f0 6b 99 24 bd 9a 13 0f 3d 5b 44 de bc 48 97 8c bb
       -0.040185373 0.034930803 -0.027132204 -0.004290495
000100 59 5f 19 bd 62 6d 37 bd a3 cd 11 bd f2 91 7d bc
       -0.037444446 -0.04478205 -0.0355965 -0.015476691
000110 08 eb e0 3d 37 61 96 bd 5d 23 8a bd fd 1e 05 3a
       0.10982329 -0.07342761 -0.06745026 0.0005078165
000120 0a 54 78 bc a0 7f 30 bc 3f a4 02 3d 6e bf e5 bc
       -0.015156755 -0.010772616 0.03189492 -0.028045382
000130 aa 78 ba 3c 17 81 8b 3d af 30 12 3d cf b5 70 bc
       0.022762615 0.06811731 0.03569096 -0.014691784
000140 a5 35 1b 3d 12 73 d7 3b 14 17 5a 3d 51 5c f9 3d
       0.037892956 0.0065749967 0.053244665 0.12175811
000150 3a 82 08 bd e6 6e 36 bb 5e 04 ac 3d b8 2e af bd
       -0.03332732 -0.0027837097 0.083992705 -0.08553833
000160 60 49 52 3d ae 62 bb ba 32 4f 8b 3d 31 6d 83 bc
       0.051339507 -0.0014296377 0.06802215 -0.016043277
000170 29 f1 ae bb e0 ef f4 3c 48 8b 4b 3d bc 8c 01 bc
       -0.005338807 0.029899538 0.049693376 -0.007907089
000180 5a e1 b1 bd 91 1e d0 3c 92 f7 65 bd 0b f9 d4 bd
       -0.086855605 0.0254052 -0.056144305 -0.10399064
000190 a0 84 33 bc 4f 6b 4b bd 00 bb df 3c 09 bb 2a bd
       -0.010956913 -0.049662884 0.027310848 -0.041682277
0001a0 66 d3 d1 bc 67 74 ef 3d 2c 3c f8 bb 0e 35 8b 3d
       -0.025613498 0.11692124 -0.0075755324 0.06797229
0001b0 14 e3 73 3c 3f 3f a9 3b a9 fa 8e bd 4a 50 ae 3c
       0.014885683 0.00516501 -0.069814034 0.02127852
0001c0 ca d7 c7 bc 9f 03 63 3d 97 ee a6 bd 1a ea 2a bc
       -0.024394888 0.055423375 -0.08150976 -0.010431791
0001d0 b0 bc 2e 3d 17 f7 fb 3c a7 7c 8f bc 5d ea 3c 3d
       0.042660415 0.03075747 -0.017515494 0.046121944
0001e0 5a 79 62 3d 16 36 eb bc 83 40 de 3c ff 8a e6 3c
       0.05529151 -0.028712314 0.027130371 0.02814245
0001f0 68 0c e0 bc e4 98 a7 3d 73 bd 5e 3d e0 ae 9d 3c
       -0.027349666 0.081834584 0.05437989 0.019248426
000200 e4 4e 10 bd 3f be 5f 3d 76 40 2d bd 18 a0 10 bd
       -0.035231486 0.054624792 -0.042297803 -0.035308927
000210 ba 07 ac bc 91 34 46 bd 1f 7c a9 3b 74 46 18 3d
       -0.020999778 -0.048389975 0.005172267 0.037176564
000220 be a5 89 3d 8a 77 d5 bd 4f 6f 03 3d a5 9a 6d 3d
       0.06721066 -0.10423191 0.032088574 0.05800881
000230 89 54 95 3c 6a b4 b6 bc 2a 4c c5 3d 35 4f 6c bd
       0.018228786 -0.022302825 0.09633668 -0.057692725
000240 76 3d 3d bd ae 8b 3d bc 37 6b bb 3d 84 24 b7 3c
       -0.04620119 -0.011568947 0.09151309 0.02235628
000250 d6 e4 14 3c 4f 53 ee 3d 70 47 97 bc 75 4a 1f be
       0.009087762 0.116369836 -0.018466681 -0.15555747
000260 25 f8 49 3d 89 fb 8f bc fb 2e b1 3d ee 37 eb 3d
       0.049308915 -0.017575996 0.08651539 0.11485277
000270 0f fd 06 3b 49 15 f7 bc 83 3d f9 bd d4 ad ea bd
       0.0020597612 -0.030161517 -0.121699356 -0.11458936
000280 d3 79 e5 bd 7d e8 34 3d b0 89 80 3d fb 3e 46 3d
       -0.11204877 0.04416703 0.06276262 0.048399907
000290 fe c4 90 3d c9 b7 54 3d 7f 88 c9 3d 93 53 c7 3b
       0.07068823 0.051933084 0.09840488 0.006082961
0002a0 ad 17 9c bd b4 09 cf bc 9f e5 32 3d 1d e6 c3 3d
       -0.07621703 -0.025273181 0.043676015 0.09565375
0002b0 13 5e d9 bd ec 3b 62 3d 44 9d 20 3e 45 c9 19 bc
       -0.10613646 0.055232927 0.15684992 -0.009386365
0002c0 69 b9 51 3d 1f 5f 32 bc 4d a6 57 3c 53 d6 c5 3c
       0.05120221 -0.010886936 0.013162208 0.02415005
0002d0 68 dc de bc f9 79 b3 3d 04 59 9f bd 00 79 43 bb
       -0.027204707 0.08763499 -0.0778065 -0.002982676
0002e0 ef b6 22 bd 73 6f d6 3c da dd 9f bd 01 8e 8e bd
       -0.03972524 0.02617619 -0.07805987 -0.06960679
0002f0 b1 6e 6c bd 48 06 58 3d 2b 07 b6 3c e8 58 4a 3d
       -0.05772275 0.052740365 0.022220215 0.049401194
000300 a5 56 2c 3d 12 8d 21 bd ce 54 9c bd dc ee ef 3c
       0.04207482 -0.039441176 -0.07633363 0.029288702
000310 0d 26 14 3d e9 ac c7 bc 78 15 00 bd af 1c c4 3d
       0.0361691 -0.024374442 -0.031270474 0.095757835
000320 70 82 fb 3d 5e c3 0c 3b 7a 68 00 3d a9 54 ab 3b
       0.12280738 0.0021478753 0.031349637 0.005228598
000330 ca 51 bd bc a8 bc 30 bd 5a b4 d1 bb c1 bf 60 bc
       -0.02311029 -0.043148667 -0.0063996734 -0.013717593
000340 1b 95 96 3d 89 2a 6c ba 81 46 4d bd 95 6b 78 3c
       0.07352658 -0.0009009024 -0.050116066 0.015162368
000350 7a 5c 23 3c 79 af 92 bd 43 e1 6d bc 49 9f 6e bb
       0.009970779 -0.07162375 -0.014519039 -0.003641086
000360 0e f5 c0 bd 8e ff 9d 3d 3f aa f6 bd 34 58 15 3d
       -0.094217405 0.07714759 -0.120441906 0.03646107
000370 c9 b5 e2 3d 73 90 63 3c 2f 25 81 bd 38 d2 1a 39
       0.11069829 0.01388942 -0.0630592 0.00014764897
000380 4c 56 b8 3d 68 bc 33 bc dc dc a1 3d e7 3d 49 3d
       0.09000835 -0.0109702125 0.07903454 0.0491313
000390 87 61 04 bd ed bf f4 3d f8 26 02 3e 20 be df 3c
       -0.03231957 0.119506694 0.12710178 0.027312338
0003a0 17 59 b4 bd 32 d8 b9 bd c9 c0 ea 3d 65 c2 1a bc
       -0.08806055 -0.09074439 0.11462552 -0.009445761
0003b0 1d 44 3e 3d 9d d0 06 bd 7d 3f 30 3c 24 66 fc bd
       0.046451677 -0.032913793 0.010757324 -0.12324169
0003c0 05 36 50 bd db dd 0b be 68 51 3c bd af 38 9c bb
       -0.050832767 -0.1365885 -0.045976073 -0.0047674994
0003d0 0c e5 a5 bc f5 68 e9 bb a7 91 8c 3d 83 a4 b6 3c
       -0.02025082 -0.0071231076 0.068637185 0.022295242
0003e0 5c 75 52 3d ec 8c d0 bc ef 20 d6 3d 5d df bf bb
       0.051381454 -0.025457822 0.104555 -0.0058554844
0003f0 3a 6a 8b bc 7b 9b ef 3d cb be 08 3e c6 a8 74 bd
       -0.017018426 0.116995774 0.13354032 -0.059731267

rnn.bias_ih_l0 f4 [128]
000000 6c a7 ea 3b ab 34 fb bc 10 c2 3c bd 13 56 41 3d
       0.0071610715 -0.030664762 -0.04608351 0.047201227
000010 55 88 ba 3d 68 99 93 3a 6c d7 39 3d 83 12 5e 3e
       0.091080345 0.0011260929 0.045371458 0.21686749
000020 8f ef 86 bd 34 41 13 be 4f 71 ba 3c 3b 94 c3 3d
       -0.06588661 -0.14380342 0.022759108 0.09549757
000030 21 94 bf bd e5 9b b6 3d 0f 01 6e 3c fd 79 3a 3d
       -0.09354425 0.08916453 0.01452662 0.045526493
000040 eb da 87 bd 87 6b 8d 3d f3 60 07 3d 72 b7 0e 3d
       -0.06633552 0.06905275 0.033051442 0.034842916
000050 cd 29 c3 bc b8 2c 42 bd 6b 40 66 bd be 4b b4 b8
       -0.023823643 -0.04740593 -0.056213778 -8.597177e-05
000060 04 ee 32 bd bf 3a db 3a 31 9a ac 3d 59 3e 2e bd
       -0.04368402 0.0016725882 0.08427847 -0.042539928
000070 50 f1 ef 3d 31 ad e6 3d 5a f8 24 3d c1 d9 ac bb
       0.117159486 0.112635024 0.04027591 -0.0052749817
000080 62 fa c1 bd ed 40 ff 3d 2c 1f 90 3d f2 17 9d 3c
       -0.09471585 0.124635555 0.070371956 0.019176457
000090 94 83 9a bd f7 b0 b1 bd 12 79 78 3d 8e 86 9a bd
       -0.07544628 -0.086763315 0.060662337 -0.075451955
0000a0 96 f6 16 3d 95 b9 85 bd cf 78 5d bd ba ab 57 3d
       0.036856256 -0.065295376 -0.05407029 0.052654006
0000b0 03 65 27 3d 0a 3c 8c 3d 16 97 de 3d c6 bc 82 3d
       0.040867817 0.06847389 0.10868661 0.06383662
0000c0 1f eb d3 3d e9 4f f0 3c bb 41 48 3d c8 10 53 3d
       0.1034758 0.02933498 0.04889081 0.051529676
0000d0 a5 35 4e 3c 45 55 5d bd 12 fa 0a 3e ef f3 b0 bb
       0.012586032 -0.054036397 0.13571957 -0.005400173
0000e0 5d 93 01 bd d9 7e e6 bd 0b 09 2b be 0e 88 f2 3b
       -0.031634677 -0.11254663 -0.16702668 0.007401473
0000f0 7a 29 92 3d f8 59 95 bc 51 a2 da bc 0b 81 b4 3d
       0.07136817 -0.018231377 -0.026688727 0.088136755
000100 81 3d 1c bd ec 18 a6 3d 20 34 62 bd 6c fb c7 bb
       -0.038144592 0.08110222 -0.05522549 -0.00610297
000110 96 dd f4 3b 1c 35 e4 bd 16 8d 52 bd 56 3b 04 bd
       0.007472704 -0.11142942 -0.05140408 -0.03228315
000120 f4 8b aa 3d d1 8b 2c 3e 0f 43 89 3d b5 03 a5 bc
       0.08327475 0.1685021 0.067022435 -0.02014337
000130 3e cb fb bb 1f ab 1e 3c 34 ca 48 3e 3e 46 99 bd
       -0.0076841405 0.009684353 0.19608384 -0.07484101
000140 82 2d 3b 3d fe fe 41 bd 7c 87 34 bd df 90 03 3d
       0.045697697 -0.04736232 -0.04407452 0.03212058
000150 fa e5 57 bd 94 75 e8 3d 3c f8 a9 bd 40 f3 82 bd
       -0.052709557 0.11350551 -0.082993 -0.063940525
000160 b2 ad 89 3c ae f9 e2 3d d4 1b c9 bd 10 38 dd 3d
       0.016806457 0.11082779 -0.09819761 0.10801709
000170 53 8d cd 3d ec 64 87 bd a6 54 0a be 73 1d 49 3d
       0.10036721 -0.06611046 -0.13508853 0.04910035
000180 84 a8 5d 3d 65 5a b1 3d 39 6c fd 3c 20 9c 7a 3c
       0.054115787 0.086598195 0.030935394 0.015296012
000190 b4 ab 94 bd c8 35 b8 3d 7e 2f 2a 3a 28 8c 97 bd
       -0.07259312 0.08994633 0.0006492062 -0.073997796
0001a0 2d 05 b1 bb 3c d8 b0 3d 06 8c de 3d f2 44 9f bc
       -0.0054022283 0.086349934 0.10866551 -0.019442055
0001b0 57 9f 33 3c 3e 6b 83 bd af ba ab bd 07 7b 0a 3d
       0.010963283 -0.06416939 -0.083852164 0.033808734
0001c0 41 7e 91 3d 8b 07 be bc 3d 50 c8 3d 42 d5 d7 bc
       0.07104159 -0.023196956 0.09780929 -0.026346806
0001d0 bd e2 d0 bc 61 57 c0 bc 93 f9 c3 bd 91 dc 69 bd
       -0.025498742 -0.023479166 -0.09569087 -0.057095114
0001e0 2f 86 6d 3c 92 66 56 3b 23 c8 c7 ba 09 7a 9f bc
       0.014497324 0.0032714945 -0.001524214 -0.01946737
0001f0 98 96 8c bd 2b e4 1b 3e 9f 2c 3d 3d 24 3f 90 bd
       -0.06864661 0.15223758 0.046185132 -0.07043293

rnn.bias_hh_l0 f4 [128]
000000 1a 88 50 3c 49 aa e3 3d 47 49 9b 3c 97 a6 b1 3d
       0.012727762 0.11116464 0.01895584 0.086743526
000010 68 5e 7c 3d 88 e9 00 bd 2c 5f 48 3e a3 88 bb 3d
       0.06161347 -0.031472713 0.19567555 0.09156921
000020 62 25 35 bd 80 ce 39 be 63 eb 5b bd 50 8b 00 3d
       -0.044225104 -0.1814518 -0.05369128 0.03138286
000030 c8 ef c4 3b 33 a6 fc 3d 9f 07 05 3c 69 d6 d2 bd
       0.0060100295 0.123363875 0.008119493 -0.10294802
000040 6a d7 df bd f2 bd 45 bc bf 0d 12 bd d8 af dc bd
       -0.10929759 -0.012069212 -0.03565764 -0.10775727
000050 38 93 97 3d 58 ce c6 3d 75 3b e6 bd df 1f b7 bd
       0.074011266 0.09707326 -0.11241809 -0.08941626
000060 13 e2 1a bb e0 dd ad 3c e9 14 ec 3c 09 dc d4 ba
       -0.0023633286 0.021223962 0.028818564 -0.0016239892
000070 16 ec 8e 3d 46 a5 ca 3d 4a b3 7c 3d ef 4a 68 3c
       0.069786236 0.09894805 0.06169442 0.014178022
000080 bf 6c 25 3d eb 0c d0 3d bf d4 d7 bc f1 83 eb bb
       0.04038691 0.10158714 -0.026346562 -0.0071873595
000090 4e 45 25 3d 69 ef bd 3c ee 16 61 3d 80 ab 17 3d
       0.040349297 0.023185449 0.054953508 0.03702879
0000a0 f2 ba ad bd fc d8 2f bd 6f bc be bd 5e ad c8 3d
       -0.084829226 -0.04293154 -0.093132846 0.09798692
0000b0 57 34 90 bd 94 ee 01 3d e6 61 ea 3c 44 9b c9 3c
       -0.07041233 0.031721666 0.028611135 0.02461017
0000c0 1a 43 36 3d d1 2c f0 3c 98 d0 b2 3d b0 7a a4 bc
       0.044497587 0.029318245 0.08731192 -0.020078033
0000d0 9c a3 90 bc 93 9f 21 3d f2 a3 27 3c da 50 cf bc
       -0.01765614 0.039458822 0.010231959 -0.025307108
0000e0 5f 75 0d 3d 0b 3f 48 be 0a d6 41 bd ea a2 0e bd
       0.034535762 -0.19555299 -0.047323264 -0.034823336
0000f0 63 84 27 3d 63 e9 9a 3b de e1 aa 3d ac da 48 3e
       0.04089774 0.004727529 0.08343862 0.19614667
000100 3f 6c 8a 3d 1c fa 23 3c 02 e9 d3 3c 85 ae 91 3a
       0.067589276 0.010008361 0.025867943 0.0011114633
000110 98 ab ad bb 3d 83 7c bc 8e 19 9d 3d fd 68 ee 3a
       -0.0052999966 -0.015412149 0.0767089 0.0018189248
000120 ec b1 3b 3d eb 21 59 3d b7 f8 41 3b e9 1a 1f 3d
       0.045823976 0.053010862 0.0029597708 0.038844023
000130 fb 69 87 bc f7 a4 b2 bc ba 74 ab 3d d8 1d ed bd
       -0.016530028 -0.021807177 0.08371873 -0.11577958
000140 ec ee 3f 3d bb d7 00 bd 4c 17 44 3d 70 7a dd b8
       0.046858713 -0.031455737 0.04787378 -0.00010560907
000150 61 6d d0 bd 4e 20 87 3d 02 bf a3 bc 51 8c 34 bc
       -0.10177112 0.065979585 -0.01998854 -0.011019782
000160 3f 54 ce bd 4d 58 aa 3d 87 52 7d bd 38 87 14 3e
       -0.100746624 0.08317623 -0.061846282 0.14504707
000170 d6 0f c4 bc 1d fa 11 bd 64 4e ef bc a5 77 e7 bd
       -0.023933332 -0.035638917 -0.029212184 -0.11302117
000180 aa ea 6f 3d 55 e9 1d bd fc 00 c4 bc bd 5f cc bb
       0.058573402 -0.0385526 -0.02392625 -0.006236999
000190 ff 9d 99 3c ab 74 ff 3c e9 53 02 3e e2 fa 64 3c
       0.018752096 0.031183561 0.12727322 0.013975831
0001a0 d6 a6 ab 3d d1 8d 91 3d c3 bf 46 3d a8 14 0b 3d
       0.08381431 0.071071275 0.048522722 0.033955246
0001b0 de 9a b9 3d 04 bd 97 3d 78 d2 4d bd 6a 28 c9 3c
       0.09062742 0.07409099 -0.050249547 0.024555404
0001c0 88 8b 80 bd de a7 c7 3c 4b 5c ab bc fb e8 c7 3c
       -0.062766135 0.024372038 -0.020918032 0.024403086
0001d0 ff 91 f1 bc 30 ac 2b 3c 5d 31 8a bd 33 75 c0 3d
       -0.029488562 0.010478064 -0.067476965 0.09397354
0001e0 56 76 85 3d 68 c4 5e 3d d9 18 73 3d 63 35 be bd
       0.065167114 0.054386526 0.05934987 -0.092875265
0001f0 90 d8 68 bd 29 63 57 3e cb 8d b1 bc b9 c1 69 bb
       -0.056847155 0.2103392 -0.021674057 -0.0035668446

fc.weight f4 [2, 128]
000000 ca 5c 6e b9 91 0f 3f 3d 4b 62 a0 3c c9 11 09 bd
       -0.00022732015 0.046645705 0.01957812 -0.033464227
000010 7e 25 49 3d 37 8a 2e 3b d0 9a df be 44 fc e2 be
       0.04910802 0.0026632675 -0.436728 -0.44333088
000020 8f af 2c bc 11 13 18 3f 72 e8 bf 3d cd 61 7f bd
       -0.010539903 0.59404093 0.09370507 -0.06234913
000030 36 5b 88 bd d0 36 28 bf 1a 6a bd bc 11 39 0a bc
       -0.06658022 -0.6570864 -0.023121882 -0.008436457
000040 b3 a2 1e 3d 8a 89 c9 bb ec 4f 42 3d c3 52 95 3d
       0.03872938 -0.006150429 0.0474395 0.07291176
000050 9c 5a 5b bc 0c 48 9b bb e8 89 98 3c b9 d8 95 3d
       -0.013388302 -0.0047388133 0.018620446 0.07316727
000060 ca 55 62 bc ac 16 8a 3b c4 2b c7 3c a0 7a 97 bd
       -0.013814399 0.0042141285 0.024312861 -0.07396436
000070 20 1d b2 bd eb eb d8 bd 35 e5 43 bd 57 10 64 3d
       -0.086969614 -0.10591873 -0.04782601 0.055679645
000080 05 e7 e7 3c 66 c6 f4 bc b8 be de bc 86 67 63 bd
       0.0283084 -0.02987976 -0.027190551 -0.05551865
000090 40 1b a4 3c 38 aa 8e ba 45 0c 56 bb f4 42 57 3d
       0.020032525 -0.0010884469 -0.0032661122 0.052554086
0000a0 ee c0 95 3c e4 17 ea bd 9f c7 b9 3c c5 55 a9 3d
       0.018280473 -0.11430338 0.022678195 0.08268312
0000b0 f3 8d 81 bd ca c5 40 3c 3d 6d 25 bd 81 ac de bd
       -0.06325903 0.011765907 -0.04038738 -0.10872746
0000c0 1b cc 88 bd 4d bc b7 3b f5 d7 63 bc 07 5a 51 bd
       -0.06679555 0.005607164 -0.013906469 -0.051111247
0000d0 d7 05 e6 bd e4 70 85 3b 73 ac f3 bd 66 3b 06 3d
       -0.112315826 0.0040722955 -0.118981265 0.03277149
0000e0 de 11 e1 bc ea 2b be 3e 40 23 28 3f 1a aa e8 3c
       -0.02747434 0.3714288 0.6567879 0.028401423
0000f0 9d 08 35 bd e1 c4 8e bd 38 ab c1 bb 69 aa ee be
       -0.044197667 -0.069711454 -0.0059103034 -0.46614388
000100 7e 98 9e bd 5c 4a 74 bb d4 cd de 3b 72 67 15 3c
       -0.07743929 -0.0037275767 0.006799439 0.009118902
000110 63 e8 86 bd 84 69 d2 3d e9 48 8f 39 26 d6 a5 bc
       -0.06587293 0.10274032 0.00027329408 -0.020243715
000120 bf 7f d2 bd 18 6a 0f bf 82 ff a2 3a ed ba 73 ba
       -0.10278272 -0.5602126 0.0012435766 -0.00092975685
000130 7a b4 a2 bd ca b3 e9 bd 50 44 71 be 3b 31 07 3d
       -0.079445794 -0.11411245 -0.23561215 0.033005934
000140 4c 6d 16 bd 78 12 48 bd 3c eb 77 bc e1 fe 9c 3c
       -0.036725327 -0.04884574 -0.015131768 0.019164504
000150 b0 2f e4 3c 4e 46 5b 3a 9e 34 99 bc 77 89 50 3b
       0.02785477 0.0008364663 -0.018701848 0.0031820217
000160 7f 20 9c 3d e6 31 e2 3c e9 2f 03 bd b7 12 81 be
       0.07623386 0.027611684 -0.032028113 -0.2520959
000170 e8 16 2f 3a 75 92 3b bc 57 7e 9e 3d 23 74 8c bd
       0.00066791335 -0.011448492 0.07738941 -0.06858089
000180 99 b9 da 3d 2b 72 0c bd 4e d3 b2 3c 19 2f 82 3c
       0.10679931 -0.034288567 0.021829274 0.015891599
000190 ff 94 2e bd 83 27 3d 3b cd 31 42 bd 9e 90 37 3d
       -0.042622562 0.0028862662 -0.047410775 0.044815652
0001a0 76 a4 7b bd 8c 9a a3 bd 67 3d c4 3d 89 5f 7c 3c
       -0.06143614 -0.07988462 0.09582024 0.015403637
0001b0 1f 6a 83 bd 44 b4 c3 3d f0 9b f9 bb 3e 79 0c 3d
       -0.06416725 0.09555867 -0.007617466 0.034295313
0001c0 c0 d2 5f 3c ac da 89 bd c3 f1 c7 bc 74 67 4b bc
       0.013661087 -0.067311615 -0.024407273 -0.012414802
0001d0 d8 ad 51 bd 21 c3 cf bc 8a fc 2a 3e bc 05 73 3c
       -0.05119118 -0.0253616 0.16697899 0.01483291
0001e0 d9 d2 53 bd ab 53 d2 3b ed 2a 4a 3d 48 0b 2c bd
       -0.051714752 0.0064186654 0.049357343 -0.042002946
0001f0 2d 74 16 3d 74 cc fb be c3 94 7a bd b8 f0 38 bd
       0.036731888 -0.49179423 -0.061177026 -0.045151442
000200 c3 81 64 bd e9 1c 68 3d e2 68 df bb c0 8f 1b 3d
       -0.055787813 0.056668196 -0.006817923 0.037978888
000210 a2 55 be 3a 7c 62 db bc 94 2d 12 3f 2a 84 cb 3e
       0.001452137 -0.02678036 0.57100797 0.3974927
000220 a2 ec a4 bd d5 d2 1b bf db b1 a8 3c f9 e4 f8 bc
       -0.080529466 -0.6086858 0.02059262 -0.03038262
000230 09 94 77 bb 8b 5b 1a 3f 0d f7 5b bd 92 18 86 3b
       -0.0037777445 0.60295933 -0.053702403 0.0040922845
000240 63 7d 98 bd 34 dd 1f ba 29 04 c0 3c b2 07 14 3d
       -0.074457906 -0.00060983305 0.023439484 0.03614015
000250 77 8b 83 3d 23 04 bb 3b 27 02 85 3c 70 91 02 3d
       0.06423085 0.0057072802 0.016236378 0.03187698
000260 f7 bb d9 bd 85 c5 61 bd 12 c7 22 bd 7e 72 cd bc
       -0.106315546 -0.05512001 -0.03974063 -0.025079008
000270 c1 44 80 3e e6 27 78 3d d8 66 7c 3b 9c 85 a3 bc
       0.25052455 0.060584925 0.0038513448 -0.01996117
000280 a2 27 df 3c 07 95 05 bd 04 f6 9c bd 09 ce 8a bc
       0.027240578 -0.032612827 -0.07664111 -0.016943948
000290 af 6e 61 bc 84 60 58 bd 04 28 80 3d dc fc 8a bc
       -0.013759299 -0.05282642 0.062576324 -0.016966276
0002a0 3f f0 90 3d 25 5c 4e bd 21 8f f8 3c db e3 12 3c
       0.07077073 -0.050380845 0.030341687 0.008965458
0002b0 1e 8a 7c bc 05 ba 8f 3d 24 f4 29 bd fa 69 97 3c
       -0.015413789 0.07017902 -0.041492596 0.01848315
0002c0 5f 12 de 3d 3e 9f 0f 38 d9 c3 8e bc 15 20 59 3d
       0.10843348 3.4242163e-05 -0.017427372 0.05300911
0002d0 12 07 8f 3d c7 f8 8f 3a 9c cd 2f bc a3 da 24 3c
       0.069837704 0.0010984176 -0.010730173 0.010061893
0002e0 fd 3d 1f bc fa 9f b7 be 1a 81 25 bf 9b d6 b5 bd
       -0.009719369 -0.3586424 -0.6465012 -0.08878823
0002f0 75 3e ea bc fd a7 93 bb ec 2c 8b 3c 70 c9 05 3f
       -0.028594235 -0.0045061097 0.016989194 0.52260494
000300 70 d6 99 bc 5c 22 7e 3c 88 80 8f 3d b0 bd a9 3d
       -0.01877901 0.015511122 0.07006937 0.08288133
000310 ba 26 1b 3d 2b 59 40 3d 5e 18 d1 3c e0 cd 76 3b
       0.03787873 0.046960037 0.025524314 0.0037659332
000320 c2 6a d1 bc 43 79 08 3f d5 4f b6 3d c3 39 98 bd
       -0.025563601 0.5331003 0.089019455 -0.07432892
000330 4a 65 aa 3c 80 10 49 bc f3 1b 13 3e bd 5c 23 be
       0.020800252 -0.012272 0.1436613 -0.15953346
000340 14 53 4d 3d 6f ee df 3c 0a 70 d6 3c a2 ac f0 bc
       0.050128058 0.027335374 0.026176471 -0.029379193
000350 b4 6b aa 3d ea 58 83 3d 34 a0 8e 3c 7e e9 17 bc
       0.08321324 0.064134434 0.017410375 -0.0092719775
000360 53 f5 53 bd 5b a9 18 bd 9d 5b dc bc 06 4b 93 3e
       -0.05174763 -0.037270885 -0.026899153 0.28768176
000370 a2 f8 c0 bb 91 6d 85 3b 04 31 44 bd c1 17 ee bc
       -0.0058890143 0.004071899 -0.047898307 -0.029064061
000380 b7 e6 06 3c 73 aa ab ba fa a3 a1 3b 4e f6 6f bd
       0.008233718 -0.0013097062 0.0049328776 -0.058584504
000390 1e 66 58 bd 13 86 0e bd 76 eb a2 3d 23 b5 54 bc
       -0.05283176 -0.034795832 0.07955067 -0.0129826395
0003a0 ce 7c 4e bd e7 48 b3 3a e2 11 34 bd 92 28 8d 3d
       -0.05041199 0.0013678343 -0.043962367 0.06892504
0003b0 a5 69 fc 3c e1 a1 f4 bc 7d b2 d5 bd 92 31 f2 3c
       0.030812094 -0.029862346 -0.104344346 0.029564653
0003c0 9a 9d 88 3d e4 c5 1c bd d9 16 5b bd e3 74 41 bc
       0.06670685 -0.03827466 -0.053488586 -0.011807653
0003d0 e3 a3 a6 bb 49 71 11 bc c9 3a a0 be 60 b6 f0 bd
       -0.005085455 -0.008877107 -0.3129485 -0.11753535
0003e0 f3 1d b9 3d 6a b3 d6 bb 36 18 95 3d c9 b7 68 bc
       0.090389155 -0.0065521495 0.072800085 -0.014203974
0003f0 f7 34 88 3c f7 88 09 3f 10 cf 2c 3d 28 9b dc bc
       0.016626818 0.53724617 0.042189658 -0.026929453

fc.bias f4 [2]
000000 96 da aa 3c 76 00 ae bd
       0.020856183 -0.08496182
