detector/models/16_1_16_5_256_0.001_covert_detector_4.pth (torch, 4925 bytes, 6 tensors)

rnn.weight_ih_l0 f4 [16, 3]
0.11959333 -0.027154654 0.30746695 0.0010526202 -0.02843122 0.12049331 0.22934797 0.028667284
0.13486622 0.09769984 -0.02826745 0.035529315 0.18418953 0.029921047 0.22256911 -0.07499764
0.030710218 0.17671034 -0.420296 -0.016585382 -0.47308192 -0.01538794 0.026330123 0.08913895
-0.32004023 -0.006881875 -0.33718374 0.0066509633 0.024519572 0.28042752 0.027683523 -0.014783316
0.04529237 0.0073853126 0.029114766 0.33772355 -0.36872983 -0.0076178997 -0.67903876 0.5817971
0.008881268 0.43389654 -0.23908804 -0.0240563 -0.16109262 -0.087104395 -0.028791385 -0.11458913
00000000: 59ed f43d 7073 debc 4f6c 9d3e 13f8 893a
00000010: 97e8 e8bc 32c5 f63d 32da 6a3e a7d7 ea3c
00000020: 5f1a 0a3e db16 c83d 2491 e7bc 3087 113d
00000030: 2e9c 3c3e fc1c f53c 28e9 633e 5d98 99bd
00000040: ff93 fb3c 8ef3 343e 0a31 d7be 11de 87bc
00000050: cb37 f2be b31d 7cbc 45b2 d73c 7b8e b63d
00000060: 50dc a3be 5a81 e1bb 59a3 acbe 53f0 d93b
00000070: 45dd c83c 3294 8f3e 8ec8 e23c b935 72bc
00000080: 7e84 393d 7e00 f23b 1782 ee3c 1aea ac3e
00000090: 28ca bcbe 939f f9bb 7cd5 2dbf a8f0 143f
000000a0: bd82 113c b027 de3e 7fd3 74be b811 c5bc
000000b0: 77f5 24be ca63 b2bd e9db ebbc b5ad eabd

rnn.weight_hh_l0 f4 [16, 16]
-0.020220093 -0.42567372 0.08688914 0.12188718 0.12823786 0.42739794 -0.3692825 0.2947919
-0.07485994 0.38070497 -0.29877093 0.11549822 0.013881466 0.50095266 -0.2341666 -0.2943431
0.20525187 0.15634498 -0.27409124 -0.21086678 -0.13587907 -0.30440465 0.37505636 0.056826677
0.42269176 -0.48903522 0.55854625 -0.0138618285 0.0084528765 0.15528901 0.061739914 -0.54602385
-0.13290079 0.38105536 0.26674297 0.5151887 0.48316547 -0.35280398 -0.14128023 -0.29732433
-0.16350462 0.19646206 -0.40885386 0.45397094 0.0077338545 0.11228402 -0.41274408 0.4261381
-0.16853662 0.61363804 -0.2718698 -0.12974139 -0.3948963 -0.349081 0.13704158 -0.58560157
0.04600723 -0.14726287 0.15403597 -0.54921585 0.3628338 -0.19595991 0.25061342 0.22975075
-0.18855843 -0.06648713 -0.45622694 0.11430769 -0.1803318 -0.12929481 -0.18512541 -0.09624552
-0.27936023 0.49965784 -0.101695456 -0.07433628 0.309821 0.24776587 -0.17764913 0.23192695
0.11473488 -0.11395125 0.573568 0.48189738 0.59914935 -0.025210695 0.113396965 0.42088562
-0.09103358 0.53480023 -0.18922728 0.23432241 0.50338584 0.47750157 -0.61079645 0.47727388
0.12927136 -0.36521646 0.23407245 0.22245346 -0.17060977 -0.3767476 0.17845796 -0.11163908
-0.17994547 0.23903632 -0.08525928 -0.25319374 -0.10018958 -0.27912462 0.02864596 0.08199696
0.14448722 0.041645903 0.42689395 0.59691346 -0.011806792 -0.4389866 -0.023374168 0.015644297
-0.500361 0.3181571 -0.5632946 0.28893852 0.3995655 0.37743142 -0.21340144 0.6037054
0.5498723 -0.79361093 0.67104185 0.3898346 -0.006025134 -0.49890533 0.6332865 0.18901566
0.0045854575 0.29934043 -0.27971435 0.08175791 0.31459868 0.15505439 0.32506022 0.4756154
-0.31523678 0.4123214 0.024454692 0.11056665 -0.14626226 -0.41360465 -0.35586992 -0.30708855
-0.25306785 0.27438873 0.26679778 -0.048024267 0.2776616 0.2748925 0.4098759 -0.27195808
0.21458282 -0.17213653 -0.1010844 -0.43503067 0.06848847 0.21103658 0.37093252 0.08688347
-0.027391195 -0.18127093 -0.19443847 0.41103196 -0.027541483 -0.27612302 0.066173 -0.32544824
-0.089549154 -0.059664648 -0.32121915 0.17974102 0.061992943 -0.12109954 0.033020858 0.13629109
-0.13371524 0.42960757 -0.4446092 -0.2978731 0.3725086 0.54173183 -0.09910107 0.33715513
0.34128577 0.27499938 -0.9067546 -0.6986141 -0.822908 -0.9616706 0.7887374 -1.0259976
0.4107174 -0.6005069 0.798232 -0.93983024 -0.041261427 -0.92823905 0.6901876 -0.9462896
-0.5210778 0.28613514 -0.15501155 0.70563805 -0.66628224 -0.62214893 -0.7830022 -0.28194794
-0.9366932 0.6972908 0.50313914 -0.5765221 0.35461885 0.2869015 0.74606836 0.32553887
0.28977513 -0.33957446 0.37922406 -0.165903 0.36466917 0.63365304 -0.29801092 0.016493108
-0.27108523 0.021531137 0.2313659 0.25308445 -0.32441217 -0.058745787 -0.61325204 -0.31727326
0.21938848 0.52642775 -0.50797844 -0.24229954 -0.6103704 -0.7817801 0.2267366 -0.37522233
0.008852123 -0.12311152 0.27108675 -0.6364306 0.6136248 0.020055847 0.6657205 -0.10008531
00000000: 9ca4 a5bc e8f1 d9be eff2 b13d fc9f f93d
00000010: c950 033e e7d3 da3e 9912 bdbe f7ee 963e
00000020: 2b50 99bd c3eb c23e 81f8 98be 558a ec3d
00000030: 176f 633c 6f3e 003f 5fc9 6fbe 24b4 96be
00000040: 8c2d 523e e618 203e b055 8cbe 76ed 57be
00000050: e223 0bbe edda 9bbe 6307 c03e 17c3 683d
00000060: 0e6b d83e d362 fabe e3fc 0e3f b91c 63bc
00000070: ef7d 0a3c 1504 1f3e fee2 7c3d 38c8 0bbf
00000080: 2517 08be b019 c33e 8992 883e 68e3 033f
00000090: 7761 f73e b9a2 b4be c4ab 10be e53a 98be
000000a0: c16d 27be 5a2d 493e 4b55 d1be e16e e83e
000000b0: 466c fd3b 2af5 e53d 3153 d3be c62e da3e
000000c0: dd94 2cbe 6217 1d3f 8532 8bbe edda 04be
000000d0: d92f cabe bfba b2be a154 0c3e fce9 15bf
000000e0: 1472 3c3d 14cc 16be 9bbb 1d3e 6999 0cbf
000000f0: 5ac5 b93e b7a9 48be 6750 803e c843 6b3e
00000100: 7615 41be 682a 88bd 9496 e9be 261a ea3d
00000110: e6a8 38be dc65 04be 8491 3dbe 5f1c c5bd
00000120: 4e08 8fbe 27d3 ff3e b545 d0bd 9f3d 98bd
00000130: dca0 9e3e 56b6 7d3e a7e9 35be 427e 6d3e
00000140: 1ffa ea3d 465f e9bd 5ad5 123f 41bb f63e
00000150: da61 193f a986 cebc ab3c e83d 527e d73e
00000160: d06f babd abe8 083f ccc4 41be 37f2 6f3e
00000170: e5dd 003f 167b f43e 285d 1cbf 3e5d f43e
00000180: b65f 043e a7fd babe b0b0 6f3e d7ca 633e
00000190: 54b4 2ebe 10e5 c0be afbd 363e 08a3 e4bd
000001a0: a043 38be f0c5 743e 6b9c aebd 9ca2 81be
000001b0: 3230 cdbd 6ce9 8ebe efaa ea3c 06ee a73d
000001c0: 75f4 133e e594 2a3d d891 da3e 52cf 183f
000001d0: 4671 41bc dac2 e0be 2f7b bfbc 7828 803c
000001e0: a917 00bf 7de5 a23e 1334 10bf c0ef 933e
000001f0: d993 cc3e b13e c13e e885 5abe 708c 1a3f
00000200: 6ec4 0c3f 162a 4bbf 66c9 2b3f 6798 c73e
00000210: 7d6e c5bb 8570 ffbe 101f 223f 528d 413e
00000220: 9b41 963b 2643 993e b836 8fbe b170 a73d
00000230: 1413 a13e 94c6 1e3e 4b6e a63e dd83 f33e
00000240: b766 a1be ca1b d33e 3555 c83c c570 e23d
00000250: c6c5 15be fdc3 d3be 9534 b6be b63a 9dbe
00000260: 1c92 81be ae7c 8c3e b899 883e 18b5 44bd
00000270: a929 8e3e b6be 8c3e 41db d13e 173e 8bbe
00000280: 99bb 5b3e 8f44 30be 5705 cfbd 57bc debe
00000290: af43 8c3d f919 583e deea bd3e f6ef b13d
000002a0: 8063 e0bc 169f 39be e11a 47be c872 d23e
000002b0: ad9e e1bc ff5f 8dbe b685 873d 27a1 a6be
000002c0: 8c65 b7bd eb62 74bd d676 a4be 080e 383e
000002d0: 50ec 7d3d 0903 f8bd e140 073d e48f 0b3e
000002e0: a6ec 08be 86f5 db3e d1a3 e3be d382 98be
000002f0: 72b9 be3e f0ae 0a3f 80f5 cabd 999f ac3e
00000300: 02bd ae3e b8cc 8c3e 1221 68bf 60d8 32bf
00000310: 19aa 52bf 0b30 76bf b2ea 493f e453 83bf
00000320: 8d49 d23e d2ba 19bf ef58 4c3f b798 70bf
00000330: be01 29bd 13a1 6dbf 22b0 303f 0940 72bf
00000340: 5b65 05bf 4e80 923e 59bb 1ebe b2a4 343f
00000350: 7991 2abf 2745 1fbf d572 48bf 7b5b 90be
00000360: 20cb 6fbf a681 323f bacd 003f f496 13bf
00000370: 9a90 b53e c1e4 923e 56fe 3e3f 08ad a63e
00000380: 685d 943e b4dc adbe a829 c23e 7ae2 29be
00000390: ebb5 ba3e 1637 223f e394 98be 8e1c 873c
000003a0: afcb 8abe 1162 b03c 2feb 6c3e 4994 813e
000003b0: 5a19 a6be 6c9f 70bd 16fe 1cbf a471 a2be
000003c0: 60a7 603e f8c3 063f e00a 02bf 5f1d 78be
000003d0: 3c41 1cbf be22 48bf a42d 683e 241d c0be
000003e0: 7f08 113c e521 fcbd e2cb 8a3e 1eed 22bf
000003f0: 8416 1d3f 294c a43c a96c 2a3f 87f9 ccbd

rnn.bias_ih_l0 f4 [16]
0.09993522 0.02522869 0.1681429 0.08487362 0.1820358 -0.017139759 -0.17730643 -0.0587197
-0.450283 0.466966 -0.089176536 0.20872763 -0.6991074 0.5189166 0.20902947 -0.44408593
00000000: d6aa cc3d 66ac ce3c a72d 2c3e 38d2 ad3d
00000010: 9867 3a3e ae68 8cbc d18f 35be 1184 70bd
00000020: 7e8b e6be 2b16 ef3e 30a2 b6bd b2bc 553e
00000030: b4f8 32bf b8d7 043f d20b 563e 3b5f e3be

rnn.bias_hh_l0 f4 [16]
0.077994496 -0.24144305 0.32642832 -0.047807492 0.1270102 0.30028895 -0.30949354 0.23749712
-0.7643323 0.5358379 0.22011413 0.36870974 -0.5444307 0.50251025 0.100288995 -0.18942551
00000000: 94bb 9f3d d93c 77be 9d21 a73e cad1 43bd
00000010: f60e 023e 79bf 993e f075 9ebe 7232 733e
00000020: 48ab 43bf ac2c 093f 9965 613e 86c7 bc3e
00000030: cf5f 0bbf 83a4 003f 5164 cd3d c3f8 41be

fc.weight f4 [2, 16]
-0.18825139 0.11641176 -0.106068015 0.23830569 -0.1602529 0.0779907 -0.065301426 0.19708629
0.20750105 -0.113931485 -0.1084071 0.029394774 0.42706105 -0.32400525 0.06326589 0.20471968
0.18969785 0.013379472 -0.038785536 0.06747254 -0.19357657 0.10003749 0.05608732 0.2659818
-0.022306917 -0.18746413 -0.018342754 0.08604451 -0.2408026 0.03210877 0.1884252 -0.0019817585
00000000: f9c4 40be 4a69 ee3d 303a d9bd 6806 743e
00000010: 5619 24be 97b9 9f3d c1bc 85bd fdd0 493e
00000020: 287b 543e e954 e9bd 8b04 debd 4fcd f03c
00000030: bfa7 da3e 04e4 a5be 8c91 813d 09a2 513e
00000040: 2740 423e 9335 5b3c 95dd 1ebd 0b2f 8a3d
00000050: f038 46be 75e0 cc3d d1bb 653d c42e 883e
00000060: ffbc b6bc 99f6 3fbe 8b43 96bc 1b38 b03d
00000070: f594 76be 7c84 033d 89f2 403e 64e0 01bb

fc.bias f4 [2]
0.53322566 -0.42808127
00000000: 7a81 083f 782d dbbe
