detector/models/16_1_32_5_32_0.001_covert_detector_2.pth (torch, 4913 bytes, 6 tensors)

rnn.weight_ih_l0 f4 [16, 3]
00000000: 89f6 55bf 662c 3cbc a8e3 1ebf 50e8 7b3e
00000010: 905c 2d3d 0795 e33d 21bb c0be 58fd 09bd
00000020: 1706 1dbe 3b18 3e3e 9949 7e3c 0d68 d83e
00000030: 7402 cfbe 31cc 1dbd a0fc 83be 36b7 8cbe
00000040: 12f0 32bd 0d7c 853c 2d34 32be f200 07bd
00000050: 72e5 27be 114d 313d 9478 aabc 8ecb 793e
00000060: 3236 de3d 85e3 933c d049 ce3d fbb1 ca3a
00000070: c6a6 0cbd a273 b5bd 0f91 9dbc b4d9 0cbd
00000080: 9a43 a13d 3261 4c3e c029 40bd 1aae dfbc
00000090: 6447 8abe 611e 913c 30eb aabd b995 b73c
000000a0: 5dab 18bd f5ed 893c fc2f 693e 7471 b93c
000000b0: 4aac 783e c005 dfbe 6e77 e63c a51f c1be
-0.8357931 -0.011485195 -0.62066126 0.24600339 0.042324603 0.11112409 -0.37642768 -0.033688873
-0.15334354 0.1856393 0.015520477 0.42266884 -0.4043156 -0.03852481 -0.25778675 -0.2748353
-0.04368598 0.016294504 -0.17402716 -0.032959886 -0.1639612 0.043286387 -0.02080945 0.24394056
0.10850181 0.018052826 0.10072672 0.0015464419 -0.034338735 -0.08859946 -0.019234208 -0.034387305
0.07874222 0.19958952 -0.046914816 -0.027304698 -0.27007592 0.017714681 -0.0834564 0.02241026
-0.0372728 0.0168371 0.22772211 0.022637106 0.24284473 -0.43559074 0.02813312 -0.37719455

rnn.weight_hh_l0 f4 [16, 16]
00000000: 75c4 a93e 33c7 9cbf b1dc 47be c626 263f
00000010: aef3 60be 9491 a33f d6e0 f4be 7725 0c3f
00000020: f26c b5bf c136 623e 5eeb dcbe f5a8 03bf
00000030: 0ca5 593f c764 2fbf 6c1a d0bd b423 813f
00000040: d481 82bd 11dd 1e3d 34b9 943e 08da 76bd
00000050: 1451 67be 3a47 68bf c198 bcbe b701 a33e
00000060: bd44 8dbe 1bfe 033f 45ab 0ebe c426 5f3d
00000070: ea4f bb3d 211b d33e 6157 293f 7e43 81be
00000080: 129d f03d fd14 4fbf 2c32 34be 301a 2d3e
00000090: 692e d63d a6f9 5d3f 552b 223f 602c 3a3d
000000a0: be27 0fbf 5ae7 6e3e 1b5c dfbe 8deb 173f
000000b0: b55e 813e f15d d7be 3f32 003e 98be a0bd
000000c0: ad95 96bf 6a27 d83e 4319 84bf 9dd0 673e
000000d0: 5233 2f3d 7e41 c8bd b110 033f ec7d 40bf
000000e0: b862 7e3f 76eb 0cbf 67c1 723f be50 6d3f
000000f0: a407 2ebf f132 c2bd b1b9 62be 3487 8ebf
00000100: 7a82 643e 447d 963c 2a15 8fbe 855d 28bf
00000110: 9bca 693e a42c d8bc 6d0b 723e 00b4 37bd
00000120: b0b9 013d 3b55 193e f638 12be e211 46be
00000130: 10ff bd3e fe54 a23c 2154 babd b0b5 d33d
00000140: 569c 5abe 16d8 05bd bce8 07bf ddda b13d
00000150: 36be f93d cc57 753d 9c5f 953e f625 b1be
00000160: ecc6 9d3d 42d2 07bf 3434 003f 0a96 a8bd
00000170: 2511 febd 518b 97bd 1292 4ebe b3aa 5c3e
00000180: 9de6 153f bfc9 99bd 35eb 823b 6576 23bf
00000190: 6d80 0c3f 9d93 f13e f5f9 f13d 11da 8abe
000001a0: 45cb 123d b35d 1abf 04dd b1bd 25e7 03be
000001b0: 20ae 423e db92 10bd ff68 cfbe 5ba6 88bd
000001c0: 925a cdbe 722d 32bf 3c3c e43e 3fc2 ed3e
000001d0: e6e0 dabe 0581 013f 432d eb3a 7712 cfbe
000001e0: 1d39 91be 46a3 8bbe 7527 103f f93f 1a3e
000001f0: 2518 ebbe ff38 dfbb a387 2cbc 7033 b3be
00000200: 8e66 443e ffe8 2c3f a8e0 bebc d3d4 733d
00000210: 2e4a 6abd 9ba1 33bf 9e37 a2be 9952 ee3e
00000220: 95ab 23be 91e8 893e d5ae 12bd 098b 49be
00000230: 8eed 403e cc81 5e3e c9dd a73e 5ffc e2bd
00000240: c3e2 9f3e 89d1 fbbe 5a66 4c3d 6f8a 3cbd
00000250: cb93 03bd 0b55 0e3f 811c adbc 5f9e 0e3f
00000260: 8ce8 31bf dc30 81be ab99 a33d 58e5 65be
00000270: 8d07 f63d 1caa 113f 0b2c ee3d 97a2 d13d
00000280: 2742 803e 6d79 94be 92d6 c73e a3b6 14bf
00000290: ef95 f63e fecb 1bbb 9045 cc3e 6db8 cfbe
000002a0: 3c88 0cbe e753 c2be 2a6c 64bc 7e51 353f
000002b0: 4e14 dc3c 1e66 10be fbed 54be c252 db3d
000002c0: 5ce2 0e3e d94f cebd d64a 14bd 78df bcbe
000002d0: 76e1 283f 86c0 223e 3f36 833e 5bc3 ecbd
000002e0: 19d1 003d dec7 7ebd 60d2 8fbd 66c3 963e
000002f0: 11f6 2abe 2e14 47be 88b1 bebe d5a5 35bd
00000300: b63a 0cbf 3421 37bf ed57 3ebf 5d67 2d3f
00000310: c00e 2ebf ba6d 723e 035a 8abf c4f0 2e3f
00000320: cd76 fdbe ed9e 2bbe cfa6 23bf d3c4 9ebf
00000330: 33d7 89be a83f 44bf 74bc 25bf bc23 503f
00000340: dca4 a23e 7c93 05bf c4ff 2f3f f071 0abe
00000350: afd2 2fbe 1d9d 233f cf3a ecbd 1a13 fa3e
00000360: d106 3fbf a260 e23c 2e24 92bd 7246 77be
00000370: 2b39 303e 4324 163d e7d8 f13d 276b 6f3d
00000380: 16c3 10bf 6ef5 10bf d4dc e83c 3fff c53e
00000390: adb7 02be 39e1 243f 3e78 823e a1c1 d13e
000003a0: 8c61 d0be 22e7 243c 2fd4 ec3e df25 0b3e
000003b0: 28dc 423e c8f5 87be 2049 babd 03ba f3be
000003c0: 19f9 13bf b65a 9d3e 9f98 d63c d989 333f
000003d0: dbb8 15bf 6403 39bf 411a 10bf abb4 97be
000003e0: e63a 0d3f 2554 a73c 6994 413e 2761 663d
000003f0: e869 893e 5bf9 31bf 8c16 1c3f c5c6 dd3d
0.33157697 -1.2248291 -0.19517781 0.64902914 -0.21967956 1.2778802 -0.47827786 0.54744667
-1.4173872 0.220912 -0.4314832 -0.5142968 0.85017467 -0.6851315 -0.101612896 1.0089021
-0.06372419 0.038785044 0.2904755 -0.060266525 -0.22589523 -0.90733683 -0.36835292 0.31837246
-0.27591506 0.5155961 -0.13932522 0.05448033 0.09146102 0.41231635 0.66148955 -0.25246805
0.11748709 -0.808914 -0.17597264 0.16904521 0.10458071 0.8670906 0.6334737 0.045452476
-0.55920017 0.23330441 -0.43624958 0.59343797 0.25267568 -0.4206386 0.12519167 -0.07848853
-1.1764427 0.4221757 -1.0320209 0.22638173 0.042773552 -0.09778117 0.51197344 -0.7519214
0.9936938 -0.55046785 0.9482636 0.9270133 -0.6798041 -0.094823726 -0.22141148 -1.1135011
0.22315398 0.018370278 -0.27945834 -0.657677 0.22831194 -0.026388474 0.23637171 -0.044849396
0.031671226 0.14973919 -0.14279541 -0.19342759 0.3710866 0.019815918 -0.090980776 0.103373885
-0.213487 -0.03267678 -0.530895 0.08684323 0.12194483 0.059898183 0.29174507 -0.34599274
0.07703957 -0.530552 0.50079656 -0.08231743 -0.12405614 -0.07399619 -0.20172909 0.21549492
0.5855501 -0.07509183 0.003995324 -0.6385253 0.5488346 0.47182932 0.11815254 -0.27119496
0.035838384 -0.60299224 -0.086847335 -0.12881143 0.19011736 -0.035296302 -0.40509793 -0.06672355
-0.40108162 -0.69600594 0.44577205 0.4643726 -0.4274971 0.50587493 0.0017942566 -0.40443775
-0.28363886 -0.27273005 0.56310207 0.15063466 -0.45916858 -0.0068122144 -0.010530385 -0.3500018
0.19179747 0.67543024 -0.023300484 0.059529137 -0.05719965 -0.70168465 -0.31683058 0.46547392
-0.15983422 0.26935247 -0.035811264 -0.19681944 0.1884062 0.21729201 0.32786396 -0.11083292
0.31227693 -0.491833 0.049902298 -0.046030458 -0.03212337 0.55598515 -0.021131756 0.55710405
-0.69495463 -0.2523259 0.07988294 -0.22450769 0.12013159 0.5690019 0.11629494 0.1023609
0.2505047 -0.2899889 0.39030892 -0.5809118 0.48161265 -0.0023772712 0.39896822 -0.40570393
-0.13723844 -0.37954637 -0.013941804 0.7082747 0.02686515 -0.14101455 -0.20793907 0.10709144
0.13953537 -0.100738235 -0.03620418 -0.36889243 0.65969026 0.15893754 0.25627324 -0.115606986
0.03144941 -0.062202327 -0.07022548 0.29445952 -0.1669543 -0.19441292 -0.3724482 -0.044347603
-0.54777086 -0.7153504 -0.74352914 0.67735845 -0.67991257 0.2367467 -1.0808719 0.6833613
-0.495047 -0.16759844 -0.63926405 -1.2403816 -0.26921996 -0.7665963 -0.6474068 0.81304526
0.31766403 -0.5217817 0.6874964 -0.13520026 -0.17170213 0.6391161 -0.11534654 0.48842698
-0.74619776 0.027633969 -0.07135807 -0.24147967 0.17209308 0.036655676 0.11808949 0.058451798
-0.5654768 -0.56624496 0.028425612 0.386713 -0.12765379 0.6440616 0.25482363 0.4096804
-0.40699422 0.010064872 0.46255633 0.13588665 0.19029295 -0.26554704 -0.09095979 -0.47602853
-0.5780197 0.3073327 0.026195822 0.70132214 -0.5848519 -0.722708 -0.5629006 -0.29630026
0.55167997 0.020425865 0.1890427 0.056244995 0.26838613 -0.6952111 0.60971904 0.10828928

rnn.bias_ih_l0 f4 [16]
00000000: 13fa 82bf e529 fc3d 5a52 51bc 068b 1f3f
00000010: 0a28 d1be 2306 9ebc e9e3 333e 4dbe 5e3e
00000020: 5ea7 db3e 8dd6 b6be 085c 473e fe5c 343e
00000030: ffdb 78be 6801 d53d 0ec5 e13e 1288 20bf
-1.0232567 0.12312678 -0.012775982 0.6232151 -0.4085086 -0.019290036 0.1756741 0.21752281
0.4290113 -0.35710564 0.19468701 0.17613599 -0.24302672 0.10400659 0.44095653 -0.62707627

rnn.bias_hh_l0 f4 [16]
00000000: d653 77bf 5b8c 873e 0d36 7ebc a0da 253f
00000010: fecd 07bf c153 afbe c242 40be 2691 b43d
00000020: 0f7b e43d b378 60bc 0905 9c3d 0ddf c03e
00000030: 350c a0be 20dc 9d3e f98e f63e ed4a f3be
-0.966123 0.2647427 -0.015515816 0.6478672 -0.53048694 -0.34243587 -0.18775466 0.08816747
0.11156284 -0.013700652 0.07618148 0.37670174 -0.31259313 0.30832005 0.48155954 -0.475181

fc.weight f4 [2, 16]
00000000: f957 893e 9455 2c3c 45c6 d0bb 1000 dcbd
00000010: 4f8f bb3b b87f 12be 9f1a 233e fef2 76bd
00000020: 9c6a 723b 2062 88bd a8bb a43c 00e8 56be
00000030: c342 7fbe a929 c4bb 1c67 883d ac31 61be
00000040: a94c 343d fe66 b9bc 9d1c cfbd 73d3 0c3b
00000050: b8e2 2ebd 0b53 38bd aa40 13bd a311 cfbd
00000060: 2357 493c e6c9 00be 3b7f 31be 5447 88be
00000070: 8cf1 53be 6f9d fbbc 8b1b e13b f2a6 b0bd
0.2682493 0.01051845 -0.006371292 -0.107421994 0.005723871 -0.14306533 0.15928124 -0.06029033
0.0036989814 -0.06659341 0.020109013 -0.20986938 -0.24927811 -0.0059864116 0.066602916 -0.21991605
0.04401842 -0.022632118 -0.101128794 0.0021488338 -0.042696685 -0.04500107 -0.03595034 -0.10110786
0.012288841 -0.12577018 -0.17333691 -0.2661692 -0.20697612 -0.030714719 0.0068697385 -0.08625592

fc.bias f4 [2]
00000000: 3bb0 333f 472d 92be
0.7019078 -0.2855017
