detector/models/16_1_16_5_16_0.001_covert_detector_2.pth (torch, 4913 bytes, 6 tensors)

rnn.weight_ih_l0 f4 [16, 3]
00000000: 7843 66be eda7 44bd a699 7fbe cc6e 87be
00000010: a21b 0dbd 60a6 c9be 9da2 54be be90 40bd
00000020: 3690 af3c eb96 bfbd 4fa0 0d3d 2d7a 2a3e
00000030: aebd dcbe 19ab bfbc 3991 55bf 317a 7e3e
00000040: 6753 243d 0384 6a3e 81be acbb d259 103d
00000050: 5456 513e 8bc7 783e f056 193d ac36 2d3e
00000060: be08 93be 4a8b fdbc dff3 dcbe 8f23 cebc
00000070: eb30 0f3d c6c8 3c3e 4f86 873e 6e30 5d3d
00000080: 4bb8 6f3e af08 bdbe 2508 0abd 939d d4be
00000090: f204 b8be 270e 8dbd dc80 92be a860 08be
000000a0: 460d 15bd 2110 44be 9150 e4be 8125 d5bc
000000b0: b211 edbe 350e 82be 5b97 02bd 07f1 c8be
-0.22486675 -0.04801171 -0.24960956 -0.2645172 -0.03445018 -0.39384747 -0.20765157 -0.047013037
0.02143107 -0.09354957 0.03457671 0.16648169 -0.43113464 -0.023397015 -0.8342472 0.248513
0.0401186 0.22901921 -0.0052717333 0.03524191 0.20443088 0.2429487 0.037436426 0.16915387
-0.28717607 -0.030950207 -0.4315481 -0.02516344 0.03495876 0.18435964 0.26469657 0.054001264
0.23410146 -0.36920688 -0.033699173 -0.4152647 -0.35941273 -0.06887465 -0.28613937 -0.13318121
-0.03638961 -0.19146778 -0.44592717 -0.02601886 -0.46302563 -0.25401464 -0.031882625 -0.3924639

rnn.weight_hh_l0 f4 [16, 16]
00000000: 1012 213e 693f 693e 0770 2f3e 1ea1 0cbe
00000010: 94b9 c93d 14af 91be 551b 34bd 2e03 f4bd
00000020: 4e46 083f cbf6 69be a4f1 9cbe a1ed 1e3f
00000030: 1adf 803e caa2 50be 0321 75bc f301 22be
00000040: 7794 1d3e 4adc 22be 2300 a8be fdca 57bf
00000050: dc51 803e 8c4e e9be dcfb 43bd 13a9 b63c
00000060: 67f4 5f3f e4a3 183e e99f 603e 17ab d53e
00000070: ac4d 8c3e b4d3 9fbe 048d f1bc 2b04 b4bd
00000080: 74cf 613d ef86 f63e de4d 983e 88c9 703d
00000090: 560d bd3d ac8a 663d 7e68 50bf 5879 e9be
000000a0: a05f 003e 5158 12bf f8eb 43be 8d9e 933e
000000b0: fa9e 273f 1d17 c13d 3c35 8e3e 99ba c03d
000000c0: 3b43 d93d 3f1e 8e3e 130a a7bd 9cae b03e
000000d0: d513 cf3e c97e 4e3f cbcb 003f 9287 493f
000000e0: 380b a7be 9f83 46bc 998b db3e 19d6 06bf
000000f0: ef45 a0be 2f4e 733e dc7f 283d 4aee b43d
00000100: c69c 173f f97f b5be c55d ab3c 7409 d4be
00000110: fc20 003e 2277 17bf 93ce 983e f93d 98be
00000120: f10e 373f 6902 6c3e 2919 ca3e 6000 c23e
00000130: 4dbb 8fbe 5b6c 65be a533 89be 60c1 e3bd
00000140: b434 00bd 6332 d63d 4315 37bf bbc3 8dbe
00000150: 2414 1b3e 2946 9a3e a6e5 d53d 7b7c 2a3f
00000160: 179f 82be 7c99 a53d 361f cd3e a15e b6be
00000170: 0ea3 3abf e0a6 bdbe 92c9 c53c 61cd 22be
00000180: 537e 45be 2b64 2f3e 5740 813e fe74 03be
00000190: 65b8 bdbe e276 813e b787 8f3e 530f 303f
000001a0: 436b 81bf b2d0 4dbd 74f1 2d3f 4cf5 01bf
000001b0: 525c 6bbe f662 223e 166a 0bbe 8cd8 c63c
000001c0: 4f98 c33e 49f6 c3bd cd08 efbd bc56 9fbe
000001d0: 1dfa c2be 23f8 d8bd 89df 28bd 51d3 8c3e
000001e0: 7818 1abf 2e37 c93c a347 103f d43d e2be
000001f0: 3cd8 1bbf b0f8 59be 62a4 adbe 90ce 27bf
00000200: 765b 95bb a390 d6be f085 233e 7a27 fe3e
00000210: 07ef f73e e930 91be 8382 3e3e 2a0b a6be
00000220: 4386 9c3e 37ec db3e 2569 ddbd f33f 1fbe
00000230: 760a 6a3f 5234 373e e6b3 893e 375a 473f
00000240: 923a 6ebe 5124 20bf 50ee c43e f7ab e03e
00000250: 7186 cdbe b122 94bd d09a 033f ed7b 233f
00000260: ef3d 0abf 70ef d6bd 0c4d 1c3f ffc0 43bf
00000270: 7c08 71be 008a 973d 22c7 2fbd f972 843e
00000280: 69dd a1bd 7436 85be 8ac8 83bc 69f4 8abe
00000290: 0faf 22bf 0d33 8cbe c4a0 0c3e 4f7c 283e
000002a0: 6a1f 16bf a588 b8bd afec 0f3e 3f7c ecbe
000002b0: f511 c1be 48d5 94be 47c1 87be 559b 8abe
000002c0: 0195 9dbe 0c52 a5be 3b67 983c 4ea2 8a3d
000002d0: 2f65 7c3d 86a4 8cbe f7bf 583e 6db6 cabe
000002e0: 35df 463f dcc4 173e 0f68 3c3e 8d17 b53e
000002f0: 3ca9 673f 1514 0dbf d20e 113e be93 e03e
00000300: 8b4a 84bc b81a b7bd b0d7 f6bd 9b42 053e
00000310: f17a 9e3e 30eb 983d 7fd0 81be 4e95 64bd
00000320: 180e f93d 0f3d 0cbe 5248 9cbe 84e8 993e
00000330: d2f3 003f 494e 5e3e 41bb 203f e9c7 0b3f
00000340: 91b6 043f 24ba a53e 7f99 023e 9f5d 0abc
00000350: 9e94 6e3d 74a2 2b3d 10b4 08bf 49e6 bc3c
00000360: 2389 8d3e 8417 02bf 9991 bebe 9e65 583e
00000370: 2406 d4bb 49d2 22bd 5259 893c ecd5 9a3e
00000380: 393e 2b3f 7cdc b43e b9e5 89be bf07 0dbf
00000390: cdac 193f 9b5b db3e f199 27bf f384 ec3e
000003a0: d69a de3c e76f 35bf 2f21 e13e 7288 403f
000003b0: 3e0a 26bf 2458 a53b 7e5c ef3e 8e87 8bbe
000003c0: 125a 433f 3a7b f93e d495 cd3d 86b3 28bf
000003d0: fd5b 243f db2c f63e efa1 e0be c416 593f
000003e0: 387c 8ebe ae78 37bf e054 143f a92b 303f
000003f0: 7dba cbbe c6a1 8e3e 84c0 2b3f 26fd e63d
0.15729547 0.22778095 0.17132579 -0.13733336 0.09849849 -0.28453887 -0.04397138 -0.11914669
0.53232276 -0.2284805 -0.30653107 0.6208134 0.25170213 -0.20374599 -0.014961484 -0.15821056
0.15388666 -0.15904346 -0.32812604 -0.8429411 0.25062454 -0.4556774 -0.047847614 0.022297418
0.87482303 0.1490627 0.21936001 0.41732094 0.2740301 -0.31216204 -0.029486187 -0.087898575
0.055129483 0.4814982 0.29746908 0.058785945 0.09231059 0.05628459 -0.8140944 -0.4560039
0.12536478 -0.5716601 -0.19132984 0.28831902 0.65476954 0.09428237 0.2777499 0.09410591
0.10608526 0.2775745 -0.081562184 0.34508216 0.40444818 0.8066221 0.50310963 0.7872249
-0.32625747 -0.012116342 0.42879942 -0.5267044 -0.31303355 0.23760293 0.04113756 0.088345125
0.5922359 -0.35449198 0.020918736 -0.41413462 0.12512583 -0.5916616 0.29845104 -0.2973478
0.71507174 0.23047794 0.3947232 0.3789091 -0.28072587 -0.22404616 -0.26797214 -0.11120868
-0.03130026 0.10458829 -0.7151682 -0.27688393 0.15144402 0.30131653 0.104441926 0.6659619
-0.25512 0.080859154 0.40062875 -0.3561907 -0.7290505 -0.37041378 0.024143968 -0.15898658
-0.1928647 0.17128055 0.252444 -0.12837598 -0.37054744 0.25286013 0.2803323 0.6877338
-1.0110859 -0.050247855 0.67946553 -0.5076492 -0.22984436 0.15858063 -0.13614687 0.02427318
0.3820214 -0.095684595 -0.116716005 -0.3112086 -0.38081446 -0.10594203 -0.041228805 0.27504972
-0.60193586 0.024562445 0.5635931 -0.44187796 -0.6087682 -0.21286273 -0.33914477 -0.65549564
-0.004558022 -0.41907224 0.15969062 0.49639493 0.4842455 -0.28357628 0.18604474 -0.32430393
0.30571184 0.42953655 -0.1081107 -0.15551738 0.9142221 0.17891052 0.26895064 0.7787203
-0.2326453 -0.62555414 0.38463068 0.438812 -0.40141633 -0.07233179 0.514081 0.6386097
-0.54000753 -0.10494888 0.61055064 -0.76466364 -0.23538393 0.07399368 -0.042914517 0.25868967
-0.07903559 -0.26018107 -0.016086835 -0.27139595 -0.6354837 -0.273827 0.13733202 0.1645367
-0.58641684 -0.09010438 0.14055131 -0.46188542 -0.37709013 -0.2906897 -0.26514646 -0.27071634
-0.30777743 -0.3228916 0.018603912 0.067692384 0.061619934 -0.2746927 0.21166979 -0.39592305
0.77684337 0.1482119 0.1839907 0.3536953 0.90492606 -0.5510877 0.1416581 0.43862718
-0.016148826 -0.08940643 -0.12052858 0.13013689 0.30953172 0.074667335 -0.25354382 -0.05580645
0.12160891 -0.13695167 -0.30523926 0.30060208 0.5037204 0.21709551 0.62785727 0.54601914
0.51841074 0.32368577 0.12753867 -0.008445173 0.0582472 0.041902974 -0.53399754 0.023059027
0.2764369 -0.5081713 -0.37220457 0.21132514 -0.0064704586 -0.039751325 0.016766224 0.30241334
0.6689182 0.35324466 -0.26933077 -0.55089945 0.600293 0.42843327 -0.6546927 0.46195182
0.02717344 -0.70873874 0.4397063 0.752082 -0.6485938 0.0050459076 0.46750253 -0.27251858
0.7630931 0.48726827 0.10038343 -0.6589893 0.6420286 0.48081097 -0.43873546 0.8480036
-0.27829146 -0.7166852 0.5794201 0.6881662 -0.39790717 0.27857798 0.6709063 0.11278753

rnn.bias_ih_l0 f4 [16]
00000000: 6f70 8bbe c915 8fbe d314 b8be ca8f 513e
00000010: 64df 0ebf bfc0 9dbd 7dea b63e 0042 cb3e
00000020: e698 11bf 2f2e a03e fee5 ca3e 32bb 27bf
00000030: 96d2 93bd 90c8 68bd 67a5 52bf 1cfb 30bf
-0.27234218 -0.27946308 -0.35953388 0.20465007 -0.5580962 -0.07702779 0.35725775 0.39698792
-0.5687393 0.31285235 0.39628595 -0.6552001 -0.072179005 -0.056831896 -0.82283634 -0.6913316

rnn.bias_hh_l0 f4 [16]
00000000: d77e 0dbf 8473 f0bd 9e80 79be f874 393d
00000010: eb5b 6fbf a780 6f3e 9293 8e3d f094 7c3e
00000020: ee18 6fbf 13f8 15be f764 933e a6bc 12bf
00000030: be78 61bd 3e34 543e 3a27 37bf 391d c6be
-0.5527167 -0.11740783 -0.2436547 0.045277566 -0.9349963 0.2338892 0.069617406 0.2466619
-0.93397415 -0.14645414 0.28787968 -0.57319105 -0.05504679 0.20723054 -0.7154423 -0.3869417

fc.weight f4 [2, 16]
00000000: ef03 0cbe 7c3a 023e 583e f13d a1d3 753c
00000010: d09e 263d 3574 753d 284b 4c3e c510 fa3d
00000020: d4ca 4dbd 8b73 2b3d 1da1 443d 7af5 29bc
00000030: f690 143e 4efe 16bd edeb 2bbc d35d 363e
00000040: 856f 2ebe 58b7 d73d c66a 823d 493b a53c
00000050: 8958 ab3c f722 e13d 7ec6 7a3e 0d3e 573e
00000060: 87c8 ecbd fbab c23d 8fc0 fc3d 8c35 dcbc
00000070: 593c f53d fb20 2cbd e536 aebd bf9c 0a3e
-0.13673376 0.12717623 0.11779469 0.01500407 0.0406788 0.059925277 0.19950545 0.1221023
-0.05024226 0.041858237 0.048005212 -0.010373468 0.14508423 -0.036863618 -0.010493261 0.17809229
-0.17034729 0.10533017 0.06368022 0.02016987 0.02091624 0.10992997 0.24489781 0.21019764
-0.11561685 0.09505459 0.12341415 -0.026881002 0.11974401 -0.04202364 -0.08506564 0.13536356

fc.bias f4 [2]
00000000: a1d7 ee3d ff0c fbbe
0.11662222 -0.49033353
