detector/models/16_1_16_5_8_0.001_covert_detector_5.pth (torch, 4901 bytes, 6 tensors)

rnn.weight_ih_l0 f4 [16, 3]
-0.029790988 -0.16668826 -0.3153384 -0.15936847 -0.17222774 -0.4353719 0.0034624836 0.1400138
0.14579621 -0.2988797 -0.20826873 -0.19279861 0.49059203 0.14780493 0.6490177 0.6577911
0.1496316 0.74044675 0.012334012 0.1760307 0.4247962 0.35003203 0.18717226 0.2905451
-0.38282508 -0.17754066 -0.28780308 -0.23815718 -0.16008417 -0.45730478 0.36697435 0.1704729
0.44249037 -0.4415083 -0.11841438 -0.55900717 -0.0031072332 0.16063014 0.31879207 -0.24777152
-0.2100557 -0.44312486 0.42478997 0.30814055 0.4669942 0.29120982 0.1626122 0.30899873
00000000: 3b0c f4bc 54b0 2abe 0974 a1be 7d31 23be
00000010: 785c 30be 11e9 debe d6ea 623b c75f 0f3e
00000020: 9a4b 153e c306 99be 6644 55be 006d 45be
00000030: e12e fb3e 2d5a 173e 0626 263f ff64 283f
00000040: 0739 193e eb8d 3d3f 9914 4a3c 6441 343e
00000050: e37e d93e 6637 b33e 16aa 3f3e 54c2 943e
00000060: a601 c4be 38cd 35be ed5a 93be 7adf 73be
00000070: 1bed 23be da23 eabe 10e4 bb3e 7390 2e3e
00000080: 198e e23e 600d e2be 3d83 f2bd 181b 0fbf
00000090: b9a2 4bbb 3a7c 243e b738 a33e d1b7 7dbe
000000a0: d718 57be 43e1 e2be 127e d93e 99c4 9d3e
000000b0: dd19 ef3e 7419 953e d083 263e 1535 9e3e

rnn.weight_hh_l0 f4 [16, 16]
0.4340153 0.18396896 -0.36972427 0.47274777 -0.18975276 0.020847708 -0.22341742 -0.45754206
-0.122725524 0.67067754 -0.42026612 0.41281366 0.07691452 0.7153128 -0.38771287 -0.40712503
0.25559947 0.55748886 -0.36107448 0.67783713 -0.15170106 -0.18041195 0.478026 -0.37711272
0.4109344 0.30915436 -0.5650379 -0.16118148 -0.4409256 0.83794874 -0.5122507 -0.2709079
-0.270374 -0.3061842 0.09802347 -0.016299479 0.22115037 0.9107194 -0.5775815 0.29825962
-0.49794215 -0.0836983 0.3197641 -0.1587677 1.1302075 -1.2855872 1.2076402 0.9105957
0.30073518 0.181346 -0.1629115 0.25118852 -0.1421049 -0.15303423 -0.38029712 0.037444506
0.13935255 0.82519794 -0.8871179 0.5756769 0.20072898 0.40810347 -0.5552 0.1446305
-0.06552962 -0.78101945 0.18961318 -0.3897695 0.024199512 0.4927526 -0.7763661 1.068295
-0.3694175 -0.33333898 0.31129307 0.27141386 0.9373067 -0.61447704 0.4658912 0.18894151
-0.6640321 -0.88537365 -0.28882128 -0.3546825 0.45853195 0.53599674 0.1998884 0.33620512
-0.45095596 -0.6236492 0.6754305 0.40289956 -0.44517276 0.26505604 -0.03691709 0.44928417
-0.92182106 -0.6154821 0.114724815 -0.6194986 0.41747445 0.08652538 0.24022236 0.312817
0.0692248 -0.38849822 0.20050421 -0.7491697 0.10519892 0.06655544 0.09127316 0.137646
-0.14273462 -0.31454805 0.39332166 -0.883512 -0.10242784 0.22885008 0.22509535 0.17036243
-0.16055627 -0.29601845 0.24277945 0.096891016 1.1418118 -0.54279834 0.17968018 0.41104972
0.62770236 0.037245747 0.061130315 0.51118374 -0.21500753 -0.2893696 -0.61083347 -0.37494254
-0.00039882396 0.8653453 -0.8107819 0.4225824 -0.04004 0.22600612 -0.22001363 0.10394902
-0.13084303 0.059193753 -0.10219101 -0.04947762 -0.57140523 -0.40168858 -0.2832506 0.1959619
-0.27983114 0.5244709 -0.9993422 0.9788925 -0.30488104 0.4388046 -0.7102533 -0.13873433
0.46044233 -0.18403655 0.1986619 0.17631164 0.712399 0.7412787 0.22026932 0.38076088
0.1436488 0.16978043 0.47937867 -0.8332165 0.5608232 -0.69256496 0.5878621 -0.23858353
-0.15899597 1.0103568 -1.2085214 -0.5701091 -1.1107084 -0.9958217 -0.057808585 -0.94792587
-0.58176404 -0.7026149 0.41360325 0.33472747 -0.60023177 0.84769607 -0.7949688 -0.09303185
-0.24384752 -0.5185888 0.09664678 -0.9524139 -0.34342867 0.37268394 0.5443144 -0.5922494
-0.40963298 -0.5028913 -0.0021515528 -0.20259207 0.488394 -0.75861216 0.4206344 0.97528964
-0.16589177 -0.15713197 -0.080917746 -0.006262465 -0.38091102 -0.8403715 -0.30939075 -0.11572633
-0.060813956 0.6266596 -0.5794089 0.3179152 -0.04467339 0.6218824 -0.7956501 -0.25615278
0.074359536 0.17972203 -0.046001595 -0.3425457 0.57077295 0.5466653 0.22891985 0.50133675
-0.25171173 0.13118596 0.68571967 -0.49481323 0.0044083367 -0.27466318 0.7598771 0.16367914
-0.30811104 -0.30282778 -0.028888535 -1.0036925 0.5186902 0.2656479 0.08042041 -0.13910261
-0.8419983 -0.9759876 0.98795396 0.21138732 -0.686106 -0.5514434 0.42986435 0.0065571503
00000000: 4137 de3e 5c62 3c3e 804c bdbe ff0b f23e
00000010: 8c4e 42be d0c8 aa3c 89c7 64be f442 eabe
00000020: 8557 fbbd 86b1 2b3f 1f2d d7be 505c d33e
00000030: 5c85 9d3d bd1e 373f 4d82 c6be b172 d0be
00000040: efdd 823e 97b7 0e3f c1de b8be bc86 2d3f
00000050: 8657 1bbe e9bd 38be d3bf f43e eb14 c1be
00000060: fe65 d23e 7b49 9e3e 53a6 10bf c20c 25be
00000070: 00c1 e1be cf83 563f dd22 03bf 71b4 8abe
00000080: 766e 8abe 2dc4 9cbe 87c0 c83d 7c86 85bc
00000090: 3e75 623e e824 693f 62dc 13bf 7cb5 983e
000000a0: 46f2 febe 046a abbd 1fb8 a33e 0094 22be
000000b0: a4aa 903f 1f8e a4bf f493 9a3f cd1c 693f
000000c0: f6f9 993e c4b2 393e 46d2 26be c89b 803e
000000d0: f283 11be 01b5 1cbe 4eb6 c2be 695f 193d
000000e0: 6fb2 0e3e 2c40 533f 291a 63bf 905f 133f
000000f0: e68b 4d3e f0f2 d03e 9621 0ebf 051a 143e
00000100: 6534 86bd e4f0 47bf f529 423e de8f c7be
00000110: 0e3e c63c 124a fc3e eebf 46bf e4bd 883f
00000120: 4a24 bdbe 68ab aabe ce61 9f3e c2f6 8a3e
00000130: 55f3 6f3f 5e4e 1dbf 4b89 ee3e e279 413e
00000140: 02fe 29bf d9a7 62bf 62e0 93be f298 b5be
00000150: b3c4 ea3e 1537 093f 8baf 4c3e 1423 ac3e
00000160: b3e3 e6be 79a7 1fbf 03e9 2c3f da48 ce3e
00000170: afed e3be 6db5 873e 6036 17bd 9308 e63e
00000180: 77fc 6bbf 3c90 1dbf d8f4 ea3d 7697 1ebf
00000190: 36bf d53e 3834 b13d dafc 753e 8d29 a03e
000001a0: bbc5 8d3d 3de9 c6be fa50 4d3e 96c9 3fbf
000001b0: 8872 d73d 384e 883d 6ced ba3d 13f3 0c3e
000001c0: 0629 12be 710c a1be 7561 c93e d82d 62bf
000001d0: b0c5 d1bd ad57 6a3e 657f 663e 7d73 2e3e
000001e0: dd68 24be bb8f 97be 2d9b 783e cc6e c63d
000001f0: e426 923f d5f4 0abf 15fe 373e 1c75 d23e
00000200: 1ab1 203f ff8e 183d c863 7a3d f0dc 023f
00000210: ef2a 5cbe 4128 94be 955f 1cbf 78f8 bfbe
00000220: 3f19 d1b9 4587 5d3f 678f 4fbf b85c d83e
00000230: fc00 24bd 266e 673e 414b 61be 39e3 d43d
00000240: b7fb 05be 2675 723d 8549 d1bd 0ba9 4abd
00000250: 9d47 12bf 20aa cdbe 3906 91be 3caa 483e
00000260: 0746 8fbe ba43 063f e4d4 7fbf b398 7a3f
00000270: 5e19 9cbe ffaa e03e 29d3 35bf 5f10 0ebe
00000280: 19bf eb3e 1474 3cbe 066e 4b3e 0a8b 343e
00000290: c85f 363f 71c4 3d3f 488e 613e 17f3 c23e
000002a0: ac18 133e ecda 2d3e 1f71 f53e ad4d 55bf
000002b0: 1c92 0f3f f04b 31bf 217e 163f 3e4f 74be
000002c0: d7cf 22be 5f53 813f d4b0 9abf acf2 11bf
000002d0: b12b 8ebf 2cee 7ebf b2c8 6cbd 45ab 72bf
000002e0: 7dee 14bf 92de 33bf cec3 d33e 6661 ab3e
000002f0: caa8 19bf 9c02 593f 1383 4bbf 7c87 bebd
00000300: 2ab3 79be 3cc2 04bf bfee c53d 66d1 73bf
00000310: e2d5 afbe 6ed0 be3e 3058 0b3f a89d 17bf
00000320: 6abb d1be 7cbd 00bf 1101 0dbb 4c74 4fbe
00000330: c70e fa3e 6834 42bf 645d d73e 95ac 793f
00000340: 88df 29be 34e7 20be 34b8 a5bd 5d35 cdbb
00000350: c506 c3be 9622 57bf 7768 9ebe ed01 edbd
00000360: 0e18 79bd c36c 203f 2454 14bf c8c5 a23e
00000370: 72fb 36bd af33 1f3f baaf 4bbf 7526 83be
00000380: d049 983d 0d09 383e 2b6c 3cbd 2662 afbe
00000390: 2d1e 123f 42f2 0b3f f769 6a3e 9b57 003f
000003a0: 5ce0 80be 9d55 063e 538b 2f3f 2958 fdbe
000003b0: cf73 903b a7a0 8cbe 4e87 423f 819b 273e
000003c0: bbc0 9dbe 3e0c 9bbe a6a7 ecbc ff78 80bf
000003d0: e2c8 043f 0003 883e 75b3 a43d ea70 0ebe
000003e0: 338d 57bf 53da 79bf 8dea 7c3f eb75 583e
000003f0: a5a4 2fbf 652b 0dbf 2e17 dc3e 5ddd d63b

rnn.bias_ih_l0 f4 [16]
-0.41017333 -0.27341494 -0.032560103 -0.54736525 0.39840758 1.2776499 0.32333207 0.42943498
-0.1397662 -0.5710846 0.6340095 -0.6323325 0.24438414 -0.5912236 0.41471103 0.53791916
00000000: 3d02 d2be 0bfd 8bbe be5d 05bd 2120 0cbf
00000010: 14fc cb3e 088a a33f c88b a53e e7de db3e
00000020: df1e 0fbe 9a32 12bf 724e 223f 8be0 21bf
00000030: d63f 7a3e 6e5a 17bf 0155 d43e 12b5 093f

rnn.bias_hh_l0 f4 [16]
-0.49547663 -0.42288435 -0.17844215 -0.3382637 0.48222896 0.84736836 0.23886555 0.20977516
-0.32996202 -0.36686838 0.7936175 -0.54120547 0.5495242 -0.6381233 0.5429422 0.6540234
00000000: 1daf fdbe 4c84 d8be 8ab9 36be e630 adbe
00000010: b7e6 f63e 22ed 583f 2c99 743e 4dcf 563e
00000020: c8f0 a8be 2cd6 bbbe 842a 4b3f 718c 0abf
00000030: 9ead 0c3f 0c5c 23bf 43fe 0a3f 146e 273f

fc.weight f4 [2, 16]
-0.11222668 -0.017801132 -0.1876047 0.038059447 0.1971434 -0.05836947 0.06915449 0.0041442793
0.12400365 -0.08628037 0.189441 0.13045555 0.093006276 0.075743675 -0.15537032 -0.11126629
-0.13593443 -0.05213168 -0.1504504 0.025932796 0.26640758 0.11662073 0.08438236 0.02551692
0.10893943 -0.1137015 0.22225763 -0.028699562 0.12977576 0.03231116 -0.09761185 -0.060212985
00000000: 1ad7 e5bd aed3 91bc 721b 40be 39e4 1b3d
00000010: f6df 493e d314 6fbd dfa0 8d3d bccc 873b
00000020: a0f5 fd3d c3b3 b0bd d2fc 413e 2496 053e
00000030: 137a be3d 801f 9b3d 6619 1fbe 95df e3bd
00000040: 6532 0bbe 0788 55bd ab0f 1abe 0471 d43c
00000050: 9366 883e d9d6 ee3d a9d0 ac3d dc08 d13c
00000060: a31b df3d 55dc e8bd 8197 633e 581b ebbc
00000070: f0e3 043e b558 043d b9e8 c7bd e4a1 76bd

fc.bias f4 [2]
0.23988721 -0.46103522
00000000: fea4 753e cf0c ecbe
