detector/models/16_1_128_5_32_0.001_covert_detector_2.pth (torch, 4925 bytes, 6 tensors)

rnn.weight_ih_l0 f4 [16, 3]
000000 c2 e3 34 be bd a2 03 bd 6b 08 48 bd 43 9b 1d be
       -0.17665008 -0.03213762 -0.048836153 -0.15391259
000010 6e fd f4 3b db 72 77 3e 82 01 af 3d 01 0b 17 3d
       0.0074765002 0.24164908 0.085452095 0.03687573
000020 3f cf c3 3d db ed 79 3d 85 65 15 bd 45 29 be 3d
       0.095610134 0.061017852 -0.03647377 0.09285215
000030 0c 4e 58 bf 1e a6 3a bc 3e 4f 42 bf 97 bb 09 3f
       -0.8449409 -0.0113921445 -0.75902164 0.53801864
000040 72 06 1d 3d 66 d1 1c 3f ac 27 3a 3d 6f 7a 9b bc
       0.038336225 0.61257017 0.04544799 -0.01897928
000050 42 40 60 3e c1 61 3e bd 9d c1 b6 bc 1c 14 53 3e
       0.21899512 -0.046479944 -0.022309119 0.2061314
000060 53 81 19 3e 17 d2 40 3d a8 32 4f bb a9 4d 7b 3e
       0.1499074 0.047075357 -0.0031615887 0.24541344
000070 27 2a 13 3c 4f 93 21 3f 96 b5 9b be fb ab 2b bc
       0.008982218 0.631154 -0.30411977 -0.010478015
000080 bb 21 51 bf cc a8 94 3e 88 38 08 3d b1 77 2a be
       -0.81692094 0.29035032 0.033257037 -0.16647221
000090 d7 a9 60 3e ec 3f 2a 3d 45 1b 89 bd 93 47 a6 3e
       0.21939789 0.041564867 -0.066946544 0.32476482
0000a0 f0 81 13 3d cd fd 2f 3e a6 d7 ae bd 3b 13 18 bd
       0.03601259 0.17186661 -0.085372254 -0.037127715
0000b0 e7 46 b1 be 09 89 8a be 29 b9 9b bc f5 ab 95 be
       -0.34624407 -0.27057675 -0.01900919 -0.29232755

rnn.weight_hh_l0 f4 [16, 16]
000000 1a b3 3f be 2e 10 50 3c 83 59 8b bd e5 d3 94 3e
       -0.18720666 0.01269917 -0.068041824 0.29067913
000010 97 f6 3a be e9 6b 74 3d 29 c0 89 3e a6 9e 9d 3e
       -0.18258129 0.059673224 0.2690442 0.30785102
000020 14 34 78 be b9 71 a5 3e 4f c9 4a be 11 4a 59 be
       -0.24238616 0.32313326 -0.19803356 -0.2121966
000030 29 8c db be 40 b0 0b bd dd fd fa 3d 3c ac e3 3e
       -0.4288037 -0.034103632 0.12255452 0.44467342
000040 fd 1c 40 3e e6 b9 af be 0f e6 a6 be c3 94 2a bd
       0.18761058 -0.34321517 -0.32597396 -0.041645776
000050 69 e7 ba be 77 ff f8 3e f0 37 d0 3e 66 6d 03 be
       -0.36504677 0.48632404 0.40667677 -0.12834701
000060 4c 00 b2 be eb 61 93 3d c5 38 99 3e 2a ae 53 be
       -0.34765851 0.07196411 0.29926124 -0.20671907
000070 e1 fa 3d 3e 49 43 81 be 6b f7 b0 3d 09 97 15 3f
       0.18552734 -0.25246647 0.08640941 0.58433586
000080 9e c4 ed 3d 24 f2 09 3f 97 b8 b7 be 52 6f 60 be
       0.116097674 0.538851 -0.35883018 -0.21917465
000090 e4 e7 6a be 1d 5c 51 be cb 52 39 be 1f 45 4d be
       -0.22940022 -0.20445295 -0.1809799 -0.20045899
0000a0 07 47 89 be 15 2f c5 3d 4c 08 83 bd ce 64 26 3f
       -0.26812002 0.09628121 -0.06398067 0.64997566
0000b0 22 a0 e9 3d 92 01 45 3e a4 f7 03 bf 7c 53 9c 3e
       0.11407496 0.1923888 -0.51549745 0.30532444
0000c0 53 60 3f bf e3 e7 b1 be d6 32 80 3d 66 5a 04 3e
       -0.74756354 -0.34747228 0.06259696 0.1292511
0000d0 4e 6d 23 3f d4 56 89 be 8c af ef be 2e 3d 3f bd
       0.6383866 -0.26824057 -0.4681362 -0.046689205
0000e0 51 2e bf bd 1b a2 28 3e bc e6 27 be d2 af d0 3d
       -0.09335006 0.16468088 -0.16396612 0.10189785
0000f0 6a 98 33 bd e7 7b 99 be f5 e5 0d 3e d6 d1 30 be
       -0.043846525 -0.29977342 0.13857253 -0.17267546
000100 ad 25 8c 3f 2e 53 90 3f 6a ac a4 bf a0 78 ae bf
       1.0948998 1.1275384 -1.2865117 -1.3630562
000110 af 4a 76 3e 5c 04 9c 3f f8 99 ae 3f 96 02 95 3e
       0.24051927 1.218883 1.3640738 0.29103535
000120 0b 33 b8 3f dc 4e e4 bf d3 13 d0 3f 96 20 12 be
       1.4390577 -1.7836566 1.625605 -0.14270243
000130 42 cd c6 3f 4b 73 7e 3f cc f6 85 bf 5e 31 74 3f
       1.553139 0.99394673 -1.0465941 0.9538783
000140 fd 5d 3b bf 30 40 7c bf 1b bc 0e 3f 5d c5 6c 3f
       -0.7319029 -0.9853544 0.55755776 0.9248865
000150 66 95 31 bf 73 07 fc bb a2 41 33 be 14 27 7e 3f
       -0.6936859 -0.0076913177 -0.17505506 0.9927838
000160 ac 9e ed be 6a 44 3e 3f 84 cc 60 bf 98 a6 2d bf
       -0.4641012 0.7432314 -0.87812066 -0.67832327
000170 44 4f 47 bf fd fc 33 bf 4b 5f 35 3f b0 3b 7d be
       -0.77855325 -0.70307904 0.7084853 -0.247298
000180 d3 12 1b bf b5 18 62 bf 7d 4a 9a be 14 ae 8c 3f
       -0.605756 -0.8831895 -0.30134955 1.0990624
000190 45 d2 40 3c 0b 95 60 bd 23 c6 86 be 81 7e 52 3f
       0.011768882 -0.05482964 -0.2632304 0.8222428
0001a0 61 74 26 be 25 ec 2a be 22 cf 18 be c4 3f 70 bf
       -0.16255333 -0.16691644 -0.14922765 -0.938473
0001b0 65 99 45 bf 53 f0 77 bf ff 1b 44 3f 8a 9e 91 be
       -0.77187186 -0.9685108 0.7660522 -0.28441268
0001c0 f3 3a 84 bf 27 af 25 bf f8 6b 8d 3f 87 e9 23 3f
       -1.033049 -0.64720386 1.1048574 0.6402821
0001d0 b9 f5 ea bd f2 42 6a bf 64 0f 9a bf 93 5c 98 be
       -0.11472649 -0.915084 -1.2035947 -0.2975813
0001e0 b5 48 85 be ea ab 8d 3e 79 17 95 be fc 43 e8 3e
       -0.26032034 0.27670223 -0.2911947 0.45364368
0001f0 8b 1b d1 be eb 67 55 bf b3 95 2c 3f 11 b4 6a bf
       -0.40841326 -0.8336169 0.6741592 -0.9168101
000200 1e 72 01 3e 2d 40 7d 3d 59 ce 30 3e 5b 40 95 be
       0.12641189 0.06182878 0.17266215 -0.29150662
000210 30 b5 bd bd 0d 09 52 3e fe af 96 bd db 53 eb bd
       -0.092630744 0.20511265 -0.073577866 -0.114906035
000220 eb aa 72 3e 77 cf cf 3e 4c c8 75 be a3 e8 ab 3e
       0.23698013 0.4058797 -0.24002188 0.33575925
000230 79 bf c5 3e e3 86 75 3e 38 05 bd be 9b e4 39 be
       0.38622645 0.23977236 -0.36918044 -0.18153612
000240 95 28 29 bd e7 2f c6 3e ea 19 e7 3e 32 7d 4f be
       -0.041298468 0.38708422 0.45136958 -0.20262602
000250 2c f9 ec bd 5a 33 64 be 23 37 2c be 69 06 82 be
       -0.11570963 -0.22285214 -0.16817908 -0.25395516
000260 4e 5b 2a bf db 61 c4 bd 8f e5 7d 3e 3e a5 d0 3e
       -0.6654557 -0.09588977 0.24794601 0.4075107
000270 61 14 d5 3e d5 c2 a1 3e d0 15 6a be 13 9e cd 3e
       0.4161711 0.31593958 -0.22859883 0.40159664
000280 2f 1a 0a 3f 86 c2 ee be ec d0 e8 be e9 54 10 3f
       0.53946203 -0.46632785 -0.45471895 0.5637956
000290 2b aa 17 bf 44 60 40 3f 96 c8 06 3f 84 61 2a 3f
       -0.5924403 0.7514689 0.5264982 0.6655505
0002a0 0b 4e 3c 3f 3b df da be 84 e0 ac be 26 b5 38 bf
       0.73556584 -0.42748436 -0.33765042 -0.7215141
0002b0 21 b8 63 be cb 5b 11 bf 88 05 19 3e da 57 c9 3d
       -0.22238208 -0.5678069 0.14943516 0.098312095
0002c0 e4 82 d9 3e d3 5b 52 3e a1 0d 6a bd 94 09 a9 bd
       0.42482674 0.2054284 -0.057141904 -0.0825378
0002d0 0c 18 3a 3c 7e 5b be bb cc c8 f2 3e 05 80 cf be
       0.011358272 -0.0058092466 0.4741882 -0.4052736
0002e0 05 86 13 3e 88 d5 33 be 82 ff 05 be c1 2f 61 3e
       0.14406593 -0.17561924 -0.1308575 0.21990873
0002f0 b8 a0 da 3e 97 c3 37 3e fb b4 bc be 20 56 0c 3e
       0.42700744 0.17945705 -0.36856827 0.13704729
000300 b0 db 61 3e 77 6a 95 3d 90 2c 76 3e 37 a5 d7 be
       0.2205646 0.07295697 0.24040437 -0.42118236
000310 10 68 69 be 06 8b 90 3e f0 99 fd bb 69 67 27 be
       -0.22793603 0.28231066 -0.007739298 -0.16348042
000320 a7 19 2a 3e 16 95 21 be 90 0b 41 3d 78 83 c9 3e
       0.16611348 -0.15779528 0.047130167 0.39358115
000330 f4 bf 5c 3e 36 22 09 3f e2 74 73 3d 31 b0 61 bd
       0.215576 0.53567827 0.05943764 -0.05509967
000340 6f b5 95 3e 17 79 73 3e 22 a1 ed be ed 9d 8f bd
       0.29239985 0.23776661 -0.46411997 -0.07012544
000350 f7 e1 f3 be ba 6d 9b 3e 90 60 16 3f 7d 04 eb 3e
       -0.47633335 0.30357152 0.5874109 0.45901862
000360 fb a4 0f bf 6e 94 40 3d ef 79 74 bd 28 cb c0 be
       -0.56111115 0.047016554 -0.059686597 -0.37654996
000370 04 d9 41 be f7 ba 52 be 85 9e bd 3d 08 ca ac 3a
       -0.18930441 -0.20579134 0.09258751 0.0013182769
000380 6e d7 a7 be 1b 7d 3b bd 27 f8 a7 3e 2b 13 62 3e
       -0.32781547 -0.045773607 0.32806513 0.22077624
000390 e4 bf 10 3d 60 8a 0e bf 1f 63 ad be fe 75 bd be
       0.03533925 -0.55679893 -0.33864686 -0.37004083
0003a0 69 34 00 be 7d 17 88 bd 92 0c 2e bd c6 b1 a5 3e
       -0.12519993 -0.06645105 -0.042492457 0.32362193
0003b0 49 ca 2b bd 35 99 0b bf a3 81 b7 3e 90 bd 8a be
       -0.04194096 -0.5453065 0.35841092 -0.2709775
0003c0 27 a5 77 be a7 82 3e bf 82 42 38 bf 33 fa a4 3e
       -0.24184094 -0.7441811 -0.7197648 0.32222137
0003d0 24 89 de bc 0e fa 51 3e b8 74 4d 3d a1 5b 11 3f
       -0.027165003 0.20505545 0.05016014 0.5678044
0003e0 8b d7 f2 3d 70 96 38 be 69 ed 54 3e 6f f5 fc be
       0.11857518 -0.18026137 0.2079369 -0.49406
0003f0 62 40 3a bf 1e 8f a0 be 95 06 05 3f b2 cc b6 3d
       -0.7275449 -0.3135919 0.5196317 0.08925761

rnn.bias_ih_l0 f4 [16]
000000 fa 03 be bd bb 7b 20 3e 90 39 2b 3e b4 d6 b8 3d
       -0.09278102 0.156722 0.16721177 0.09025326
000010 44 93 c8 bf a1 94 d1 3e bf cd 3d be e0 00 fa 3e
       -1.5669942 0.40933707 -0.18535517 0.48828793
000020 70 8c f4 bd f1 dc 1c 3f 8e 31 fe be 29 b2 99 3d
       -0.11940849 0.6127463 -0.49647182 0.075046845
000030 6b 21 f9 3b 5b 3a f4 3e a3 bf 2c be f5 f7 bf bc
       0.0076028607 0.47700772 -0.16869979 -0.023433665

rnn.bias_hh_l0 f4 [16]
000000 d2 1a c5 3c 34 0a 83 3a b6 a3 7a 3e 03 e1 1f be
       0.02406064 0.0009997548 0.24476513 -0.15613179
000010 bf 81 bb bf 0a 70 30 3f 15 c1 ea bc 0f c0 c3 3e
       -1.464897 0.6892096 -0.028656522 0.38232467
000020 2f 67 84 3d cb 52 18 3f d6 40 19 bf 8f c5 31 be
       0.06464993 0.5950133 -0.59864557 -0.17360519
000030 0b 9b 02 be 61 a5 8f 3e 81 e6 18 be 9d 31 08 bd
       -0.12754457 0.28055862 -0.1493168 -0.03325044

fc.weight f4 [2, 16]
000000 82 42 a5 3d d8 6a 3c 3e 97 ee 12 3d 89 8e a8 3c
       0.08069326 0.18400133 0.03587207 0.020575779
000010 75 c2 eb 3f 0e 0f e2 3d 63 8a 87 3d df c4 71 bd
       1.8418719 0.11038028 0.06618192 -0.05902564
000020 a5 95 40 bf 3a 61 46 3f 5e 14 3d bf 0d 4c 85 3c
       -0.7522834 0.77492106 -0.738592 0.016271615
000030 e7 54 c0 be fa 09 24 3e 5b 21 d7 3d e3 0d 5c 3e
       -0.37564775 0.16019431 0.10504409 0.21489672
000040 bf f6 cc be d2 68 cf be 27 6f 0a be b0 0c a0 be
       -0.40032002 -0.4050966 -0.13518964 -0.3125968
000050 88 87 f1 bf f1 74 73 bd 54 32 d6 bd e2 97 7d 3e
       -1.8869486 -0.059437696 -0.10458818 0.2476497
000060 df 8e 33 3f f3 c0 3f bf b0 ce 27 3f bf 21 32 3d
       0.7013988 -0.7490379 0.65549755 0.043489214
000070 bf 4f a0 3e 59 b0 0d bd 70 3a 53 3e 79 c0 86 3b
       0.3131084 -0.034592006 0.20627761 0.0041123

fc.bias f4 [2]
000000 cb e5 90 3f 3a 71 81 bf
       1.1320127 -1.0112679
