detector/models/16_2_32_5_32_0.001_covert_detector_4.pth (torch, 8277 bytes, 10 tensors)

rnn.weight_ih_l0 f4 [16, 3]
000000 77 ab e7 bb 53 09 15 bd 29 3a 25 3d bd 51 76 bd
       -0.0070700007 -0.036385845 0.04033867 -0.060136545
000010 40 88 24 3d e8 33 a5 3e f3 ad 1c 3e cd a8 06 3d
       0.040169 0.32266164 0.15300731 0.032875825
000020 ae bc cf 3e de 7e da bd bf 0b 0c bd ce ba 88 be
       0.4057364 -0.10668729 -0.03419089 -0.2670502
000030 db 2e 8b 3e e8 0a 02 bd ae 52 16 be 2a 2c 62 be
       0.27184185 -0.031748682 -0.14679977 -0.2208716
000040 86 5a ff bc 6c a2 9e be 19 96 b9 bd 83 2e 0b 3d
       -0.031171095 -0.30983293 -0.09061832 0.033979904
000050 15 eb c3 bd bb 17 ce 3c c8 dc da 3c a1 54 bd be
       -0.09566323 0.0251578 0.026716605 -0.3697863
000060 f7 88 c8 be 70 ff 0b bd 2f d2 b1 be 0c 42 c1 3d
       -0.39166996 -0.03417915 -0.3473067 0.094364256
000070 30 09 14 3d de a5 93 3d 22 62 b0 bd f4 28 e3 be
       0.036141574 0.07209371 -0.08612467 -0.44367182
000080 88 10 a8 be 88 bb d0 bd 6c ea 10 bd bc 15 b0 bd
       -0.32825112 -0.10192019 -0.035379812 -0.085978955
000090 66 8f 03 bd 6a d1 d2 bc c8 90 46 bf 14 c3 bb bc
       -0.032119177 -0.025734622 -0.7756467 -0.022920169
0000a0 aa 6d 18 bd af 38 95 be ad 48 3f 3e e7 8f 00 bd
       -0.03721396 -0.2914481 0.18680067 -0.031387236
0000b0 6d b1 19 bd 37 1f 01 bf 2f 98 ea bc 5f ac 99 be
       -0.037522722 -0.50438255 -0.02863702 -0.3001432

rnn.weight_hh_l0 f4 [16, 16]
000000 23 77 86 bd ce 91 a0 be 88 f2 af bc 9f cb 34 3f
       -0.06565692 -0.3136124 -0.021477953 0.706232
000010 9f 70 0c bf 6a 97 47 3d 6b 35 4a 3c 81 f3 21 3e
       -0.54859346 0.048728384 0.012341837 0.15815546
000020 23 41 b5 be 64 7c cf be c6 d1 ea bc fe ff ad 3e
       -0.35401258 -0.4052459 -0.02866448 0.3398437
000030 85 62 70 3e cf 46 46 be fa 12 80 be 6e 7f 85 3e
       0.23475082 -0.19362949 -0.25014478 0.26073784
000040 a1 0b 94 3e 02 11 3b 3f 68 25 69 3e f2 f8 13 be
       0.28915122 0.73072827 0.22768176 -0.14450434
000050 bc 3e 82 be 6e 19 67 bc 13 a2 9b be db f9 5d 3e
       -0.25438488 -0.014105184 -0.3039709 0.21677344
000060 7f 4d 09 be f4 85 c9 3e 11 2d 3c bf 79 52 3b 3e
       -0.13408469 0.3936001 -0.73506266 0.1829318
000070 ae a7 e8 bd af 46 d1 be 5e df be be 08 75 4e bf
       -0.11360107 -0.4087424 -0.3727979 -0.80647326
000080 53 8e 37 3d 47 aa 5c 3f 3f a0 02 3e 02 b2 90 be
       0.044813465 0.8619732 0.12756442 -0.2826081
000090 5f 77 d5 bd 97 8d 65 be 4f 42 af be 16 b2 13 3f
       -0.10423159 -0.22417293 -0.34230277 0.5769361
0000a0 4d 66 1a bf d1 9c 55 3d 91 45 02 bf fa 86 be 3e
       -0.6031235 0.052151505 -0.508874 0.37212354
0000b0 46 62 0e 3c 2e b9 77 3d 82 fe ba be 2f 7b 2a bf
       0.008690422 0.060479335 -0.365223 -0.66594213
0000c0 b9 ff a6 be 62 15 22 3d 55 e7 fc be 11 8e 8e 3e
       -0.32616976 0.039571173 -0.49395242 0.27842763
0000d0 86 ca a9 3e e1 ec ed bc 0c 21 81 bd be 39 b4 be
       0.33162326 -0.029043617 -0.06305131 -0.35200304
0000e0 1d 90 c7 3e 98 7d ea bd c1 83 b7 3e b6 79 04 3e
       0.38977137 -0.11449736 0.35842708 0.12937054
0000f0 ba 42 ca bc f4 ce b6 be 28 00 c4 be 81 c5 c4 3d
       -0.02469002 -0.35704768 -0.3828137 0.096079834
000100 05 61 d7 3e 46 c6 69 3e a1 90 5a bd cb 73 39 bb
       0.42066208 0.22829542 -0.053360585 -0.0028297778
000110 17 92 35 3e f6 3b a6 be 11 5f 23 be ec 89 d5 3e
       0.1773151 -0.32467622 -0.15954234 0.4170679
000120 89 f8 a7 3c 9f d8 45 be 58 a3 8f 3e c8 54 0f 3e
       0.020504253 -0.19320916 0.2805431 0.13997185
000130 34 8d 0e 3f dd 00 44 3f 6b be 32 3f 39 6a 50 3e
       0.5568421 0.7656382 0.69821805 0.2035302
000140 fe 09 32 bf c6 c7 da be 72 04 34 bf a1 b9 f2 3e
       -0.69546497 -0.4273054 -0.70319283 0.4740725
000150 0d 33 01 3f 89 fa 90 3d ed ce 4b 3f 4d 6e 45 bf
       0.5046852 0.07079036 0.7961262 -0.7712143
000160 e9 e6 fd 3e d8 04 1b bf e0 bc 2e 3f dd b3 4a 3f
       0.49590233 -0.60554266 0.6825695 0.791807
000170 53 1a be 3e 63 97 30 3f 40 3d f0 3e b7 db 54 3f
       0.3712946 0.68981 0.4692173 0.8314776
000180 c8 11 f4 be 6e f3 94 be 18 9a 1e be 32 62 c6 be
       -0.47669816 -0.29091972 -0.1548847 -0.38746792
000190 bc d7 48 3e 31 d8 43 bd 48 4f ea 3d 1e de 52 be
       0.19613546 -0.047813598 0.11440903 -0.20592543
0001a0 78 e0 ab bc 04 fe 2b be ae de 80 3d 02 4e 30 be
       -0.020981058 -0.16796118 0.06292473 -0.17217258
0001b0 5a 84 92 bd ec 86 33 bc 0e c5 1c 3f fa 3e d0 3e
       -0.0715415 -0.010957461 0.6123818 0.40673047
0001c0 0a f1 5c 3f aa 1b 92 bc 61 9d 16 bf 23 95 13 3f
       0.86305296 -0.017835457 -0.5883389 0.5764944
0001d0 e1 38 11 bf 91 1d 42 3f 4e fc 1c bf d2 8b e7 3d
       -0.56727415 0.75826365 -0.61322486 0.113059655
0001e0 3f 11 20 3f 31 2d ff be 26 64 14 3e 6c a4 2a 3f
       0.62526315 -0.49839166 0.14491329 0.6665714
0001f0 12 d2 30 3f fc 41 91 3e 3e 92 b5 bd 28 e9 42 be
       0.6907054 0.28370655 -0.08865784 -0.19034255
000200 96 99 2f 3e 83 41 4d bf 79 c4 2f 3e c0 39 c7 3d
       0.17148432 -0.8017809 0.17164792 0.09727812
000210 bc 0a 8d 3e 9e 7d 98 bd 89 90 f5 bc 47 51 06 bf
       0.27547252 -0.074458346 -0.029976146 -0.5246777
000220 9c d0 01 3e 46 fb 81 be 65 dd 73 3e 7a fc a6 bd
       0.12677234 -0.2538702 0.23814924 -0.08153625
000230 1c 3f 82 bd 28 42 c4 3e ec 3d 15 3f b1 d3 26 3f
       -0.063596934 0.38331723 0.5829761 0.65166765
000240 f7 5e cd 3e c6 17 a5 3e 18 45 f0 3e cf 34 a4 be
       0.40111515 0.322447 0.46927714 -0.3207154
000250 a1 8b 48 be 1f 1a c3 bd e8 b6 8d be 77 0e 78 3e
       -0.19584514 -0.095264666 -0.2767861 0.24224268
000260 96 0d 03 bf a2 99 9b 3e 43 67 a8 be 37 13 fc 3d
       -0.51192605 0.3039065 -0.32891282 0.123083524
000270 6e 20 72 ba a1 cc 8f be ce 84 a3 be 47 4d 04 bf
       -0.00092364 -0.28085807 -0.3193726 -0.51680416
000280 47 83 96 be fa 75 23 be 13 44 28 be 90 f4 43 bd
       -0.29397032 -0.15962973 -0.16432218 -0.047840655
000290 9b b4 78 3e b0 e5 21 be 89 d5 1e be 3a 1d bf be
       0.24287646 -0.15810275 -0.15511145 -0.37326986
0002a0 13 80 be 3d e1 0f 96 be da 8b 7c 3e 40 8f 57 3e
       0.09301772 -0.2930899 0.24662724 0.2105074
0002b0 96 0d 76 3e 7b 38 f1 3d 9c f8 7e 3e 9b 44 d8 3d
       0.2402862 0.11778351 0.24899524 0.105599605
0002c0 89 cb 4e bd 25 40 28 bf 37 84 32 bf 21 5a 8b 3d
       -0.050487075 -0.65722877 -0.69732994 0.068043
0002d0 72 bc e9 bc 75 9f bb bd ba a3 d8 3e e2 32 4c bf
       -0.02853224 -0.091612734 0.42312413 -0.7976514
0002e0 da 3c e7 3e 97 b8 2e bf d6 e3 d2 3e 5b 14 b1 3e
       0.45163614 -0.6825041 0.4118945 0.34585842
0002f0 21 46 ea bd d0 4f 5e 3e 2f 53 da 3e e6 0a 41 3d
       -0.11439157 0.21710134 0.4264159 0.047129534
000300 66 be 15 bf af e3 33 be 2b 6b da be 4b 38 8a 3f
       -0.5849365 -0.17567323 -0.42659888 1.0798429
000310 5b 5e 45 bf 66 ee 26 3b b2 88 f5 3d db 8b 2d bf
       -0.770971 0.0025471686 0.11988963 -0.6779153
000320 17 69 ca 3e 80 56 ba be 3d 4c 52 3f 44 7c ff 3e
       0.39533302 -0.3639412 0.8214758 0.49899495
000330 32 1a 3e bf 10 8e 4e bf 2d db 9a bf 68 91 c8 3e
       -0.7425872 -0.8068552 -1.2098137 0.39173436
000340 a5 90 19 3e 48 d5 0f 3e be ef 33 be 6f 91 31 3f
       0.14996584 0.14046204 -0.17571923 0.6936254
000350 c3 61 d1 3d 21 4c 0c bf 74 2f d6 be 78 bb e5 3d
       0.10223725 -0.54803663 -0.4183308 0.112173975
000360 ba f9 5a 3d 80 17 ef 3d a0 20 c0 3d 09 ad 44 3e
       0.053460814 0.11674404 0.09381223 0.19206633
000370 e0 4c 84 3f 80 ce 2c 3e d6 0b d3 be bc f1 a9 be
       1.033596 0.16875648 -0.41219968 -0.3319224
000380 0d 91 b9 3d 02 a3 fa bd 80 b2 a7 bd 39 e2 0a 3f
       0.09060869 -0.122381225 -0.08188343 0.5425144
000390 f4 58 a5 3e 55 11 64 bd 08 07 02 bf 21 b7 4e bd
       0.32294428 -0.05568059 -0.5079198 -0.050467614
0003a0 8a c5 bb 3d 7b 88 65 3e 2d 3c 81 3e 8a 4e 38 be
       0.09168537 0.22415344 0.25241223 -0.1799871
0003b0 af db 55 3f 42 c1 1d 3f 5d 13 b5 3e a1 7a 17 3e
       0.83538336 0.61623013 0.35366336 0.14792873
0003c0 04 a7 90 be 91 77 fb be 89 a0 08 bd 5c 49 8e 3c
       -0.28252423 -0.4911466 -0.033356223 0.017368965
0003d0 2e ab 1d 3f 0a bd 11 be 80 bd fa 3d 0e 04 b0 be
       0.61589324 -0.14232269 0.122431755 -0.34378093
0003e0 d7 90 90 bd 5a 23 81 be ac fc 0d 3f e5 1b b4 3e
       -0.07058876 -0.25222284 0.5546367 0.35177532
0003f0 19 06 c5 3e 51 e1 ee 3e 67 69 ad 3d 90 91 4e 3f
       0.38481215 0.46656278 0.084673695 0.8069086

rnn.bias_ih_l0 f4 [16]
000000 17 5e cf bd 64 b9 25 3f df 00 4c 3e 46 de 36 bf
       -0.10125368 0.6473601 0.19922207 -0.7143291
000010 1d 6e 09 be 5c 64 02 bf 5a c9 88 3a eb 22 97 be
       -0.13420911 -0.50934386 0.0010435984 -0.29518828
000020 be ad c9 be 0b 6a ec 3e 0b a2 47 be 5c e8 48 be
       -0.39390367 0.46174654 -0.19495408 -0.19619888
000030 36 cb 3b bf a4 a3 a2 be f1 11 86 be da 22 ba be
       -0.7335695 -0.31765473 -0.26185563 -0.36354715

rnn.bias_hh_l0 f4 [16]
000000 82 c3 08 be 3b 34 3d 3f 47 c5 f5 3e 47 7f a0 be
       -0.1335583 0.7390782 0.48002073 -0.31347105
000010 a7 d6 1c bd 77 e5 1f bf d1 95 50 bd bb 40 9d be
       -0.038290646 -0.6245951 -0.050924126 -0.30713448
000020 2b 62 f3 be ac cf 9e 3e f3 be 05 bf 65 27 77 be
       -0.47535834 0.31017816 -0.5224449 -0.24136122
000030 9d 06 4b bf 49 de 2b be 03 e2 03 be 29 2a 4a be
       -0.79306966 -0.16784014 -0.12879185 -0.19742645

rnn.weight_ih_l1 f4 [16, 16]
000000 ad 67 0f 3d 41 76 1f 3e cc cc bf bd 33 6b cd 3d
       0.035010982 0.15572454 -0.09365234 0.10030212
000010 66 80 ab bd b9 05 eb b9 1e aa b0 bd 95 1c bf 3e
       -0.083740994 -0.00044826957 -0.08626197 0.37326494
000020 09 31 da bd 91 82 59 bd 8c 06 cf 3c 8b 6d 4c be
       -0.10653884 -0.053103033 0.025271676 -0.19963662
000030 86 c7 94 3e 7e e3 a9 bd ca 82 bc ba 97 e6 be 3c
       0.29058474 -0.08295344 -0.001438224 0.023303313
000040 aa 4e 3f 3d 65 22 5a 3d 60 a4 23 be 11 92 eb bc
       0.04670588 0.053255457 -0.15980673 -0.028756173
000050 10 65 2c be 10 4a 87 3e 7c b5 1b bb 73 a7 83 bd
       -0.16835427 0.26423693 -0.0023759296 -0.06428423
000060 00 ea c6 3d ea 4f 3a bd 12 d2 a0 bc 0b df 22 be
       0.09712601 -0.04548637 -0.01963142 -0.15905397
000070 6a 38 b0 bd 4d b7 3b 3d 87 2c 0a 3d ab b7 9d 3d
       -0.0860451 0.045829106 0.03373387 0.077010475
000080 78 c0 25 3e 75 18 51 be 4e e2 5e 3e cf 3b 78 bd
       0.16186702 -0.20419486 0.21766016 -0.060603913
000090 7c 42 94 3d 28 3c b4 be 6c 99 8a bd 47 1f aa 3e
       0.072392434 -0.35202146 -0.06767544 0.33226988
0000a0 0a 6e c5 bd 62 96 80 be c6 82 88 be 07 79 79 be
       -0.09640129 -0.25114733 -0.26662272 -0.24362575
0000b0 f3 0c 11 3e 9a 78 03 be 2d c1 28 bd 57 fc e9 3d
       0.14165096 -0.12838975 -0.04119985 0.11425083
0000c0 73 ea da bc 60 5c 50 be 22 9c 2c bc 4c 1b df 3d
       -0.026723122 -0.20347738 -0.010535272 0.10893878
0000d0 9c 82 f7 bd d1 4f a4 3d 2f 07 c2 bc 71 fc 4e bd
       -0.12085459 0.08023036 -0.023685066 -0.050533716
0000e0 cc a4 c4 3d bb 0f 45 3e 8d 07 e5 bd 72 54 ea 3d
       0.09601745 0.19244282 -0.11183081 0.11441888
0000f0 b5 71 48 be c9 5f 43 be 55 b7 42 bd a2 db 46 be
       -0.19574626 -0.19079508 -0.04753812 -0.19419721
000100 e3 4c ce bd 7d e4 38 be 81 39 6b 3c 05 8d 87 3c
       -0.10073259 -0.18055911 0.014356972 0.016546736
000110 6a 99 54 be 82 c3 40 3d ff e9 bf 3d 8a 88 86 be
       -0.20761648 0.04706145 0.09370803 -0.26276046
000120 15 0f 33 bd 20 d8 e1 bd c3 48 32 3d fe aa 41 3e
       -0.043715555 -0.11027551 0.043526422 0.18912885
000130 1f 3c 14 be 53 cb e4 bb 43 a1 3f bd 7c b8 77 bd
       -0.1447606 -0.006982246 -0.04678465 -0.060478672
000140 86 a4 b9 bd d3 b1 a6 bd b1 17 aa bd eb 35 bc 3c
       -0.090645835 -0.08139386 -0.083053 0.022974929
000150 65 b0 10 3e da 33 29 be ea 1a a9 3d 38 0a 1f 3e
       0.14129789 -0.16523686 0.082570866 0.15531242
000160 8b f2 b0 bc 1c 87 73 bc 5e a2 d1 3d a4 f4 db bd
       -0.021600028 -0.014863756 0.10236047 -0.10740021
000170 1d 33 76 3e 5a c2 e9 3b 20 0b 6b 3d 49 ce ab bd
       0.24042936 0.007133764 0.057383657 -0.08388955
000180 66 c1 83 bc 44 e1 52 3e 7b e1 32 3e 52 15 bd 3d
       -0.01608343 0.20593745 0.17468826 0.09232582
000190 86 68 53 3d b2 f4 8c be f3 fd 4f be 42 20 1d 3e
       0.051613353 -0.27530438 -0.20311718 0.15344337
0001a0 c9 2e 85 be 49 c0 83 3e 9f 37 20 be 4f e0 99 be
       -0.26012257 0.2573264 -0.15646218 -0.30053946
0001b0 47 ef f2 bd f9 34 11 3d bc 95 62 bd 8b 54 bb bd
       -0.11862045 0.03545091 -0.05531858 -0.09146985
0001c0 dc de 39 be 6b 13 40 3d d4 7f 2a 3e c5 95 93 3c
       -0.1815142 0.04689352 0.16650325 0.018015752
0001d0 5d 05 05 3e a3 22 e5 bc 7d 30 b8 3d 5b 4f 80 3e
       0.12990327 -0.027970618 0.089936234 0.25060543
0001e0 b2 d1 48 be d1 b3 11 3d b1 3a 1d be bf 44 48 3e
       -0.19611242 0.035571877 -0.1535442 0.19557475
0001f0 01 37 b0 3e 01 b0 3e 3b b2 7f c1 3d 0b c7 89 bc
       0.34416965 0.0029096606 0.09448184 -0.016818544
000200 63 c0 19 be 92 ff 64 3c ac 0d a9 3d 84 38 80 3e
       -0.15014796 0.013976948 0.08254561 0.25043118
000210 ae 56 e8 3d 03 50 34 be 80 61 69 3e 90 b5 22 bc
       0.11344658 -0.17608647 0.227911 -0.009930983
000220 cd 8b 1d 3e 76 1c 18 3d 0c 93 56 bd c0 f9 16 3e
       0.15385361 0.037136517 -0.05238633 0.1474371
000230 47 f6 77 be 05 8b aa bd f6 ac 04 3e 34 a5 0c bb
       -0.24215041 -0.08327297 0.12956604 -0.0021460773
000240 f3 09 92 3d 66 e8 91 bd 61 b1 2a bb bb 87 ee 3a
       0.07130804 -0.071244046 -0.0026045667 0.001819841
000250 f2 49 fd bd c7 f0 39 be 6b 5f ae 3d 87 8b 08 be
       -0.123676196 -0.18158256 0.08514293 -0.13334475
000260 04 3f fa bd 84 a4 1e 3c f6 87 9d 3e a2 a4 59 be
       -0.122190505 0.009682778 0.30767792 -0.21254209
000270 9c fb ce bd e1 99 82 bd 26 ad 1d bd f1 00 92 3e
       -0.101065844 -0.06377006 -0.038495205 0.28516343
000280 74 35 4f be 4c 7e 8e bc 2e 6f fb bd c8 94 80 bc
       -0.20235234 -0.017394207 -0.12277065 -0.015695944
000290 73 ae c7 bd bb e7 99 be 12 a9 34 3e bc e0 82 3c
       -0.097500704 -0.3005961 0.1764262 0.015976302
0002a0 70 69 a5 3e c1 74 50 3c 2c 9a e8 bd eb 88 07 3b
       0.32307005 0.012723149 -0.11357531 0.0020680975
0002b0 e7 09 36 bd 43 4d 80 bd a1 ca d1 3a 0d d3 46 3d
       -0.044443037 -0.062647365 0.0016005823 0.048541117
0002c0 78 27 3f 3e 10 b2 1c be ce d3 72 3c 26 34 d6 3d
       0.186674 -0.153023 0.014821006 0.10459165
0002d0 f8 a3 59 bc 6a 5e 9c be 4b 85 21 3e 5c ca e5 bd
       -0.013283722 -0.30540782 0.15773503 -0.112202376
0002e0 4b 42 4d be b5 0a 8c 3c 48 c4 39 3e 60 fd db 3b
       -0.2004482 0.01709495 0.18141282 0.0067135543
0002f0 55 45 33 3e 10 9f 64 3d d0 8c f6 bc 1f c5 68 be
       0.17506917 0.055815756 -0.030096442 -0.22731446
000300 e9 1f a8 bd 56 b9 52 3d 34 c6 ec 3c e1 a1 e6 3d
       -0.082092114 0.05144628 0.028903104 0.11261345
000310 20 a4 4b 3e 6d f2 40 be 7b f3 82 3e d5 72 4d bd
       0.19886827 -0.18842478 0.25576386 -0.05015834
000320 27 59 22 bd 6c 6e 30 be 2b d5 b6 bc 0d 93 80 bd
       -0.039635804 -0.17229623 -0.022318443 -0.06278048
000330 4b f0 b9 be 96 7b 95 3d 2e 2e ed 3a 6c 26 2a 3e
       -0.3631614 0.07298963 0.0018095428 0.1661622
000340 3c 41 8a 3e c4 0f 2d 3e 2c 5a 91 3d 2f ca 6a be
       0.27002895 0.16900545 0.07097277 -0.2292869
000350 8c 1f d0 bd 4c 06 1c be 8f 94 a2 bd ea 6e 58 3e
       -0.10162267 -0.15236777 -0.079384916 0.2113606
000360 44 2e 75 be e1 1b b3 bc 38 50 45 be c1 1e 94 be
       -0.2394343 -0.02186388 -0.19268882 -0.28929713
000370 c8 d8 cf 3d 7e 38 44 be fd 8d 15 bd 8e dc ce be
       0.101487696 -0.19162175 -0.036512364 -0.40402645
000380 f6 ff 0c 3e 80 30 95 bd dc 67 cf bd cb dd e4 3d
       0.13769516 -0.07284641 -0.101272315 0.11175116
000390 c6 c7 2a 3e 69 d0 32 be 1c 50 15 3e 94 6b 35 3e
       0.1667777 -0.17462315 0.1458134 0.17716819
0003a0 5a c6 18 be 35 23 49 3e a8 1f dc 3d 63 19 69 bd
       -0.14919415 0.19642337 0.107482255 -0.056908976
0003b0 16 23 3a 3e d4 8e 64 3d 9b 79 bf bd 41 ee 20 3d
       0.18177447 0.055800274 -0.09349366 0.039289717
0003c0 0c 88 2d be ca b0 38 bc de 11 34 3e 88 1e b6 bd
       -0.16946429 -0.011272619 0.17584941 -0.08892542
0003d0 7c c3 94 3d 1e 34 5d be d7 ab 23 3e 1f 0b 9f be
       0.07263848 -0.21601912 0.1598352 -0.31063172
0003e0 f8 2e 8f 3e e8 6f 96 bd ca d5 75 bd a3 72 9b 3d
       0.27965522 -0.07345563 -0.06001834 0.075902246
0003f0 ce 88 f6 be c4 2c 0b be 8e 3c 51 bb 8d b6 45 3e
       -0.4815125 -0.13591295 -0.0031926963 0.19307919

rnn.weight_hh_l1 f4 [16, 16]
000000 ea 3b cd be 68 9b 08 be 7c 1e 3e be 4d 81 47 3e
       -0.40084773 -0.13340533 -0.18566316 0.19482918
000010 47 84 a0 bb b7 de e3 bd ad db 05 3e 16 21 24 3e
       -0.004898581 -0.11126464 0.13072081 0.16028246
000020 a4 49 78 3e 58 55 4a bd 9e f1 20 bd 6c ce c3 3c
       0.24246842 -0.049397796 -0.039292924 0.02390214
000030 fc 82 8d 3d a3 36 41 3d 1a 94 c6 bd 22 c4 34 be
       0.06909749 0.047171246 -0.09696217 -0.17652944
000040 16 82 5b 3d 32 92 12 bf 7f 42 8a 3e fa b5 be 3d
       0.053590856 -0.57254326 0.27003857 0.09312053
000050 85 84 b6 bd 6d 26 3e bd 54 94 26 be 63 e9 17 3d
       -0.08911995 -0.046423364 -0.1626752 0.03708781
000060 84 c7 dc 3e 4b 04 8d bd 35 33 1b be 58 a7 ae bd
       0.43120968 -0.068855844 -0.15156253 -0.08528012
000070 ad cb 2b 3e 10 fb 06 3d 2b 74 c2 3c ed 63 59 be
       0.16776915 0.032954276 0.023737034 -0.21229525
000080 0d 7c 71 3e 66 13 41 3d 5d 88 99 be da 34 ab bd
       0.23582478 0.04713764 -0.2998685 -0.0835969
000090 e3 f6 ea 3d b3 e5 8f bd d1 54 21 be 32 ee a1 bb
       0.11472871 -0.070262335 -0.15755011 -0.004941725
0000a0 85 3d ee bd a9 3c dd bd 58 e9 a0 3e 59 ac 5c 3e
       -0.11632828 -0.10802586 0.31428027 0.2155012
0000b0 9c b5 97 bd 47 15 74 be 59 24 b2 bd 66 9c 8b be
       -0.07407686 -0.23836242 -0.08698339 -0.2726776
0000c0 ec 6e a8 bd c3 ef 0b be ca 2a bc 3d ea a0 1f 3c
       -0.08224282 -0.1366568 0.09187849 0.009742955
0000d0 e0 63 97 be 55 63 58 3e db cb 4f be c2 5b 9b 3e
       -0.29568386 0.21131642 -0.20292608 0.30343443
0000e0 c4 ac 80 3e 7d a9 be bd a1 7d 19 be 0f cb e9 bd
       0.2513181 -0.09309671 -0.1498933 -0.114156835
0000f0 0e 72 51 bc 56 57 88 be 17 56 30 be c7 02 a1 be
       -0.01278354 -0.26629132 -0.1722034 -0.3144743
000100 56 23 95 bd 58 ba 3b be 72 2c 7f bd fa d7 27 be
       -0.072821304 -0.18332803 -0.062298246 -0.16390982
000110 85 b6 cf be 8e 47 13 3e 08 7c c8 3c 3b c8 a3 be
       -0.4056894 0.14382765 0.024473205 -0.319887
000120 f6 ae 2f 3e e0 a0 40 3e 34 37 9d be 4e b5 74 3e
       0.17156586 0.18811369 -0.3070618 0.23897287
000130 4c dc 14 3b 7f ab 4d be 30 69 e1 3c 48 d2 57 3e
       0.0022714315 -0.20084952 0.027515978 0.2107631
000140 f0 c1 dc 3d cd c3 02 3e 7a 2f 0d 3e 60 15 01 3e
       0.10779178 0.12770005 0.13787642 0.1260581
000150 a1 6e a8 3e 9f 0e 1e bf 22 9f 7b bc d7 53 e4 bd
       0.32896903 -0.6174106 -0.015357764 -0.11148804
000160 e8 81 06 bc 0c 1c 17 bd 3d d5 29 bd 53 78 5e 3e
       -0.008209683 -0.036891982 -0.041463125 0.21725588
000170 d6 0d 3a bc d6 a2 4b be 0d d4 b9 bc 33 16 3d be
       -0.011355838 -0.19886336 -0.022684122 -0.184655
000180 04 b3 bd 3c 8d 5e 75 be 24 94 4b be e0 a5 cd bd
       0.02315665 -0.2396185 -0.1988073 -0.10041404
000190 d3 8f 11 3e 30 07 e4 bc 54 96 2c be dd d3 f1 3d
       0.14215021 -0.027835459 -0.1685422 0.11807988
0001a0 8b bb f4 3d f3 94 8b 3d 40 63 5d be c9 ea 95 3d
       0.119498335 0.06815519 -0.21619892 0.07320172
0001b0 f8 5a 84 3c 2d c6 17 bd 4c 16 e4 bd 09 78 3c be
       0.016156659 -0.03705423 -0.11137065 -0.18405165
0001c0 bd c9 df bd f1 28 56 be 5e 16 9a 3c 2d f1 bc 3d
       -0.109271504 -0.20914055 0.018809494 0.09225688
0001d0 70 06 6c 3e f9 3b 83 3d 89 ae 2c 3e 05 97 75 be
       0.2304933 0.06407923 0.16863455 -0.2398339
0001e0 15 39 1f 3e 71 25 85 bd 5e ad d7 bd e1 3f 51 3d
       0.15549119 -0.06501282 -0.10531114 0.05108631
0001f0 c9 72 ee bd c8 a9 36 3c 2b d1 62 be 95 bb be be
       -0.11642987 0.011148877 -0.22150104 -0.3725249
000200 4d df 22 3c a4 0d 1f be ee ed b1 3d fc 29 4b be
       0.009940934 -0.15532547 0.086879596 -0.19840235
000210 19 38 54 bd 63 db ff bd ba 77 62 be 92 d0 c6 bd
       -0.05181131 -0.124930166 -0.22115985 -0.097077504
000220 30 67 db be ad e3 27 3e e6 ec ab 3d 57 b8 3f be
       -0.42852163 0.16395445 0.08394794 -0.18722664
000230 5d 4a 9d be 3f cf 7f 3d 4c 89 14 be 32 00 7a be
       -0.30720797 0.062453505 -0.145055 -0.24414137
000240 42 70 23 3e 77 e7 ad 3d c3 39 f8 bd 21 f0 41 3c
       0.15960792 0.08491414 -0.12120392 0.011837036
000250 39 93 8b be 9e 5d 10 be bf 46 b6 3d 65 6c a4 bd
       -0.2726076 -0.14098212 0.089002125 -0.08028487
000260 e3 67 ca 3d e5 05 0c bf 50 0d 27 3e 49 37 56 be
       0.09883096 -0.54696494 0.16313672 -0.20919527
000270 eb 2b 0a 3d 73 93 61 bd 67 26 4f be df 31 19 3d
       0.03373329 -0.05507226 -0.20229493 0.037401076
000280 4b 1c 59 be 62 21 52 3d 43 0d 44 be 8e b1 01 3d
       -0.21202199 0.051301368 -0.19145684 0.03166347
000290 38 15 57 bd ef c5 c3 3d 6a 99 9c 3d 19 2b 56 bd
       -0.05251047 0.09559237 0.07646449 -0.052287195
0002a0 43 6a bb 3c ca bf 8d be 9b b2 f6 be ab 91 e0 bc
       0.022877818 -0.27685386 -0.4818314 -0.02741321
0002b0 45 9d 47 3e 39 51 92 ba f5 f2 09 3e 2d 5c 64 be
       0.19493587 -0.0011163122 0.13471587 -0.22300787
0002c0 af ca 56 be 8a dc b9 3d 14 3a b7 be 0c 79 cd bd
       -0.20975755 0.090752676 -0.35786498 -0.100328535
0002d0 c8 32 70 be b2 97 9f bd 5e a4 b2 bc a1 e0 45 be
       -0.23456872 -0.077926055 -0.021806892 -0.1932397
0002e0 06 b5 3a 3c 22 b7 56 3e 63 45 a7 3c c7 aa 1d bf
       0.011395698 0.20968297 0.020418828 -0.6158871
0002f0 69 b2 1a be 9c 3b 24 3e 20 75 02 3d 33 52 01 be
       -0.1510712 0.16038364 0.03184998 -0.12629013
000300 ab ba 60 3c 0a ae 60 bc e6 d4 43 3e 75 03 06 bd
       0.01371638 -0.013713369 0.19124183 -0.03271814
000310 08 3d ab 3d 02 b4 f0 3d 57 56 88 be 98 4e 47 bd
       0.0836125 0.11753084 -0.26628372 -0.048658937
000320 3e 8f 94 3c 31 81 91 be c9 89 52 be 4b 0e ce bb
       0.01813471 -0.28418878 -0.20560373 -0.006288325
000330 a4 bc 63 be 9f 32 00 be 9c 2d 2f bb b7 43 08 be
       -0.2223993 -0.1251931 -0.0026730066 -0.13307081
000340 61 4c 61 bd 82 e7 9a bd a4 d3 76 bd af 43 32 bc
       -0.05500448 -0.07563688 -0.06026043 -0.010880395
000350 0d 9e 2a 3d 2a 11 1a be 0f ac 1b bc 3d 69 dd 3d
       0.041654635 -0.1504561 -0.009501471 0.10811088
000360 b6 cf ed 3d df 4a 88 be 9c f7 c0 bd ca 77 51 be
       0.11611883 -0.26619622 -0.09422228 -0.20455852
000370 30 a4 92 be 3c 78 97 3e 5b 5a 23 3d d9 70 5f 3e
       -0.2864089 0.2958392 0.03988109 0.21820392
000380 11 3d 3b 3d 6d 6d 12 bd c9 53 70 be 86 b1 1b bd
       0.045712534 -0.035748888 -0.23469462 -0.038011096
000390 10 4c b7 3d f2 97 99 bd 4e 8a 58 be b5 57 a8 3d
       0.08950055 -0.074996844 -0.21146509 0.08219854
0003a0 88 ca 1b 3d 93 30 7d 3e 5e ce 15 be 07 2a a2 be
       0.038034946 0.24725561 -0.14629504 -0.3167269
0003b0 30 e7 51 3d 24 c1 17 3e 53 8a 00 bf 29 e7 81 3e
       0.05124587 0.14819771 -0.50211066 0.25371674
0003c0 de 9a 93 3d ad ca 4e 3e 71 9d cc 3d 1e 00 ee 3e
       0.07207273 0.20194502 0.09990967 0.46484464
0003d0 9e 43 d1 bd f1 0e 02 3d db 42 48 3d 7e c1 a9 3e
       -0.10217975 0.03175253 0.048891883 0.33155435
0003e0 49 a3 95 bc 66 54 a4 3d fe 75 7f bb 7c 3e 4f 3d
       -0.018266337 0.0802391 -0.003898024 0.0505967
0003f0 83 35 48 3e 8b 51 c0 bb 34 a5 1f be 9b 2b a6 bd
       0.19551663 -0.0058690957 -0.15590364 -0.08113786

rnn.bias_ih_l1 f4 [16]
000000 18 46 53 be a1 b7 2b 3e 1a 69 ae 3d e0 9a 5f 3e
       -0.20632207 0.16769268 0.0851614 0.21836424
000010 8a 57 01 3e 72 82 42 3e 42 95 13 be f4 d6 13 be
       0.1263105 0.18995073 -0.14412406 -0.14437467
000020 6b ac 90 bd 21 5a dc bd 9e f8 c4 bd 3b 55 20 be
       -0.07064136 -0.10759378 -0.096177325 -0.15657513
000030 09 e2 30 be 3d 0d 67 3e df 15 11 bd 63 e3 3e 3e
       -0.17273726 0.22563644 -0.03542125 0.18641429

rnn.bias_hh_l1 f4 [16]
000000 98 0b 48 3e 1e 58 8b 3e 06 f2 5b be c4 1e 3b bd
       0.19535673 0.27215666 -0.21479043 -0.045683637
000010 ae 8b 27 3e 9c 0b e0 3d 74 36 34 3b ed c2 25 be
       0.16361877 0.10939714 0.0027498277 -0.1618764
000020 11 35 c2 bd 17 75 c5 bd a8 72 89 be f0 1f 77 3d
       -0.09482778 -0.09641474 -0.26845288 0.060333192
000030 27 fd ae 3d 7b e8 03 3e 73 62 5b bd 0e c7 ac bc
       0.08544379 0.12881653 -0.053560685 -0.02109101

fc.weight f4 [2, 16]
000000 81 de 52 3e 0c ef c2 bd d4 cc 39 3e f9 0a 5a bc
       0.20592691 -0.09518251 0.18144542 -0.01330828
000010 6f d9 01 3e b1 a9 14 3a bf 45 d7 bb 23 e7 4d bd
       0.126806 0.0005671038 -0.0065695937 -0.050269257
000020 76 6e 03 3e 84 ea 0f bb 29 cd 2f 3e 2d e0 b8 3d
       0.12835106 -0.002195985 0.17168106 0.09027133
000030 0d 99 3d be f4 23 da bd 3f f0 22 bc 7e d1 9d 3d
       -0.18515415 -0.10651389 -0.009944974 0.07705973
000040 fa a9 a4 3d 92 99 f0 bd a8 61 e9 3d ee ed 04 bd
       0.08040233 -0.11748041 0.113955796 -0.03245347
000050 7e 68 62 3e 05 56 69 bd db 75 e7 3d 58 3a 3a be
       0.22110173 -0.0569668 0.11301776 -0.18186319
000060 81 93 12 3e 32 f0 2b bb 26 f0 33 3e 63 c7 f3 3d
       0.14314081 -0.0026235697 0.17572078 0.119032644
000070 cc e2 53 be eb 49 3e 3d 19 ed 6a bd 0a 9d 52 3e
       -0.20691985 0.046457212 -0.05735502 0.20567718

fc.bias f4 [2]
000000 31 af aa 3d 67 15 7c be
       0.08334196 -0.2461754
