detector/models/32_1_32_5_32_0.001_covert_detector_2.pth (torch, 8433 bytes, 6 tensors)

rnn.weight_ih_l0 f4 [32, 3]
0.46692133 0.014676199 0.5429448 0.01616285 0.017156199 0.14054497 0.15787065 0.02998485
0.06616615 -0.0815268 -0.016708476 -0.058618147 0.03308688 0.02993767 -0.035654403 -0.039316
0.034968987 0.37768033 0.00051055575 0.06128958 -0.10761354 0.12211258 0.032946046 0.23584291
0.266359 0.03224194 -0.075475216 0.18621436 0.02617209 0.22212112 0.15718347 0.037709437
0.11003639 0.008010805 0.030939633 0.0076436773 0.059689905 0.060126405 0.36400777 0.6096196
0.008379574 0.61517334 0.12496684 -0.031726573 0.11929618 -0.027988065 -0.02459623 -0.0978713
-0.08667083 -0.020314213 -0.062182434 -0.11371133 0.022884427 -0.11462474 0.097489454 0.017854098
-0.017617984 -0.050537005 0.031375438 -0.09082038 0.22977789 0.034703903 -0.072104484 0.106056914
0.027713427 0.08982979 0.25915995 0.043729197 0.08874483 -0.21875799 -0.03079362 -0.2533468
-0.69754434 -0.009706188 -0.5273638 -0.2682287 -0.012216985 -0.46531323 -0.016104905 -0.014809166
0.020434571 -0.3281298 -0.02996988 -0.37997597 0.8432715 -0.0034400506 0.7370317 0.2500004
0.03831809 0.16191275 0.2032282 0.007245842 0.24448569 -0.11969783 -0.033745892 0.025928535
00000000: 5010 ef3e 7174 703c 6efe 0a3f f467 843c
00000010: 288b 8c3c 05eb 0f3e d8a8 213e caa2 f53c
00000020: 1e82 873d 86f7 a6bd 37e0 88bc 9519 70bd
00000030: 1c86 073d d83f f53c 5a0a 12bd d009 21bd
00000040: a43b 0f3d 515f c13e d1d6 053a c80a 7b3d
00000050: 7d64 dcbd 2916 fa3d 6ff2 063d ce80 713e
00000060: 3560 883e 2010 043d c092 9abd faae 3e3e
00000070: da66 d63c b873 633e b4f4 203e 3675 1a3d
00000080: c25a e13d c03f 033c 1d75 fd3c d077 fa3b
00000090: 677d 743d 1b47 763d 3a5f ba3e 0810 1c3f
000000a0: 7b4a 093c 007c 1d3f 9dee ff3d b9f3 01bd
000000b0: 8e51 f43d 3a47 e5bc 087e c9bc c070 c8bd
000000c0: 7a80 b1bd fe69 a6bc 02b3 7ebd 7ce1 e8bd
000000d0: 1f78 bb3c 60c0 eabd 8da8 c73d c242 923c
000000e0: 9753 90bc e4ff 4ebd 8883 003d 0900 babd
000000f0: e54a 6b3e ae25 0e3d 84ab 93bd 5e34 d93d
00000100: 4507 e33c aef8 b73d 9db0 843e 631d 333d
00000110: d9bf b53d 1802 60be e742 fcbc acb6 81be
00000120: 4492 32bf b406 1fbc 5001 07bf 4655 89be
00000130: c029 48bc 893d eebe 6fee 83bc 25a2 72bc
00000140: 6766 a73c a100 a8be 6583 f5bc 368c c2be
00000150: a4e0 573f 7972 61bb 1cae 3c3f 0d00 803e
00000160: 6ef3 1c3d 75cc 253e 0e1b 503e 876e ed3b
00000170: 755a 7a3e 2324 f5bd 2239 0abd 1468 d43c

rnn.weight_hh_l0 f4 [32, 32]
-0.24474706 -1.0111076 0.5074498 -0.64138085 0.4056441 0.51055384 0.63107175 0.8087474
0.84869915 -1.1068865 0.47543585 0.6210855 0.8937199 0.3865044 -0.4671411 0.37008685
-1.183967 -0.65893537 0.7141524 0.63597304 0.34936544 -0.10942854 0.71212196 -0.33835775
-0.36194578 -0.9856114 0.49820098 0.50670403 0.593574 0.8736581 0.6300085 -0.8879706
0.5730861 -0.3742296 0.28248215 -0.04967657 0.043736443 -0.009511335 -0.17193645 0.3009377
0.7135722 0.17689489 -0.12692647 0.7724074 0.29373926 0.18068163 -0.18969513 -0.015910486
-0.6621426 -0.08719383 0.6630618 0.47984695 0.26182234 0.64696896 0.05184535 0.013712529
-0.38928053 -0.6291174 0.20580243 0.15509991 0.34354448 -0.033532016 0.16796185 -0.4471729
0.14608793 0.10077173 0.14409254 -0.28303242 0.42391083 0.21955563 0.67608446 0.021235913
0.43520355 0.067245275 -0.18601808 0.19371243 -0.26236293 -0.25111976 -0.07342588 0.37945968
0.08775097 -0.332242 -0.43834352 0.47507387 0.3425153 0.030660376 0.3051834 -0.19622903
0.023005307 0.03347388 -0.17920001 0.4791089 0.35091695 0.21039338 0.56940556 0.112202324
0.32316962 0.052197024 -0.05824534 -0.17124121 -0.22422302 -0.14023936 -0.43313468 0.3837783
0.30238074 -0.014490614 -0.23810491 0.3215965 0.26434448 0.116574764 -0.081470974 -0.34148353
-0.23324005 0.018206088 0.33225498 -0.13751833 -0.27448007 0.058231894 -0.06593762 0.07771908
-0.22478703 -0.40646264 0.18107972 -0.20329343 0.16035499 0.01686344 -0.44547293 -0.5381813
-0.14399968 -0.2065621 -0.47234824 0.42972213 0.0243312 0.09620772 0.3960642 -0.3968801
-0.17209806 0.24201302 -0.15407862 -0.21499093 -0.05521071 -0.19740854 -0.094678216 0.2800684
0.40865588 -0.12223966 -0.07479445 -0.061094705 0.49727204 -0.0799752 0.07558604 -0.16556785
-0.109438755 0.13366127 -0.35481042 0.117875226 -0.18685457 0.18386161 0.360512 0.41492242
0.05855776 -0.0506444 -0.15967599 0.15239769 -0.06355472 0.16311175 -0.03336154 0.12626523
0.13672256 0.08868791 -0.20241567 0.1808085 0.4608439 0.14521089 0.11389177 0.35737708
0.15699622 -0.3044204 0.17705324 -0.08676426 -0.09435729 0.15140733 0.04800907 0.0117607815
-0.03231255 0.031296883 0.21287307 0.13461249 0.087823994 0.11487951 -0.16734362 0.2756734
-0.11288943 0.25509563 -0.07457809 0.17223133 -0.02261461 0.12247409 -0.11787075 -0.16903526
0.017768312 -0.08312612 -0.1777827 0.11596595 0.07399352 0.0005694743 0.10896655 0.05437572
0.04420566 -0.18015261 -0.031721156 0.34390342 0.21893002 -0.07101829 0.37342015 -0.21666731
-0.10593914 0.14715795 -0.25327215 0.2059959 0.046896387 0.11068729 0.19754739 -0.002792032
-0.06209417 -0.096309215 -0.07708896 -0.3553044 0.1374607 -0.14534011 0.42179048 0.1433355
0.26182485 -0.35535514 0.26174846 -0.4584326 -0.16826774 0.065205716 -0.19537216 0.012962222
0.10101263 0.1991822 -0.39814532 -0.037414104 0.45075732 -0.32386523 0.2421495 -0.01628045
0.027579928 -0.1392516 -0.007154438 -0.1795365 -0.04443192 0.065137185 0.3943519 -0.07736977
00000000: f99e 7abe f96b 81bf 3be8 013f 8931 24bf
00000010: 95b0 cf3e a8b3 023f eb8d 213f 120a 4f3f
00000020: 5944 593f 75ae 8dbf 546c f33e 76ff 1e3f
00000030: d4ca 643f e8e3 c53e 1e2d efbe 067c bd3e
00000040: 3b8c 97bf fdaf 28bf b1d2 363f 21cf 223f
00000050: 07e0 b23e 121c e0bd a04d 363f 3a3d adbe
00000060: f550 b9be 0751 7cbf 3314 ff3e 5bb7 013f
00000070: 77f4 173f 0fa8 5f3f 3d48 213f 0b52 63bf
00000080: c5b5 123f 069b bfbe 80a1 903e a979 4bbd
00000090: fc24 333d 6ed5 1bbc 1c10 30be 8214 9a3e
000000a0: abac 363f ef23 353e 03f9 01be 7ebc 453f
000000b0: fe64 963e 9b04 393e 713f 42be b556 82bc
000000c0: 2d82 29bf ae92 b2bd 6bbe 293f 80ae f53e
000000d0: 940d 863e c29f 253f ca5b 543d 84aa 603c
000000e0: c74f c7be d70d 21bf dfbd 523e 83d2 1e3e
000000f0: 10e5 af3e de58 09bd 31fe 2b3e d9f3 e4be
00000100: 1398 153e 6961 ce3d ff8c 133e a0e9 90be
00000110: d70a d93e 31d3 603e df13 2d3f f0f6 ad3c
00000120: 00d3 de3e e4b7 893d 867b 3ebe 8d5c 463e
00000130: 6f54 86be c592 80be 4f60 96bd 8a48 c23e
00000140: c8b6 b33d a01b aabe 906e e0be e23c f33e
00000150: 2a5e af3e 782b fb3c 0041 9c3e 43f0 48be
00000160: a075 bc3c e81b 093d 3580 37be c34d f53e
00000170: 63ab b33e 5d71 573e 90c4 113f 55ca e53d
00000180: 7d76 a53e 8ccc 553d aa92 6ebd db59 2fbe
00000190: b89a 65be e89a 0fbe d4c3 ddbe 977e c43e
000001a0: a6d1 9a3e 0a6a 6dbc c6d1 73be 4ca8 a43e
000001b0: 2958 873e c0be ee3d 41da a6bd eed6 aebe
000001c0: 7bd6 6ebe ef24 953c 531d aa3e 9bd1 0cbe
000001d0: a788 8cbe 9184 6e3d 4e0a 87bd 2e2b 9f3d
000001e0: 922e 66be df1b d0be f66c 393e 272c 50be
000001f0: 1934 243e 3225 8a3c 0715 e4be 40c6 09bf
00000200: a774 13be 0485 53be a1d7 f1be 8a04 dc3e
00000210: 3a52 c73c 8e08 c53d edc8 ca3e de33 cbbe
00000220: 793a 30be 43d2 773e c9c6 1dbe 9526 5cbe
00000230: a024 62bd 7725 4abe a7e6 c1bd 2065 8f3e
00000240: 583b d13e c958 fabd d52d 99bd 713e 7abd
00000250: 719a fe3e 0aca a3bd dbcc 9a3d 9e8a 29be
00000260: 6d21 e0bd 80de 083e b6a9 b5be 9168 f13d
00000270: ce56 3fbe 3846 3c3e 0795 b83e b670 d43e
00000280: 43da 6f3d 8170 4fbd 1a82 23be 240e 1c3e
00000290: fa28 82bd c406 273e 1ca6 08bd ac4b 013e
000002a0: 0001 0c3e 02a2 b53d 0e46 4fbe dd25 393e
000002b0: bbf3 eb3e 2ab2 143e 1740 e93d 21fa b63e
000002c0: 9ec3 203e fedc 9bbe 724d 353e 76b1 b1bd
000002d0: 653e c1bd 860a 1b3e 29a5 443d 4bb0 403c
000002e0: 2a5a 04bd 2931 003d 66fb 593e dbd7 093e
000002f0: 11dd b33d f345 eb3d 205c 2bbe 1025 8d3e
00000300: 9332 e7bd e59b 823e 66bc 98bd 695d 303e
00000310: 4642 b9bc b2d3 fa3d 3866 f1bd 9417 2dbe
00000320: da8e 913c 073e aabd ab0c 36be 8e7f ed3d
00000330: ea89 973d c648 153a db29 df3d 13b9 5e3d
00000340: fe10 353d ed79 38be 0bee 01bd 1c14 b03e
00000350: 312f 603e 0a72 91bd ed30 bf3e 09de 5dbe
00000360: 9ff6 d8bd 93b0 163e e3ac 81be 97f0 523e
00000370: 6d16 403d 05b0 e23d dd49 4a3e 86fa 36bb
00000380: 7556 7ebd c43d c5bd d1e0 9dbd 75ea b5be
00000390: 7fc2 0c3e 0ad4 14be ecf4 d73e 8bc6 123e
000003a0: e80d 863e 1cf1 b5be e503 863e aeb7 eabe
000003b0: 614e 2cbe 938a 853d a40f 48be 805f 543c
000003c0: b6df ce3d 6bf6 4b3e b4d9 cbbe 883f 19bd
000003d0: aac9 e63e aad1 a5be 0af6 773e 945e 85bc
000003e0: 4def e13c f997 0ebe c76f eabb 6bd8 37be
000003f0: 3ffe 35bd a566 853d 7ee8 c93e 0b74 9ebd

rnn.bias_ih_l0 f4 [32]
0.5044045 0.23156868 0.036682647 -0.1908017 0.23464659 0.39432013 0.08192298 0.22759388
0.08857187 0.053868577 0.29846653 -0.13076581 0.27688137 0.78419536 0.3944369 0.054375976
-0.15235178 0.004945675 0.014482393 -0.18192388 0.0022214625 0.0014281607 0.085799105 -0.10166947
-0.89342666 -0.28152016 0.0667165 -0.14042969 1.307502 0.30247113 0.5211769 -0.031370625
00000000: a720 013f 5720 6d3e 8b40 163d 8561 43be
00000010: 3247 703e 54e4 c93e 3cc7 a73d 5f0e 693e
00000020: 2b65 b53d 4ca5 5c3d 9bd0 983e 79e7 05be
00000030: 65c3 8d3e 07c1 483f a2f3 c93e 58b9 5e3d
00000040: 1b02 1cbe 540f a23b 8f47 6d3c 414a 3abe
00000050: f595 113b 1f31 bb3a 71b7 af3d 1538 d0bd
00000060: 9cb7 64bf 6923 90be a9a2 883d cdcc 0fbe
00000070: 3a5c a73f 7fdd 9a3e d96b 053f 7c7e 00bd

rnn.bias_hh_l0 f4 [32]
0.5378945 0.29078573 0.05216382 -0.021675419 0.2112961 0.266866 -0.027381191 0.2866942
0.21098153 0.22438532 0.29186144 -0.06450883 0.21648602 0.8610384 0.24458896 -0.17473432
-0.1691428 0.044878494 -0.1208818 -0.18874091 0.26068467 -0.19270961 0.13631469 -0.0779015
-0.6236174 -0.19296981 -0.032625984 -0.4180735 1.2575191 0.26483396 0.48188332 -0.29014668
00000000: 74b3 093f dee1 943e bba9 553d a690 b1bc
00000010: 015e 583e a9a2 883e 854e e0bc 95c9 923e
00000020: 8b0b 583e 44c5 653e dd6e 953e 351d 84bd
00000030: 83ae 5d3e 036d 5c3f 8775 7a3e 8eed 32be
00000040: c533 2dbe 83d2 373d e190 f7bd 4c45 41be
00000050: 7678 853e ab55 45be 1496 0b3e d28a 9fbd
00000060: 64a5 1fbf e199 45be d3a2 05bd bb0d d6be
00000070: 63f6 a03f 5198 873e 69b9 f63e 1b8e 94be

fc.weight f4 [2, 32]
-0.2935557 -0.019308697 -0.028730048 -0.0016486068 -0.024353508 -0.024463516 0.09403161 0.04473586
-0.06859221 0.017055428 -0.011911486 -0.031414542 0.03694702 0.09965206 -0.0034640383 0.13671678
0.00040244075 0.0061338386 -0.028424455 -0.09119942 0.03686766 0.0428837 -0.07883089 0.015620954
-0.07999442 0.029980207 -0.058092654 0.15310244 -2.4600933 -0.13530694 -0.23640344 -0.032949604
0.17311035 0.14412692 0.0349469 0.12042682 -0.14419116 -0.09679927 -0.06383964 -0.06631159
-0.11018564 0.08230905 -0.12399217 -0.041584443 -0.27473053 0.17712961 -0.026134375 -0.14079504
0.062384088 0.12916899 -0.008926735 -0.05105232 -0.12675647 0.10928958 -0.017096281 0.055357825
0.037267376 -0.18065524 -0.0557233 -0.267539 2.3957453 0.06125761 0.005666339 -0.01717327
00000000: ef4c 96be 462d 9ebc 475b ebbc 1116 d8ba
00000010: 0281 c7bc b667 c8bc a593 c03d f33c 373d
00000020: 137a 8cbd d3b7 8b3c 6528 43bc 89ac 00bd
00000030: c255 173d 6116 cc3d eb04 63bb 7cff 0b3e
00000040: affe d239 5efe c83b 67da e8bc c3c6 babd
00000050: 8b02 173d d2a6 2f3d 1772 a1bd 08ef 7f3c
00000060: 1dd4 a3bd 0d99 f53c 90f2 6dbd e3c6 1c3e
00000070: 2b72 1dc0 e78d 0abe be13 72be 2af6 06bd
00000080: d743 313e 0296 133e 7b24 0f3d 56a2 f63d
00000090: d9a6 13be b23e c6bd 5bbe 82bd 5fce 87bd
000000a0: 02a9 e1bd a691 a83d 9bef fdbd 7354 2abd
000000b0: 7ba9 8cbe 7761 353e c217 d6bc 932c 10be
000000c0: 7586 7f3d e044 043e 7141 12bc 3d1c 51bd
000000d0: 73cc 01be 37d3 df3d 800d 8cbc e3be 623d
000000e0: ada5 183d b0fd 38be 1d3e 64bd dffa 88be
000000f0: e453 1940 42e9 7a3d b2ac b93b f5ae 8cbc

fc.bias f4 [2]
0.6292889 -0.38848358
00000000: 1419 213f 52e7 c6be
