detector/models/32_1_128_5_32_0.001_covert_detector_2.pth (torch, 8445 bytes, 6 tensors)

rnn.weight_ih_l0 f4 [32, 3]
000000 3b ae 37 3e db 3b 23 3d 8a c7 9e 3e 4a 95 95 3e
       0.17937557 0.039852004 0.3101161 0.2921546
000010 e2 c5 05 bd f8 4d 9a 3e 8e 57 59 be 50 94 6d bd
       -0.03265942 0.3013761 -0.21224806 -0.05800277
000020 be eb b1 be 56 98 05 3e 19 70 10 3d ad 84 76 bd
       -0.3475017 0.13046393 0.035263155 -0.060185123
000030 e8 b3 10 bd 1c c7 a6 bd 09 aa e8 bd f1 f1 0a 3d
       -0.035327822 -0.08143446 -0.11360557 0.03392214
000040 0e bc 51 bd 8b f9 03 be 65 50 e3 3e 44 76 b5 3c
       -0.051204734 -0.12888162 0.44397274 0.02215112
000050 9e a5 2a 3f 88 07 3e 3e b3 28 ec 3c 0b 32 2c 3e
       0.6665896 0.1855756 0.028828 0.16815965
000060 07 20 ea bd 80 6c 1a 3d 6b 32 3a 3d 43 e2 3d bf
       -0.1143189 0.03770113 0.04545824 -0.74173373
000070 a1 5c 84 bc 32 8a 47 bf 11 25 06 3d c9 3b e9 bd
       -0.01615745 -0.77945244 0.032750193 -0.11388356
000080 b3 7a 37 be 1c d5 e4 be 92 3f ba 3c f8 ec bf be
       -0.179179 -0.4469384 0.02273539 -0.3748548
000090 c8 59 f8 bd 5d 31 09 bd 6b c9 31 be 42 c2 9a 3e
       -0.121264994 -0.033494342 -0.17361991 0.30226332
0000a0 26 be 0e 3d ff 02 f3 3d ef 1d 0f be 29 4d 09 bd
       0.03484931 0.11865806 -0.13976263 -0.03352085
0000b0 df 5f 51 3d 19 94 e6 3d 2b a6 02 bd 96 fe 92 bb
       0.05111682 0.11258716 -0.03189675 -0.0044859154
0000c0 d9 b3 fc 3d 98 e1 03 3d 3c e1 e7 3d e1 14 90 be
       0.12338991 0.032197565 0.11322257 -0.2814093
0000d0 c5 49 60 bd cc ab ad be c5 8a 67 be a9 d2 09 bd
       -0.054757852 -0.33920133 -0.2261153 -0.033648167
0000e0 af 17 14 be 38 2f 36 be ae b2 9d bd e3 ba 88 be
       -0.1446216 -0.1779145 -0.07700096 -0.26705083
0000f0 ed bc 33 3e 4d 83 03 3d 88 3f 31 3e 77 78 19 3e
       0.17552538 0.03210764 0.17309391 0.1498736
000100 95 60 fc 3c d8 3d aa 3d b0 74 21 bd 12 a1 3d bd
       0.030807773 0.08312577 -0.039417922 -0.046296187
000110 60 ad 8e 3e d4 e4 d9 bd be 9e 13 3d 64 62 14 be
       0.2786665 -0.106393486 0.03604006 -0.14490658
000120 11 92 b7 be f9 c6 0f bd ad 1a 82 be ab 75 2b be
       -0.35853627 -0.035101864 -0.25410977 -0.16744106
000130 22 2f 20 3d ef 14 cc 3d 89 71 0d be da 5d 4f 3d
       0.03910745 0.0996493 -0.13812841 0.050626613
000140 c1 78 16 be af a3 41 3d 05 b7 5a bd 2a e0 32 3e
       -0.14694501 0.04727524 -0.053397197 0.17468324
000150 43 ae 4e 3e 50 c4 41 bd 3c 4d d4 3d 91 3e b8 bc
       0.20183663 -0.04730636 0.10366294 -0.022490771
000160 b7 0d 38 3d 30 dc 18 3e ce b2 06 be 20 bf f9 bc
       0.044934954 0.14927745 -0.13154146 -0.030486643
000170 53 67 96 be 0b 53 55 3d 61 9b 02 3d 40 a8 cf 3c
       -0.29375705 0.05208115 0.031886462 0.025348783

rnn.weight_hh_l0 f4 [32, 32]
000000 e1 15 0d bd 7e d2 46 be 1c 3b 4e 3e 81 65 98 3e
       -0.034444693 -0.19416234 0.20139736 0.2976494
000010 af 53 31 3d f9 16 72 bc d2 36 38 be 07 dd b5 3d
       0.043292698 -0.014775985 -0.17989662 0.08880048
000020 c7 9d 31 3e f0 29 61 be eb 4b 09 be ed cc 3a 3e
       0.17345344 -0.21988654 -0.13407867 0.18242235
000030 89 61 6e be 70 57 03 3d ff a6 85 be bd 4d fc bc
       -0.23279394 0.03206581 -0.2610397 -0.030798787
000040 13 6b bb bc a8 73 01 be 9e 00 f4 bc df 24 da bd
       -0.022878205 -0.12641776 -0.02978545 -0.10651564
000050 90 ee 7f 3e 50 bf 81 bd 7c a5 3a 3e e5 6c d8 bd
       0.24993348 -0.06335318 0.1822719 -0.10567645
000060 53 81 29 3e 21 96 2d bd e5 7b 87 bd 8f 8a ba bc
       0.1655324 -0.042379502 -0.06615428 -0.022771148
000070 f1 01 c6 3d cf a6 47 3e a9 5c 99 3d 85 79 46 3d
       0.09668339 0.19497226 0.07488377 0.048455734
000080 91 a8 b8 3e 42 94 e4 3d c7 1e 78 be d8 04 6c 3f
       0.36066106 0.111610904 -0.2423049 0.9219489
000090 a6 50 e7 3e 48 21 cd 3e 85 92 9c be 29 50 50 3f
       0.45178717 0.40064454 -0.30580536 0.81372315
0000a0 08 17 c2 be c3 2c ed be c6 18 7f be d5 0c 76 bf
       -0.37908196 -0.46323213 -0.24911794 -0.9611333
0000b0 d0 e6 3f bf 0c 81 2a 3e be 35 c3 3e b4 ac 11 3f
       -0.74961567 0.1665079 0.3812694 0.5690415
0000c0 03 95 17 bf ad f5 d7 be ee 36 17 3f a3 0e db be
       -0.5921175 -0.42179623 0.5906819 -0.42784604
0000d0 73 f8 1e 3f 53 23 17 bf cd b5 1f 3f d6 d5 45 3e
       0.62097853 -0.59038275 0.6238678 0.19319853
0000e0 90 97 4f bf 29 25 26 bf 7d dc e5 3d b6 c8 cb 3e
       -0.8109064 -0.6490045 0.112236954 0.39801568
0000f0 38 a6 22 3e d6 96 82 bf 17 8b df 3d 69 fb cb 3e
       0.1588372 -1.0202281 0.10915201 0.39840248
000100 ea ae 9d be d4 a0 68 bd 2b 17 6a 3d 3a 54 8d be
       -0.3079751 -0.056794003 0.057151 -0.27603322
000110 1a 42 0a bd 03 37 c3 bd ec f0 86 3e 17 2a 1c be
       -0.033754446 -0.09531977 0.26355684 -0.15250431
000120 77 45 54 3e 72 f5 92 3e 92 0c c9 3e 6a 6e 4f 3e
       0.20729624 0.28702885 0.39267403 0.20256963
000130 3c 7e 66 3e 83 39 d6 be ff d3 f3 bd 03 62 20 be
       0.22509092 -0.41840753 -0.119056694 -0.15662389
000140 cb 8c 24 3e b2 b2 04 3e fd 45 54 be f2 b7 5a 3e
       0.16069333 0.12958792 -0.20729823 0.21359232
000150 84 89 c6 be 7b 7f 70 3e 68 60 0e 3d 37 33 8a 3e
       -0.3877679 0.2348613 0.03475991 0.269922
000160 15 35 08 3e 6d 14 4f bd 04 0f 93 3e 45 a0 cb 3c
       0.13301499 -0.05055659 0.28722394 0.024856696
000170 21 44 15 be cd 49 18 3e 93 eb 33 3d 04 4f 50 bd
       -0.1457677 0.14871903 0.043925833 -0.050856605
000180 6a cc 6f bd 9c 3f b2 be 6c cd 09 3d 1b 1c 34 be
       -0.058544554 -0.34814155 0.03364317 -0.17588846
000190 1c c8 88 3d 4b 92 2d 3e 9f ba 8c be 17 4f 77 3e
       0.06678793 0.16950338 -0.2748613 0.24151264
0001a0 7a f3 b3 3e 25 37 ed bd ee ed c4 bd 20 d5 d7 3e
       0.35146695 -0.115827836 -0.09615694 0.4215479
0001b0 27 6d 0c bf ec b9 bc 3e e6 00 a6 be c4 3e 89 3e
       -0.54854053 0.36860597 -0.3242256 0.268057
0001c0 d1 e6 0f be 93 38 71 3e 30 e1 00 bf 8b eb 5e bd
       -0.14052893 0.23556738 -0.5034361 -0.05442385
0001d0 16 30 a9 3e 79 c8 69 3e 4e be 2e 3d 08 09 ed 3d
       0.330445 0.2283038 0.042661957 0.11573988
0001e0 15 f1 80 3e 5e 27 23 bd b0 15 5f be df b6 ad 3b
       0.2518393 -0.039832465 -0.21785617 0.005301341
0001f0 79 d8 12 bd 1f 52 b6 3e 65 e0 97 bc 7b 91 13 3f
       -0.035850976 0.35609528 -0.018539617 0.5764386
000200 28 08 88 be f5 44 11 3e da d6 26 3e 1f d9 05 bd
       -0.26568723 0.14186461 0.16292897 -0.032677766
000210 3f 0c 8d bd de bc ce bd 55 05 c8 3d 7d 2f b3 bd
       -0.068871014 -0.10094617 0.09766642 -0.08749292
000220 d2 94 f9 3d bc fc df 3d 64 4c 20 3e 73 6f 89 bd
       0.12186588 0.10936877 0.1565414 -0.067107104
000230 0a 82 0a 3e 9d 78 1f 3e e1 e6 22 3d b4 24 0f be
       0.13526168 0.15573354 0.039770965 -0.13978845
000240 9a 73 f9 bb be 69 80 3e 66 89 3c be b4 f6 6c 3e
       -0.0076126577 0.25080675 -0.18411788 0.23140985
000250 e1 19 34 bd d2 a5 cc b9 61 d5 59 3d ef 3c 82 bc
       -0.043969993 -0.00039033458 0.05318201 -0.015898196
000260 94 47 15 bd f3 b3 03 be 67 c0 f5 bd c6 42 4d be
       -0.036445215 -0.12861614 -0.119995885 -0.20045003
000270 42 79 55 bd e9 7f f0 3d 99 ae 3c bd aa 11 13 be
       -0.052117594 0.11743147 -0.046064947 -0.14362207
000280 d0 18 65 be ff b7 11 3e 6f 7f a7 3e 90 62 9b ba
       -0.22372746 0.14230345 0.32714412 -0.0011854935
000290 6d cc 6f 3e e4 f2 55 3e 8c 58 26 3e 87 e6 1b be
       0.23417826 0.20893437 0.16244715 -0.15224658
0002a0 99 a0 be bd 06 4a 61 3d f1 aa 1c 3d 0d 53 b1 3c
       -0.09307975 0.055002235 0.03824896 0.021646047
0002b0 5e 92 c0 bc f1 7e a2 3e 39 dc 94 bd a5 5e 36 3e
       -0.023507293 0.31737474 -0.07268567 0.17809542
0002c0 b8 93 05 bc 3e 86 85 3e 0a a0 12 be f5 fd 7c 3e
       -0.008152895 0.2607898 -0.14318863 0.24706252
0002d0 ca 1c 73 3e d7 e3 0f 3e f0 70 8d 3e e9 5e e2 3d
       0.23741451 0.14051758 0.27625227 0.11053259
0002e0 2a 81 0d 3d fe c3 03 bd a0 a9 43 3e 37 7e 06 bd
       0.03454701 -0.032169335 0.19107676 -0.03283521
0002f0 50 43 fc 3d 8a 4d dc 3d 7e 0e 46 3e 00 2e b5 3d
       0.12317526 0.10756977 0.19341466 0.088466644
000300 71 04 9b 3f d2 77 f4 3e ad 9b 83 bf 02 ef 17 3f
       1.211073 0.47747666 -1.0281883 0.5934907
000310 13 70 05 3e 01 1f 75 3e 51 f0 00 3e e6 71 15 3f
       0.13031034 0.23937608 0.12591673 0.5837692
000320 3a 87 09 bf 68 98 73 bf 01 1e 6a bf 24 58 0b bf
       -0.53721964 -0.9515443 -0.9145203 -0.54431367
000330 b7 f7 09 bf ce 06 48 bf fb a5 44 3f ca 56 39 3f
       -0.5389361 -0.78135383 0.76815766 0.72398055
000340 33 38 13 bf ea ee 84 bf 04 23 20 3f 06 d9 69 bf
       -0.5750763 -1.0385411 0.6255343 -0.91346776
000350 ea 1f 91 be 29 6f 36 bf 01 cb 8c 3e de 70 30 bf
       -0.2834466 -0.71263367 0.2749863 -0.6892222
000360 52 59 34 bf 9e 3b 03 3f 2e 69 d7 be b5 a4 f7 3e
       -0.7044879 0.51262844 -0.42072433 0.4836785
000370 f0 b9 c5 3e 0c fb 11 bf 04 6d 05 3f dd b4 0b 3f
       0.38618422 -0.5702369 0.5211947 0.5457285
000380 f5 9f 2b bd 92 d1 96 be cd 0f c0 3d e6 96 c0 be
       -0.041900594 -0.29456764 0.09378014 -0.37615126
000390 64 cf 46 3d 1d 74 9b bb dd 21 ed bd f9 e4 97 be
       0.048537627 -0.0047440664 -0.115787245 -0.2966688
0003a0 85 26 1c 3f db 4e 4c 3d 8b 50 96 be 6b d4 3e 3f
       0.60996276 0.04987989 -0.29358324 0.74542874
0003b0 8e c5 72 3e ba a8 f4 3d 4f 49 0b bf ad 0c 2c bd
       0.23708174 0.119462445 -0.54408735 -0.042004276
0003c0 da 50 c7 3e c0 22 1c 3e fc 89 27 bf af 31 01 3d
       0.38928872 0.15247631 -0.6544492 0.031541523
0003d0 e6 67 a8 3e cb 43 c1 3e 16 3d 03 3e c0 c4 a5 be
       0.32891768 0.37747034 0.12816271 -0.3237667
0003e0 0d 4f 99 3e 33 a6 ef be dc 99 06 bd 0e e4 d2 3c
       0.29943123 -0.46806487 -0.032861575 0.02574351
0003f0 af 03 77 3d 8d c2 2d 3f 77 30 98 3e 41 7a f7 3e
       0.060306247 0.67874986 0.29724476 0.4833546

rnn.bias_ih_l0 f4 [32]
000000 46 e8 0f 3e ef 7a c4 3e 41 c6 1c be 90 ca 87 bb
       0.14053449 0.3837504 -0.15310003 -0.0041440204
000010 30 4e 1f be 12 26 00 3e e9 dd 37 3f ab 34 89 3e
       -0.1555717 0.12514523 0.71822983 0.26797995
000020 b1 05 12 be 99 f1 7f bf 3e 73 8c bd b0 bd 01 bf
       -0.14259984 -0.99978024 -0.06857918 -0.50680065
000030 bc 7f 9b be 28 ae 2a 3e 6e 3d 2a bd 33 7d 00 be
       -0.3037089 0.16667998 -0.04156249 -0.1254776
000040 8a c8 86 3d 7c da 95 be 03 4f 2f bd ff 7d 52 be
       0.065812185 -0.29268253 -0.04279996 -0.20555876
000050 13 55 96 3e 6e 62 0f bd b2 44 8c 3e 34 0a 94 be
       0.2936178 -0.03500598 0.2739616 -0.28914034
000060 db 80 27 bf 4e eb 20 3e a8 c3 94 bd fd 22 84 3b
       -0.6543099 0.15714762 -0.07263881 0.0040324912
000070 d4 4e 32 3e 7c f8 56 3e 0b ea 7f bd 5b a8 1d 3e
       0.17412883 0.20993227 -0.06247906 0.15396254

rnn.bias_hh_l0 f4 [32]
000000 f3 08 96 3e ff 58 0a 3e 4e b8 7e be 02 28 31 3e
       0.29303703 0.13510512 -0.24874994 0.17300418
000010 77 fe 5a 3d 54 27 c5 3d 3a 5e 1b 3f b6 8e 8a 3e
       0.053465333 0.09626642 0.60690653 0.27062005
000020 c6 14 9d bd 25 bb 4d bf 76 47 3c be f2 cb da be
       -0.07669978 -0.80363685 -0.18386635 -0.42733723
000030 a2 cc b4 be 3f 3a ae 3e 1e 2c ab 3d 54 11 43 bc
       -0.35312372 0.34028813 0.08358024 -0.011905987
000040 0e e9 b7 bd ba 0d 1f be 8d 3e 93 bc bd 86 95 bd
       -0.089799985 -0.1553258 -0.017974162 -0.0730109
000050 1d 97 b4 3e 6c ee ee bd cf 42 e1 3d 7f c7 93 be
       0.3527154 -0.11666569 0.10999071 -0.2886314
000060 7f bf 2e bf 2a 5e e3 3d 70 e9 d5 bb ca e2 1a 3e
       -0.6826095 0.11101945 -0.006528072 0.15125576
000070 d0 2f 9b 3e d0 ec c7 3d 9a 25 03 be da a6 30 3e
       0.30309916 0.09761965 -0.12807313 0.17251149

fc.weight f4 [2, 32]
000000 96 76 87 3e 52 b4 87 3c 51 c8 86 be 7f 53 e1 bd
       0.2645766 0.016565476 -0.26324704 -0.11002254
000010 76 24 51 be ba 86 8c 3d 2f 9e 0b c0 b0 87 e2 3b
       -0.20424065 0.068616346 -2.1815298 0.006913148
000020 bb f8 76 be 6d c6 9e be 36 d4 cf be 82 08 a6 3c
       -0.2411832 -0.31010762 -0.40591592 0.020267729
000030 30 a9 9f 3d 0b cb 9b be ae 10 5a 3e 97 2a d3 bd
       0.07795942 -0.30428347 0.21295425 -0.10310858
000040 e5 6b 16 3d 3a 8d d5 be de 35 23 be 9a 50 eb be
       0.03672399 -0.4170931 -0.15938517 -0.45959932
000050 a7 25 86 bc 80 ef 46 3e ad 3d 22 3e 20 02 a8 be
       -0.016375376 0.194273 0.1584384 -0.3281412
000060 57 9b a4 3d ef 66 ba 3e 33 6f 99 be 71 37 55 be
       0.08037441 0.36406657 -0.2996765 -0.2082193
000070 8b 08 79 3d 6b 8d 18 3e c8 5e 1e 3e d3 67 c4 bc
       0.060799163 0.14897697 0.15465844 -0.023975288
000080 fb c3 ca be 7d bb 3a 3e b9 94 9e 3e 1a f2 22 3e
       -0.39602646 0.18235584 0.3097284 0.15912667
000090 f6 87 0f 3e a1 c8 23 3e 91 91 fd 3f 54 cf 6e 3e
       0.14016709 0.15994503 1.9810048 0.23321277
0000a0 5d 78 33 3e 70 69 d0 3d fe 47 fa 3e 4a 3c 2b be
       0.17526384 0.101763606 0.4888305 -0.16722217
0000b0 bf ad 44 be 2b 7e 88 3e e0 f9 72 be ff 34 3a 3e
       -0.19206904 0.2665876 -0.23728132 0.18184279
0000c0 7d 8d e2 bd f7 3e cf 3e 12 34 80 3d 2c aa b9 3e
       -0.11062143 0.40477726 0.062599316 0.36262643
0000d0 23 14 7f bd fc e4 44 3d e8 4a 79 3d 56 12 e6 3e
       -0.062275063 0.04806994 0.06086245 0.44935864
0000e0 2e 3a fa bd d7 15 df be af 7e c1 3d d2 ff 80 bd
       -0.12218128 -0.4357135 0.09447991 -0.06298794
0000f0 d9 7f 1e be a9 33 e5 3d 10 53 8a be 15 c1 fa bd
       -0.15478458 0.11191494 -0.27016497 -0.12243859

fc.bias f4 [2]
000000 7e 46 68 3f 82 65 49 bf
       0.9073256 -0.78670514
