detector/models/32_1_64_5_32_0.001_covert_detector_2.pth (torch, 8433 bytes, 6 tensors)

rnn.weight_ih_l0 f4 [32, 3]
00000000: 614e 483e 6206 dc3c b7f6 963e 1240 98be
00000010: 9760 25bd a754 9ebe 2310 3dbe 42ce 8fbe
00000020: c9ad 5bbd 3a35 893e 4f91 0a3d bc7c 373e
00000030: a830 2dbd f316 113d caa3 2c3e ad54 653e
00000040: 4675 f43c f0ee 2f3e 2f72 8a3e 6a08 b23c
00000050: 4f28 383f b152 38be 9001 493c d228 2b3e
00000060: 7242 0fbe f112 0cbd 1731 b3bd 4a8d 19bd
00000070: 5124 53bd a548 d13b cf34 1a3e 5376 2c3d
00000080: 56b8 e23e 4633 0ebe d5a4 1dbd 7592 6dbd
00000090: 11c7 fbbe 5c80 283d c9c6 00bf 5d8a 013e
000000a0: 661e 223d f3d8 4d3d adc8 1bbe da34 1b3d
000000b0: 1f3e 153d df21 ca3c b902 28bd 608d 32bd
000000c0: a964 403b add4 15bd e46a 8fbd f093 493f
000000d0: 439b 3f3b 7583 1e3f 2054 da3d c333 633e
000000e0: 75b7 31bc 8290 22be 65e8 4dbe de5f f3bd
000000f0: 8f41 d2bd adf2 f7bc 0ae7 87bd 3f61 1bbe
00000100: b4ab 69bc 2b40 12be 03b3 243f 910e 363c
00000110: 8855 ff3e f392 1abe 2233 18bd f427 64be
00000120: 2f33 19bf 4b34 a8bc 3d4f dabe 75c4 243e
00000130: 17ed 1abd 3af0 cdbd 6917 d03d 9a74 1cbd
00000140: 3d46 26be cf1e c3bd 3e38 85bc 48e9 5abe
00000150: 2628 6b3e 77d3 843a 6cea cc3e f15a 74be
00000160: 335f 9dbc 4ec8 a2be f543 5b3f 6aca 5fbb
00000170: 1ab2 353f fcaa 8abc f649 ebbc 9058 c13d
0.19561149 0.026858512 0.29485103 -0.29736382 -0.04037532 -0.3092396 -0.18463187 -0.2808705
-0.05363253 0.2679842 0.033829983 0.17918676 -0.04228273 0.035422277 0.16859356 0.22395582
0.029841077 0.17180991 0.2704024 0.021732528 0.71936506 -0.18000294 0.012268439 0.1671479
-0.1399019 -0.03419775 -0.087495975 -0.03748826 -0.051548306 0.0063868337 0.15059207 0.04210503
0.44281262 -0.13886747 -0.038487274 -0.058001 -0.49175313 0.041138038 -0.5030332 0.12650438
0.03957977 0.050255727 -0.1521327 0.0378922 0.036436196 0.024674354 -0.04101822 -0.043591857
0.0029356873 -0.036579777 -0.0700281 0.7874136 0.002923683 0.6191934 0.10660577 0.22187714
-0.010846962 -0.15875438 -0.20108183 -0.118835196 -0.102664106 -0.030267084 -0.06635864 -0.15173815
-0.014262129 -0.1428229 0.6433565 0.011111871 0.49869943 -0.15095119 -0.03715814 -0.22280866
-0.59843725 -0.020532748 -0.4263858 0.16090567 -0.037823763 -0.10055585 0.10160715 -0.038197137
-0.16237731 -0.09527361 -0.01626217 -0.21378052 0.22964534 0.0010133822 0.400226 -0.23862816
-0.019210434 -0.31793445 0.8565057 -0.0034147748 0.70974886 -0.016927235 -0.02872179 0.0944072

rnn.weight_hh_l0 f4 [32, 32]
00000000: ac3f 44bb ff98 a93d a551 b7be 996f 143d
00000010: f62d 0dbf f636 823d b7bc 18bf d476 363e
00000020: bb96 e73e 7ba3 0e3f 43e6 f83e d7ec ca3e
00000030: 0c79 f1be dd0d 54bd 5247 d4be 18b4 923d
00000040: 8cc2 2a3c 1875 1f3f 1286 693e 16db 61be
00000050: 9d44 573d e829 2ebf d83d d63e 0831 863e
00000060: 1f00 16bd d145 d2be c111 1d3f 22dc 103d
00000070: a66c 2dbe 40a2 27bf 4ca9 2dbc 39ed 5fbd
00000080: d7b9 76be 6bfa 88be 65a2 a03e 293d 35bf
00000090: cd51 8abe f7ac 1abf 3806 26be 45a5 3dbe
000000a0: c908 0b3e 17fa 123f 3f61 85be 48b0 243f
000000b0: 7746 a33d 111e 5dbd 67bf 15bf 0854 833d
000000c0: 5506 243f 8d42 abbd e598 97be 9008 613e
000000d0: 09eb 92bc ec74 903e f01e 60be 25d6 4b3e
000000e0: e366 f93e ce3c 1abf ccd9 363e 7e59 3a3f
000000f0: c779 a0bd 04f0 8f3e 6d46 38bf 7e0c ac3e
00000100: dff5 eb3d 2936 23be ac2b 01be fd28 c63d
00000110: f17c fdbd 0452 fc3d 4360 d0bc 5317 f7bb
00000120: 67b5 c13d f50c 4bbe 0d99 50be 80ff 953d
00000130: e4c1 9dbd 5c7c 9b3d 4334 bfbd 971c f9bc
00000140: 8744 173d 8adb e73d 0dff 083d 139a 803e
00000150: 9129 14bd 2d1d b2bd 212b ba3d 319d a6bd
00000160: 980a 4e3d 998b 0f3d ddd8 d1bd 66f2 d7ba
00000170: d8e1 723c 9c5d a43d 308a c23d e99b 353d
00000180: 89a7 823e 22bd e53e 2108 2abe b26f 34bd
00000190: 0d88 84be 5307 a23c 720a 7f3e f930 a53d
000001a0: bde1 01be b0db 5b3e cdbd 8d3c eae7 4fbe
000001b0: f8c5 7bbe 69ad d6be 41a6 f73d 9f8d adbe
000001c0: cdd6 af3d e127 693e fc75 493e f1ea a2bd
000001d0: bd8a 0dbe bcc1 c7bd 3207 db3e 90c3 0f3e
000001e0: f3fa ebbe a1bd a63e 1268 57be aeda 723e
000001f0: 2105 3abe 9f17 c1be 95df 93bc 7b98 473d
00000200: 835a 263e 4b08 893e 9e27 abbd 64b8 263e
00000210: a606 61be 6d63 da3d 64a8 a4bd 2e03 813e
00000220: 576a 83be 5db8 ab3e f226 7e3e 4af7 8cbe
00000230: a754 42be b6d3 393e 20bc c2bc 2907 a53d
00000240: e0dc d2be f45a a23d ec13 8cbd 17dd da3c
00000250: 4049 d0bd cf7f 0fbe 3661 573e f7b8 953d
00000260: 59f2 3d3d d81b 243e 84cc af3d 95b1 843d
00000270: 72ed c0bc e9e2 533d 7ffa b63e bd65 c83d
00000280: 7bb7 253e 0b28 d63e 87d3 49be 4b8f 683e
00000290: 3037 1cbd 9f13 1abe 490b b53e 31fe 9f3e
000002a0: aac5 14be 84be 8a3e c44e 093d aedd 27bd
000002b0: f2eb 57bd df9e bf3d 685a 4b3e 9fab e4be
000002c0: 5a14 febe 0b18 343e 75b2 aa3e 783b 5ebe
000002d0: e21b 9dbe b83b 4dbe 2fd6 933e 2dbc 8b3d
000002e0: b0cb 9ebe 1259 653e de40 17be 7b3c dfbb
000002f0: fdd4 6dbe 3df3 e5bd 7bf6 79bd 40c5 98bd
00000300: 45c7 283f dd6b 3e3e 980c 4cbf e8bf 96be
00000310: 3a29 3ebe 956e 09bf 953e abbe 2cd5 e13e
00000320: 462b a13e 9447 f03e 2388 293f 14f7 40be
00000330: b120 fcbe 2d81 43be e113 103f 285a c9bd
00000340: c6dc 0e3f e50b 8e3e d13f ee3e 9e86 e9be
00000350: f0a7 49bf 4dd0 ccbe 9271 6e3e 6c38 b63e
00000360: b649 b8be 9ef4 963c 2404 403e 0844 1e3f
00000370: 23c8 1cbf 9631 72be 9a73 09bf 7f91 24bf
00000380: eb8b 97be af6d 363e 83ed 94be 38e5 ebbd
00000390: affe 02bf 6a92 c63d 6286 d1bd 61d8 b73b
000003a0: 24dc 493d 6fd2 b83e 7552 7c3c 8da4 b63e
000003b0: a797 0bbf 0965 f5bc a164 a8be 8f87 bb3e
000003c0: 8626 933e 0be6 6c3d 26f8 fabc 45d4 c03d
000003d0: ffc5 9e3e 66dd dbbe cb71 55bc f59b c33d
000003e0: b337 61bc 0bf0 e33c b0bf d93e b7e8 d9be
000003f0: 8ca5 6ebe a0d9 dbbe 7e93 05be 9b46 193f
-0.0029945178 0.08281135 -0.35804477 0.03623924 -0.55148256 0.06358139 -0.59662956 0.17818767
0.45232186 0.557182 0.48613176 0.3963382 -0.47162664 -0.051771034 -0.41460663 0.071632564
0.01042236 0.62288046 0.2280505 -0.22056231 0.05255567 -0.68032694 0.41844058 0.26209283
-0.03662121 -0.4106889 0.61355215 0.035366185 -0.16935977 -0.6548195 -0.010599446 -0.054669593
-0.2409433 -0.26753554 0.31373897 -0.7079645 -0.27015534 -0.60420173 -0.1621331 -0.18520077
0.1357757 0.57412857 -0.26050755 0.64331484 0.079724245 -0.05398375 -0.5849518 0.06412512
0.6407216 -0.08362303 -0.29608837 0.21975923 -0.01793434 0.28214204 -0.21886802 0.19905908
0.4871131 -0.6024903 0.1785652 0.72792804 -0.07835727 0.28112805 -0.7198246 0.3360328
0.115215056 -0.15938629 -0.12614316 0.09675787 -0.12377346 0.12320331 -0.025436526 -0.0075406223
0.09458428 -0.19829161 -0.20370884 0.073241234 -0.07702997 0.07592079 -0.0933614 -0.03040914
0.036930587 0.11321171 0.03344636 0.2511755 -0.036172453 -0.08696971 0.090902574 -0.08135451
0.05030307 0.03504524 -0.102464415 -0.0016475439 0.014824353 0.08025667 0.094990134 0.04433814
0.25518444 0.4487086 -0.16604663 -0.044051833 -0.25885049 0.019778883 0.24906328 0.080659814
-0.12683769 0.21470523 0.017302418 -0.20303312 -0.24587238 -0.41929176 0.12092257 -0.3389711
0.08585892 0.22769119 0.19673914 -0.07954968 -0.13822456 -0.09753749 0.42778927 0.14039445
-0.46089897 0.3256655 -0.21035793 0.23716232 -0.18166019 -0.37713334 -0.018050948 0.0487294
0.16245465 0.2676414 -0.08357166 0.16281277 -0.21975192 0.10663495 -0.080399305 0.25197738
-0.25667068 0.33539096 0.24819544 -0.27532417 -0.18977605 0.18147168 -0.023771346 0.08058006
-0.4118414 0.07927504 -0.06839737 0.026716752 -0.10170221 -0.14013599 0.21033177 0.0731067
0.0463737 0.16026247 0.0858393 0.064791836 -0.023550723 0.05173007 0.35737988 0.0978503
0.16183273 0.41827425 -0.19709598 0.22710912 -0.03813857 -0.15046547 0.35360172 0.3124862
-0.14528528 0.27098477 0.033522382 -0.040982895 -0.05271525 0.09356474 0.19858706 -0.44662187
-0.49624902 0.17587297 0.33339277 -0.21702373 -0.30685335 -0.20042312 0.28874347 0.06823001
-0.31014776 0.22397259 -0.14770839 -0.0068126298 -0.2322578 -0.11228035 -0.061026078 -0.074594975
0.6592906 0.18595834 -0.79706717 -0.29443288 -0.18570414 -0.5368436 -0.33446184 0.4410795
0.31478328 0.4692961 0.66223353 -0.18844253 -0.49243692 -0.19092245 0.5628033 -0.09831649
0.55805624 0.2774345 0.46533063 -0.45610517 -0.7877188 -0.4000267 0.23285511 0.3558992
-0.35993737 0.01842719 0.1875158 0.6182256 -0.61242884 -0.23651728 -0.5369202 -0.6428451
-0.29598936 0.17815278 -0.29087457 -0.115183294 -0.51169866 0.09695895 -0.102307096 0.005610511
0.049282208 0.36098048 0.015400519 0.35672417 -0.5452828 -0.029955404 -0.32889274 0.3662686
0.2874033 0.057836574 -0.030635905 0.09415487 0.31010434 -0.4294235 -0.013027619 0.09551231
-0.01374619 0.027824422 0.42529058 -0.4256036 -0.23305339 -0.42939472 -0.13044545 0.5987336

rnn.bias_ih_l0 f4 [32]
00000000: 654c 1e3e 6f06 71be 5fcb 87bd 49d2 0e3e
00000010: ca7b e2bd 13e0 333e 7cd1 293f 0e01 51be
00000020: 693b 0e3d 9304 2c3e b8dc 343e 161b c23d
00000030: 9a80 a2be 7888 78bc 980f 423d 5676 90bd
00000040: d3e5 46be 7188 ab3f e088 233e a608 09be
00000050: 1056 97bc 6af6 47be e427 673f d0c0 0cbe
00000060: 2447 3fbf d026 febd 6e2f 73be d5e3 51be
00000070: a486 ed3e 9f20 0abe 8540 363f a28f bd3d
0.1545883 -0.2353761 -0.06630587 0.13947405 -0.11058767 0.17565946 0.6633527 -0.20410559
0.034724627 0.1679862 0.17662323 0.094778225 -0.3173874 -0.015169255 0.047378153 -0.07053821
-0.19423608 1.3401014 0.15970182 -0.13382205 -0.018473655 -0.19527593 0.90295243 -0.13745427
-0.74717927 -0.12409747 -0.23748562 -0.20497067 0.46391785 -0.13489006 0.711922 0.092559114

rnn.bias_hh_l0 f4 [32]
00000000: f926 0e3e 96dc cabe f620 92be 024d 263e
00000010: 8a01 a0bd a4cf 473d 0c70 1e3f 0e54 60bb
00000020: c9a9 43bd be04 24bd c5be a73e a1ba 5cbe
00000030: 9048 04be 413b d53d 103c ab3d fec0 8abe
00000040: c3c8 47be 567e 9d3f 084d 873e 6097 7ebe
00000050: 23bd 213e 61b2 b0be 9fd1 2e3f 8f9a 9cbc
00000060: 54a5 e2be 3062 113e f23d 55bd 49ec 85be
00000070: aa59 463e d9e2 0fbe 756c 633f 6269 b73c
0.13882054 -0.3962142 -0.28540772 0.16240314 -0.078127936 0.048782006 0.6188972 -0.0034229788
-0.04776934 -0.040043585 0.32762733 -0.21555568 -0.12918305 0.104116924 0.083610654 -0.27100366
-0.19510178 1.230418 0.26425958 -0.24862432 0.15794806 -0.34511092 0.68288606 -0.019116668
-0.4426676 0.14197612 -0.05206103 -0.26156834 0.19370142 -0.1405138 0.8883737 0.022389118

fc.weight f4 [2, 32]
00000000: d549 06be eaec 4e3e ce0e 52bf 080b 613d
00000010: 8471 a7be 6679 623c 0c4e 31be e917 a43d
00000020: 18c2 513e 2f02 0f3e 1fe5 013e ad9b 0f3e
00000030: 97b8 3dbe 1574 c63d df19 cebc 5827 10be
00000040: 4283 1cbe a271 02c0 16d5 1e3f d20c 20bf
00000050: ecba 37be 56d7 00bf 6b25 93be 14f0 f23e
00000060: c5ae a4bd a226 273d 3dca f73c 8a6f 09bc
00000070: f4a5 82be 2b2e 03bf ec79 bdbf ab8e 0fbe
00000080: f1d8 6e3d 40c7 e7bd d9ed 1c3f 3cb0 613c
00000090: 92a2 953e 90a5 01bc 6644 723e 6b6d c7bd
000000a0: 1f8b 923d 343d 83be 9976 2dbe 2e32 fd3c
000000b0: ac05 1c3c 4c57 efbc 701a 31be 6cf7 c93d
000000c0: 784e aebd 005c fa3f cad5 1abf 413f 3e3f
000000d0: 3980 663e 8d74 e33e 3c0b c63e 4b8d 02bf
000000e0: 05f2 57bd 37a1 51be a56a e6bd c319 87be
000000f0: c58f 333e 0b0e 043f 98bf c13f 6bbb b53d
-0.13114102 0.20207563 -0.8205384 0.05494216 -0.32703793 0.013822889 -0.17314929 0.08012373
0.20484197 0.13965677 0.12685059 0.1402423 -0.18527447 0.0969011 -0.02515882 -0.14077508
-0.15284446 -2.0381856 0.62043893 -0.6251956 -0.17942399 -0.50328577 -0.28739485 0.4744879
-0.08041147 0.040808327 0.030247802 -0.008388409 -0.25517237 -0.5124232 -1.4802833 -0.14019267
0.05831236 -0.11317301 0.61300427 0.013774928 0.29225594 -0.007913008 0.23658904 -0.09737667
0.071554415 -0.25632632 -0.16939773 0.030907717 0.009522837 -0.029216431 -0.17295241 0.09861645
-0.085110605 1.9559326 -0.60482466 0.7431527 0.2250985 0.4442486 0.38680446 -0.50996846
-0.052721042 -0.20471655 -0.112508096 -0.26386842 0.17535312 0.5158393 1.5136595 0.08873638

fc.bias f4 [2]
00000000: 911f 1b3f 1009 37bf
0.6059504 -0.71498203
