detector/models/32_1_32_5_32_0.001_covert_detector_4.pth (torch, 8433 bytes, 6 tensors)

rnn.weight_ih_l0 f4 [32, 3]
0	0x3eeaf507	0.45890066
1	0x3d6ffab2	0.05858869
2	0x3f25456e	0.64559066
3	0xbb33eabb	-0.0027453143
4	0xbd6943ee	-0.05694955
5	0x3e01c1a0	0.12671518
6	0x3e0f30bf	0.13983439
7	0x3d146250	0.03622657
8	0x3da1fefd	0.07909963
9	0xbd85ea1c	-0.065387934
10	0xbd4969c2	-0.049173124
11	0x3cdf95f2	0.02729318
12	0xbcb6ae05	-0.022299776
13	0xbcad594d	-0.021160746
14	0xbe5fff9a	-0.21874848
15	0xbda80c15	-0.082054295
16	0x3d0c51c2	0.034257658
17	0x3e373c8f	0.17894195
18	0xbdf494c3	-0.119424365
19	0x3ca63450	0.020288616
20	0xbe629fd2	-0.22131279
21	0x3dad5f63	0.08465459
22	0xbd452372	-0.048129506
23	0x3d537e74	0.051634267
24	0x3e796f74	0.24358922
25	0x3d2877a0	0.04112971
26	0xbdf5e8e5	-0.12007312
27	0x3e1baad7	0.15201889
28	0x3d2d37bf	0.04228949
29	0x3e666ad5	0.2250169
30	0x3e3fcd56	0.18730673
31	0x3d0fb67b	0.035086136
32	0x3e0f1472	0.13972643
33	0x3da78ff5	0.081817545
34	0xbc98d6cd	-0.018657112
35	0xbd4551c0	-0.048173666
36	0xbd18dc41	-0.037319425
37	0xbd1409f1	-0.036142293
38	0x3e764d97	0.24053036
39	0x3eb05608	0.34440637
40	0xbd7b68ea	-0.06137935
41	0x3e51e281	0.2049656
42	0x3ec62de9	0.38706902
43	0x3cdc2e08	0.026877418
44	0x3e81ad23	0.25327405
45	0xbc8a88e8	-0.016910985
46	0x3d7d12ba	0.061785437
47	0xbda4c1fa	-0.080448106
48	0xbe818bfe	-0.25302118
49	0xbc9ee8c6	-0.019398104
50	0xbd8cda25	-0.06877545
51	0xbdb90969	-0.09034998
52	0x3d01b03e	0.03166222
53	0xbd31adef	-0.043378767
54	0xbd3ff2a8	-0.046862274
55	0xbd762ac1	-0.060099367
56	0xbdc6986c	-0.09697041
57	0xbe0b937c	-0.1363048
58	0xbcc45554	-0.023966469
59	0xbda34e2d	-0.07973895
60	0x3e378fbc	0.17925924
61	0xbc84e4f5	-0.016222456
62	0xbe5af889	-0.21383871
63	0x3d9ecd6c	0.07754025
64	0xbd1b2f90	-0.037887156
65	0x3ddc2ef0	0.1075114
66	0x3e88b6d4	0.26701987
67	0x3cf01087	0.029304756
68	0x3daf3b33	0.08556213
69	0xbe27529c	-0.16340107
70	0x3ce57f05	0.02801467
71	0xbe2cc9f6	-0.16873917
72	0xbf081b55	-0.53166705
73	0xbd0c6218	-0.034273237
74	0xbed604e2	-0.418006
75	0xbeb7362a	-0.3578351
76	0xbd50dae7	-0.05099001
77	0xbee1b3d6	-0.44082516
78	0xbd5e2b7c	-0.05424069
79	0xbdabab45	-0.083822764
80	0x3d45528d	0.04817443
81	0xbe838c61	-0.25693038
82	0xbd0c4994	-0.034249857
83	0xbe831944	-0.25605214
84	0x3f8f1f92	1.118151
85	0x3c4186cc	0.011811923
86	0x3f786acf	0.97037977
87	0x3e83d043	0.2574483
88	0x3d00936e	0.0313906
89	0x3e16051c	0.14650387
90	0x3e036f89	0.12835516
91	0xbdab44e6	-0.08362751
92	0x3e2043a4	0.15650803
93	0xbe7d79b5	-0.24753459
94	0xbccae7c0	-0.02476871
95	0x3deabb08	0.11461455

rnn.weight_hh_l0 f4 [32, 32]
0	0xbe572d5d	-0.21013398
1	0xbf870539	-1.0548469
2	0x3eea8e1e	0.45811552
3	0xbf14fde1	-0.5819989
4	0x3e9df5d4	0.30851614
5	0x3ef0cf40	0.4703312
6	0x3f121ba1	0.5707341
7	0x3f57509c	0.84107375
8	0x3f5e463e	0.8682593
9	0xbf8a5423	-1.0806926
10	0x3f172bf8	0.59051466
11	0x3f0f6bc9	0.5602384
12	0x3f70e139	0.9409366
13	0x3efce61c	0.4939431
14	0xbeea1f3e	-0.4572696
15	0x3ec4c407	0.38430807
16	0xbf987427	-1.1910447
17	0xbf0a3720	-0.53990364
18	0x3f3eac8a	0.74482024
19	0x3f05dd55	0.5229085
20	0x3e871bbe	0.26388353
21	0xbe179083	-0.1480122
22	0x3f399bba	0.72503245
23	0xbe929cb9	-0.28635195
24	0xbed6ce7b	-0.41954407
25	0xbf8e7fc0	-1.1132736
26	0x3ec9654a	0.3933509
27	0x3eca7482	0.39542013
28	0x3f17b133	0.5925476
29	0x3f67befb	0.9052579
30	0x3f35c01d	0.70996267
31	0xbf462501	-0.77400213
32	0x3f1986b7	0.59971184
33	0xbedbb8ca	-0.4291442
34	0x3e7e94a0	0.24861383
35	0xbd1389ed	-0.03602021
36	0x3e0ce48d	0.1375906
37	0x3d93dbee	0.07219683
38	0xbe0307f3	-0.12796001
39	0x3e6ecf8f	0.23321365
40	0x3f4b66d4	0.7945378
41	0x3e49008a	0.19629112
42	0xbeab9cc9	-0.33518055
43	0x3f54196c	0.8285129
44	0x3e7daa7f	0.2477207
45	0x3e1fef75	0.1561869
46	0xbe748a68	-0.23880923
47	0x3d929fea	0.071594074
48	0xbf1958c3	-0.59901065
49	0xbda41f6e	-0.08013807
50	0x3f2e983c	0.6820104
51	0x3f0e9881	0.5570145
52	0x3eac954f	0.33707663
53	0x3f35676b	0.7086093
54	0xbd6835e6	-0.056692027
55	0x3e2c65fc	0.16835779
56	0xbea490cb	-0.32141718
57	0xbf132cd7	-0.57490295
58	0x3dfcc780	0.12342739
59	0x3e9c82ec	0.30568635
60	0x3ea5a270	0.32350492
61	0xbda5338a	-0.08066471
62	0x3d919f7e	0.07110499
63	0xbf06cef0	-0.5265951
64	0x3e51dd9e	0.20494696
65	0x3e0b052c	0.13576192
66	0x3e01eae1	0.12687255
67	0xbe80aec7	-0.25133345
68	0x3efb63af	0.4909949
69	0x3e949411	0.29019216
70	0x3f32da84	0.6986468
71	0xbdb22cf4	-0.086999804
72	0x3ef3cae4	0.4761573
73	0x3e62c4bc	0.2214536
74	0xbdddff6e	-0.10839735
75	0x3dab0bcb	0.08351859
76	0xbead32b3	-0.33827743
77	0xbeee2441	-0.46512035
78	0xbeaf1a64	-0.34199822
79	0x3eecf2be	0.46278948
80	0x3e24bae4	0.16086918
81	0xbed7bb23	-0.4213496
82	0xbee6e4d0	-0.45096445
83	0x3ed9844b	0.42483744
84	0x3ebd4f76	0.36974686
85	0x3def5b16	0.11687295
86	0x3ea87ea6	0.32909125
87	0xbea14c21	-0.31503394
88	0x3e08be9a	0.13353959
89	0x3e3a9ba0	0.18223429
90	0xbec828d0	-0.39093637
91	0x3eee666b	0.46562514
92	0x3e881e7a	0.26585752
93	0x3e3f7e54	0.18700534
94	0x3ecec657	0.40385696
95	0x3e359ed2	0.17736366
96	0x3ec5e18e	0.38648647
97	0x3dc31691	0.095257886
98	0xbe0f0369	-0.13966145
99	0xbe72f1f9	-0.23725118
100	0x3c964d4e	0.018347409
101	0xbe77bca9	-0.24193062
102	0xbe884ef8	-0.26622748
103	0x3ee53c9d	0.44772807
104	0x3ee9736d	0.45595875
105	0x3c59c57a	0.013291711
106	0xbe7eb87e	-0.24875066
107	0x3f024af1	0.508956
108	0x3f15fde9	0.5859056
109	0x3e8b7df6	0.27244538
110	0xbe4c03c1	-0.19923307
111	0xbec3b7e2	-0.3822623
112	0xbebe53de	-0.3717336
113	0x3e18e109	0.14929594
114	0x3f11ce34	0.56955266
115	0x3ddd5339	0.10806889
116	0x3d222409	0.039585147
117	0x3db396e0	0.087690115
118	0xbdd9fe44	-0.106442004
119	0x3e9bb5fd	0.30412284
120	0xbea35ab1	-0.3190513
121	0xbf0babca	-0.54559004
122	0x3bbc313f	0.0057431753
123	0xbdc0a4e1	-0.09406448
124	0x3e486123	0.19568305
125	0x3d5ea1db	0.054353576
126	0xbea51620	-0.32243443
127	0xbf578cd1	-0.84199244
128	0xbe5e2fd5	-0.21697934
129	0xbeb2ff9a	-0.34960634
130	0xbf4bf649	-0.79672676
131	0x3ed65cc5	0.41867653
132	0xbe35b797	-0.17745815
133	0xbe69c229	-0.22827972
134	0x3de53c65	0.1119316
135	0xbf3a418d	-0.7275627
136	0xbec3e8b8	-0.38263488
137	0x3b49dbdb	0.003080121
138	0xbf17bc9f	-0.5927219
139	0xbec40b3c	-0.3828982
140	0x3e9403b5	0.28909078
141	0xbf05c397	-0.5225157
142	0x3d3cb117	0.046067324
143	0x3ead6872	0.33868748
144	0x3f6c63a3	0.92339534
145	0xbed364fa	-0.41287977
146	0xbe534975	-0.2063349
147	0x3a62e63d	0.0008655524
148	0x3f069506	0.5257114
149	0xbe53c25c	-0.20679611
150	0xbe8b3c33	-0.27194366
151	0x3e820ca1	0.2540026
152	0x3e0ccb47	0.13749419
153	0x3e8a9955	0.27070108
154	0xbda6eb4b	-0.08150347
155	0x3f0f8360	0.5605984
156	0xbecb85dc	-0.39750564
157	0x3ced444e	0.028963234
158	0x3ea41cb6	0.32053155
159	0x3f08bb2b	0.53410596
160	0x3e32c946	0.17459592
161	0x3d163c7a	0.03667877
162	0xbe10ce83	-0.14141278
163	0x3ec5aa2c	0.38606393
164	0x3ea92b76	0.3304097
165	0x3e33ffa8	0.17577994
166	0x3e9c1150	0.30481958
167	0xbe12f8ff	-0.14352797
168	0x3e23f8ed	0.16012926
169	0x3e7e1b21	0.24815036
170	0xbed824b2	-0.42215496
171	0x3e18d2ac	0.14924115
172	0x3edb45de	0.42826742
173	0xbe0902e8	-0.13380015
174	0xbe62e48b	-0.22157495
175	0x3ec90bab	0.39266714
176	0x3e546912	0.20743206
177	0xbf074a7a	-0.5284802
178	0x3e6e8a82	0.23295024
179	0x3e5b3ae4	0.21409184
180	0x3e34e36d	0.17664881
181	0x3eb655e3	0.356124
182	0xbe0f1093	-0.13971166
183	0x3e07aa2b	0.13248508
184	0x3e7433ca	0.23847881
185	0xbab0da49	-0.0013492788
186	0x3db52f42	0.08846904
187	0x3ecfc568	0.40580297
188	0x3d08a4a5	0.033360142
189	0x3d7c5c66	0.061611556
190	0xbe473d20	-0.19456911
191	0xbd1e906d	-0.038711954
192	0xbe1c5123	-0.15265326
193	0x3e80e1a3	0.25172147
194	0xbde16786	-0.11006074
195	0x3e75a85c	0.23990005
196	0x3e41a85a	0.18911877
197	0x3cac6980	0.0210464
198	0xbe00f346	-0.12592801
199	0xbec8e704	-0.3923875
200	0x3d45d234	0.04829617
201	0xbe03a4c6	-0.12855825
202	0xbee9876f	-0.4561114
203	0x3d24d101	0.040238384
204	0x3e0ef67c	0.13961214
205	0xbea93431	-0.3304763
206	0x3be26bce	0.006909824
207	0x3c8a6324	0.016892977
208	0x3e3516a2	0.17684415
209	0xbeba0d4d	-0.36338273
210	0xbd1230ef	-0.035691198
211	0x3effd3a5	0.4996616
212	0x3ed078ef	0.40717265
213	0x3b3084c0	0.0026934594
214	0x3e17c6a2	0.14821866
215	0xbdb01669	-0.085980244
216	0x3dba359f	0.09092259
217	0x3e444add	0.19169183
218	0xbe55ebfe	-0.20890805
219	0x3eeaead0	0.45882273
220	0xbd231442	-0.03981424
221	0xbd06ea09	-0.032938037
222	0x3e61f665	0.22066648
223	0xbe14c359	-0.14527644
224	0xbe57b3cb	-0.2106468
225	0x3d20c614	0.039251402
226	0x3d8389ba	0.06422754
227	0xbebf4cda	-0.3736332
228	0x3da9cbcc	0.08290824
229	0xbdb84240	-0.08997011
230	0x3eeff966	0.46869963
231	0x3e49771b	0.19674341
232	0x3e80a5b9	0.25126436
233	0xbeb46217	-0.35231087
234	0x3ee28e77	0.44249317
235	0xbecd129d	-0.40053263
236	0xbe81cd67	-0.25352022
237	0x3de2404b	0.11047419
238	0xbe8c426f	-0.27394435
239	0xbd3619b6	-0.044458114
240	0x3e268d2c	0.1626479
241	0x3ecd9b95	0.40157762
242	0xbead7c8c	-0.33884084
243	0xbe3c68e9	-0.18399395
244	0x3e7fb8fb	0.24972908
245	0xbe509d98	-0.20372617
246	0x3eb989c0	0.36237907
247	0xbdeab295	-0.11459843
248	0xbd8da852	-0.0691687
249	0xbd437d87	-0.047727134
250	0xbcedbdb9	-0.02902113
251	0xbe88b8fe	-0.26703638
252	0xbe3d1d69	-0.1846825
253	0xbd0d63fc	-0.03451918
254	0x3ec13ac7	0.37740156
255	0x3e5cc01f	0.21557663

rnn.bias_ih_l0 f4 [32]
0	0x3f0aa71c	0.5416124
1	0x3e38010f	0.17969154
2	0x3c80dbda	0.015729833
3	0xbe563c37	-0.20921408
4	0x3d6909ab	0.056893986
5	0x3ec12c48	0.37729096
6	0xbd18cadb	-0.037302833
7	0x3d72412e	0.05914419
8	0x3d8e9425	0.0696185
9	0x3d199f32	0.037505336
10	0x3eb826d7	0.35967132
11	0xbdd812dc	-0.10550472
12	0x3e350de8	0.17681086
13	0x3f0b8994	0.545068
14	0x3f0ad528	0.542315
15	0x3ce36f05	0.0277629
16	0xbe4ded74	-0.20110112
17	0x3d9bf46d	0.0761498
18	0xbd759a7d	-0.059961785
19	0xbe6af0d0	-0.22943425
20	0xbdcd938b	-0.10037907
21	0xbd0621db	-0.03274713
22	0x3df4177c	0.11918542
23	0xbbbf9098	-0.0058460943
24	0xbf414eaa	-0.75510657
25	0xbe97b08f	-0.2962689
26	0x3ddce11c	0.10785124
27	0xbd2a139f	-0.04152262
28	0x3fe45101	1.783722
29	0x3ea73717	0.32659218
30	0x3ec68804	0.38775647
31	0x3c9426cb	0.018084904

rnn.bias_hh_l0 f4 [32]
0	0x3f1339ea	0.57510245
1	0x3e74a487	0.23890887
2	0x3cffae67	0.031211091
3	0xbd24339e	-0.04008829
4	0x3d096515	0.033543665
5	0x3e7fd537	0.24983679
6	0xbe16201b	-0.14660685
7	0x3df22a4e	0.11824475
8	0x3e44a2df	0.19202755
9	0x3e5503d0	0.20802236
10	0x3eb4c519	0.35306624
11	0xbd20c27b	-0.03924797
12	0x3dee6bbd	0.11641643
13	0x3f1f358e	0.6219109
14	0x3ec8f177	0.39246723
15	0xbe4e2e1e	-0.2013478
16	0xbe5f1f25	-0.21789224
17	0x3dedbcb9	0.116082616
18	0xbe48037a	-0.19532576
19	0xbe71ebd1	-0.23625113
20	0x3e21e0d1	0.15808417
21	0xbe685478	-0.22688472
22	0x3e2dc5ee	0.16970035
23	0x3c92d1bc	0.017922275
24	0xbef878fb	-0.485298
25	0xbe54b3f1	-0.20771767
26	0x3c0b6856	0.008508762
27	0xbea369dd	-0.31916705
28	0x3fddeb29	1.733739
29	0x3e93f1e7	0.28895494
30	0x3eb26986	0.34846133
31	0xbe7677d2	-0.24069145

fc.weight f4 [2, 32]
0	0x3ecfd2e9	0.405906
1	0xbeb64262	-0.3559752
2	0xbdd43248	-0.10361153
3	0xbdc674cd	-0.09690247
4	0xbc5c80f9	-0.013458484
5	0xbce46f39	-0.027885066
6	0x3dccdc7e	0.10002993
7	0x3e660c5a	0.22465649
8	0xbf0023ec	-0.5005481
9	0xbdf3e38c	-0.119086355
10	0x3c965259	0.018349813
11	0xbea8be32	-0.32957608
12	0xbe11db96	-0.14243922
13	0x3ecad993	0.3961912
14	0xbd3ffb00	-0.04687023
15	0xbf257a70	-0.6463995
16	0x3ebc2ba9	0.3675206
17	0x3d0092b7	0.03138992
18	0xbf12a683	-0.57285327
19	0xbcef3558	-0.029200241
20	0xbe150779	-0.14553632
21	0x3d36e4dc	0.04465185
22	0xbde162f9	-0.11005206
23	0xbcd61891	-0.026134761
24	0x3ca68be3	0.020330375
25	0xbf082da9	-0.5319467
26	0x3e71f5c3	0.23628907
27	0xbcc7fa15	-0.02441124
28	0xc00fd9d6	-2.2476707
29	0x3f5f7fae	0.873042
30	0x3d84fa8d	0.06493101
31	0xbd8ab1ac	-0.067721695
32	0xbf06bf17	-0.5263533
33	0x3ef62a8b	0.48079333
34	0x3de0ed66	0.1098278
35	0x3e5cdb48	0.21568024
36	0xbe1ecf38	-0.15508735
37	0xbdbf3d11	-0.09337819
38	0xbd8f0789	-0.06983859
39	0xbe7c2451	-0.24623229
40	0x3ea4bf56	0.32177228
41	0x3e5fb14b	0.21844976
42	0xbe1df4a6	-0.15425357
43	0x3e835dde	0.25657552
44	0xbdc3441b	-0.095344745
45	0xbdf48cf9	-0.11940951
46	0x3c8d7efb	0.017272463
47	0x3f246f33	0.64232177
48	0xbe9c0614	-0.30473387
49	0x3dd4d070	0.10391319
50	0x3f0916a6	0.53550184
51	0xbde78777	-0.11305135
52	0x3d63ef1d	0.055647958
53	0x3ddc33cd	0.10752068
54	0x3c676ba5	0.014124786
55	0x3dc6e3d4	0.097114235
56	0xbd812447	-0.063057475
57	0x3ec3361e	0.38127226
58	0xbeb340ec	-0.3501047
59	0xbdb85ff0	-0.090026736
60	0x400bbb8d	2.1833222
61	0xbf7274a5	-0.94709235
62	0xbe9761cc	-0.295668
63	0x3c902c7b	0.017599335

fc.bias f4 [2]
0	0x3fd22cb6	1.6419895
1	0xbfb35a08	-1.401185
