detector/models/32_1_64_5_32_0.001_covert_detector_5.pth (torch, 8433 bytes, 6 tensors)

rnn.weight_ih_l0 f4 [32, 3]
0	0x3b045e45	0.002019779
1	0xbd119740	-0.035544634
2	0x3dedb7e0	0.11607337
3	0xbeb8bcfb	-0.3608168
4	0xbd2fb376	-0.042895757
5	0xbed5aaf6	-0.41731995
6	0xbe3a68a1	-0.18203975
7	0xbe5984d2	-0.21242073
8	0x3d69c063	0.05706824
9	0x3df65d94	0.12029567
10	0x3d249021	0.040176515
11	0x3ccfa116	0.025345366
12	0x3d816705	0.063184775
13	0x3d34b1fc	0.04411505
14	0x3e849e55	0.25902048
15	0x3e002634	0.12514573
16	0xbd2c8d32	-0.04212684
17	0xbd11f9e4	-0.035638705
18	0x3ec3db67	0.38253328
19	0x3ce5bd04	0.028044231
20	0x3f5d7689	0.86508995
21	0xbe851989	-0.25996044
22	0xbc9bb06f	-0.019005029
23	0x3e208daa	0.1567904
24	0xbe724604	-0.23659521
25	0xbd8a274d	-0.06745777
26	0xbe730fe6	-0.23736534
27	0x3db47ebd	0.08813236
28	0x3d12ae4a	0.035810746
29	0x3e4a1846	0.19735822
30	0xbdf851ad	-0.121249534
31	0xbb3ca7d1	-0.002878655
32	0xbcbf2181	-0.023331406
33	0xbda6cd2e	-0.08144604
34	0xbc22d982	-0.009939553
35	0x3defe841	0.11714221
36	0xbf1200fd	-0.5703276
37	0xbd196079	-0.03744552
38	0xbf41273c	-0.7545049
39	0x3da23f6d	0.07922254
40	0xbd1e95b2	-0.03871698
41	0xbdfa2f4c	-0.122160524
42	0x3d4fc439	0.050724242
43	0x3c4a04a9	0.012330213
44	0x3e4623e8	0.19349635
45	0x3df45a1b	0.11931249
46	0x3d07d930	0.03316611
47	0x3de543a2	0.111945406
48	0x3d8d7578	0.06907171
49	0xbd179904	-0.03701116
50	0xbd64fef0	-0.05590719
51	0x3f5e4605	0.8682559
52	0x3bcb0165	0.0061952346
53	0x3f35fd38	0.71089506
54	0x3bba3147	0.005682144
55	0xbcff4576	-0.031161051
56	0xbe1f7f73	-0.15575962
57	0xbc139f13	-0.009010094
58	0x3d0451dd	0.032304633
59	0x3df997d4	0.12187162
60	0x3ca3709b	0.019951155
61	0x3d31caa8	0.04340616
62	0x3db61cbd	0.088922
63	0xbd11ab9d	-0.035564054
64	0x3d2bb18e	0.041917376
65	0x3dc763d7	0.0973584
66	0x3f3cf9c0	0.7381859
67	0x3c4346db	0.011918749
68	0x3f18a907	0.59632915
69	0xbe96aa3d	-0.29426757
70	0xbd3e516a	-0.04646436
71	0xbe980818	-0.29693675
72	0xbf1e6004	-0.6186526
73	0xbc1dba85	-0.009626989
74	0xbea77d82	-0.32712942
75	0x3e91fe85	0.28514495
76	0xbd1ef8a9	-0.03881136
77	0xbd4e4ff0	-0.050369203
78	0x3f0523b3	0.520076
79	0xbb2a2798	-0.002596354
80	0x3ef16162	0.4714461
81	0x3e01e221	0.12683918
82	0x3d492c9c	0.04911481
83	0x3ba398c8	0.004992578
84	0xbddea20b	-0.10870751
85	0xbc7e6701	-0.015527488
86	0x3e3c5ba4	0.18394333
87	0xbdeeec7d	-0.116662
88	0x3d801fb3	0.06256046
89	0xbdc725d8	-0.09724015
90	0x3f7a262a	0.97714484
91	0x3beea045	0.007282289
92	0x3f40cfcf	0.7531709
93	0xbdf45735	-0.11930696
94	0xbd135da2	-0.035977967
95	0xbdb0a154	-0.08624521

rnn.weight_hh_l0 f4 [32, 32]
0	0x3c9d90e5	0.01923413
1	0x3e88471f	0.2661676
2	0xbe37372a	-0.17892137
3	0x3ded25d8	0.11579484
4	0xbf3c687e	-0.7359694
5	0xbb17de7c	-0.0023173383
6	0xbf3b352d	-0.73128015
7	0x3ea1420f	0.3149571
8	0x3f17f7c0	0.5936241
9	0x3f21488f	0.6300134
10	0x3ed3a8a5	0.41339603
11	0x3ed6cc86	0.41952914
12	0xbf1ab2d8	-0.60429144
13	0x3cc398f3	0.023876643
14	0xbe979edb	-0.29613385
15	0x3e0b03dd	0.13575692
16	0xbe0a2e1a	-0.13494149
17	0x3ee02dd7	0.43784973
18	0x3e23be9f	0.15990685
19	0xbe1f7aa5	-0.15574129
20	0xbd6ff7e4	-0.058586016
21	0xbf69fb1d	-0.91398793
22	0x3e6b8d37	0.23003088
23	0x3ee007c5	0.43755928
24	0xbe28f359	-0.1649908
25	0xbeaf2872	-0.34210545
26	0x3f304bca	0.68865645
27	0x3e023e4b	0.12719075
28	0xbe453dbc	-0.19261831
29	0xbf61ca85	-0.88199645
30	0xbe1694e6	-0.14705238
31	0xbe0f2a69	-0.13981022
32	0xbe06c908	-0.13162625
33	0xbdfca583	-0.12336256
34	0x3ec98811	0.39361623
35	0xbf1718d7	-0.5902228
36	0xbec892cb	-0.39174494
37	0xbf021508	-0.5081334
38	0xbe845e4c	-0.25853193
39	0xbe84b565	-0.25919643
40	0x3e53a891	0.20669772
41	0x3ef19b51	0.4718881
42	0xbe659cda	-0.22423115
43	0x3f09b55c	0.5379236
44	0x3e46a687	0.19399463
45	0x3d7aa785	0.061194915
46	0xbf0615f3	-0.5237724
47	0xbd2a5931	-0.041588966
48	0x3f12c5ee	0.57333267
49	0xbe3ec8de	-0.18631312
50	0xbe9d5301	-0.3072739
51	0x3e013f92	0.12621906
52	0xbdd302e5	-0.103032865
53	0x3e259669	0.16170658
54	0xbea77ae9	-0.3271096
55	0x3ea6aa3b	0.3255175
56	0x3eefa3be	0.46804613
57	0xbf2fcdd3	-0.6867344
58	0x3e681fe4	0.22668415
59	0x3f2c2717	0.67247146
60	0xbdb34e2b	-0.08755144
61	0x3e2aa4a6	0.16664371
62	0xbf4f3483	-0.809395
63	0x3eda3390	0.42617464
64	0x3e1607da	0.14651433
65	0xbe478eb1	-0.19488026
66	0xbe834040	-0.25634956
67	0x3d751abd	0.059839953
68	0xbd8b71e7	-0.068088345
69	0x3e1f657c	0.15566057
70	0x3cea59cf	0.028607277
71	0x3d99bde3	0.07506921
72	0x3ce58ee6	0.02802224
73	0xbe4f1a03	-0.20224766
74	0xbe227b39	-0.15867318
75	0x3dd5e814	0.10444656
76	0xbe01ff15	-0.12694962
77	0x3c8a0a65	0.01685066
78	0xbe046c6f	-0.12931989
79	0xbd1ac22c	-0.037782833
80	0x3dc33155	0.09530894
81	0x3e21d4c6	0.15803823
82	0x3dcb03e9	0.09912855
83	0x3e6c0458	0.23048532
84	0x3b171296	0.002305185
85	0xbd8c3fb9	-0.06848092
86	0x3e0a8189	0.13525976
87	0xbdf1eea6	-0.11813097
88	0x3d910c51	0.07082427
89	0xbacf668d	-0.0015823409
90	0xbe5c1bb7	-0.21494947
91	0xba89c5ba	-0.0010511198
92	0x3c92808d	0.017883563
93	0x3d930caa	0.0718015
94	0x3e3f27fc	0.18667597
95	0x3d1ddd57	0.038541164
96	0x3e0a58d1	0.13510443
97	0x3f214060	0.62988853
98	0x3d8a7752	0.0676104
99	0xbde11a94	-0.109913975
100	0xbee661f7	-0.44996616
101	0xbdf5e599	-0.12006683
102	0x3dfcaecf	0.123380296
103	0x3e93ff24	0.28905594
104	0x3d8cebb8	0.06880897
105	0x3ebccc2c	0.3687452
106	0xbe370492	-0.17872837
107	0xbddd8e86	-0.108182
108	0xbeba3bcd	-0.3637375
109	0xbf12a390	-0.57280827
110	0x3ea2cc29	0.31796387
111	0xbe200a15	-0.15628846
112	0xbe03000e	-0.1279299
113	0x3cc905d9	0.024538921
114	0xbdd23ec9	-0.102658816
115	0x3dd88f84	0.105742484
116	0xbea0882f	-0.313539
117	0xbe9025f7	-0.28153965
118	0x3e71b94c	0.23605841
119	0x3ea3e1a4	0.32008088
120	0xbf227432	-0.6345855
121	0x3ef6cb48	0.48201966
122	0x3d68dcc5	0.056851167
123	0x3ef08fec	0.46984804
124	0xbeb471fa	-0.35243207
125	0xbf09200d	-0.5356453
126	0xbe8226c8	-0.25420213
127	0xbe0ca964	-0.13736492
128	0x3dd2a45a	0.10285254
129	0x3e0b6e2f	0.1361625
130	0xbe327451	-0.17427184
131	0x3ddc242d	0.107490875
132	0xbd501a2a	-0.050806202
133	0x3dc0b344	0.09409192
134	0x3cdb980c	0.0268059
135	0x3e820045	0.2539083
136	0xbea8434a	-0.32863837
137	0x3eb863d7	0.36013672
138	0x3e706edd	0.23479791
139	0xbe6090f1	-0.21930291
140	0xbe724d54	-0.23662311
141	0x3e07c91d	0.13260312
142	0xbdccd711	-0.10001958
143	0x3dec9114	0.11551109
144	0xbeae7581	-0.34074023
145	0x3e2bf776	0.16793618
146	0xbd4b74a4	-0.049671784
147	0x3d563d8e	0.052304797
148	0xba079028	-0.0005171322
149	0xbd271e97	-0.040800657
150	0x3e9cb704	0.3060838
151	0xbd4ce2c3	-0.050020944
152	0x3d4870da	0.04893575
153	0x3e36ec00	0.17863464
154	0x3d8653e1	0.065589674
155	0x3d218061	0.039429072
156	0x3c390e6c	0.011294942
157	0x3e0d242a	0.13783327
158	0x3ed63e97	0.41844627
159	0x3d98931b	0.07449933
160	0x3e8f1feb	0.2795404
161	0x3f1988c1	0.59974295
162	0x3ae65fc2	0.0017576145
163	0x3e8563a4	0.26052582
164	0xbe5dbbe1	-0.21653701
165	0xbe201213	-0.15631895
166	0x3e356dd5	0.17717679
167	0x3e59eaed	0.21281023
168	0x3d5ae609	0.053442035
169	0x3dae2404	0.08502963
170	0x3c1fe413	0.009758967
171	0xbdb3182f	-0.08744847
172	0x3d2608c9	0.040535722
173	0x3e4d43d3	0.20045404
174	0x3e79f3f0	0.24409461
175	0xbf2372a9	-0.6384683
176	0xbf05d56f	-0.522788
177	0x3d1dd899	0.03853664
178	0x3e71e74e	0.23623392
179	0xbeda1e76	-0.42601365
180	0xbee97b80	-0.45602036
181	0xbeb7f5d3	-0.35929736
182	0x3dd27cb1	0.10277689
183	0x3e7f0bd6	0.24906859
184	0xbe9501a8	-0.29102826
185	0xbbd37319	-0.0064529297
186	0xbdcac151	-0.099001534
187	0x3d2eb258	0.04265055
188	0xbe9340df	-0.2876043
189	0xbe95902b	-0.29211554
190	0xbe61e135	-0.22058566
191	0x3e1ff495	0.15620644
192	0x3f18e854	0.59729505
193	0x3c0d06dc	0.008607592
194	0xbf7532fa	-0.9578091
195	0xbe84318f	-0.2581906
196	0xbc02fd63	-0.007994982
197	0xbf00bab2	-0.50284874
198	0xbe1cb75e	-0.15304324
199	0x3e9ae756	0.3025462
200	0x3e252171	0.16126038
201	0x3ed55b14	0.4167105
202	0x3f2a87f7	0.66613716
203	0xbe49f2d6	-0.19721541
204	0xbf02479a	-0.50890505
205	0xbe03855a	-0.12843838
206	0x3ef38b49	0.47567204
207	0xbdd6c907	-0.10487562
208	0x3f18fcb2	0.5976058
209	0x3ee73650	0.45158625
210	0x3f0ba722	0.545519
211	0xbef1d3f7	-0.4723203
212	0xbf1c6018	-0.6108413
213	0xbe8547ca	-0.26031333
214	0x3ed0c050	0.40771723
215	0x3e3745e0	0.17897749
216	0xbe8299a5	-0.25507846
217	0xbd00d5d7	-0.031453934
218	0x3e058204	0.13037878
219	0x3eed6d57	0.46372482
220	0xbee8085b	-0.45318875
221	0xbde042f2	-0.10950269
222	0xbeb7d742	-0.35906416
223	0xbf176508	-0.59138536
224	0xbe998739	-0.2998598
225	0x3e86a241	0.26295665
226	0xbe4dd7b2	-0.20101812
227	0xbe8e0e64	-0.27745354
228	0xbf134d2f	-0.5753965
229	0x3e8ab444	0.27090657
230	0xbdf5296e	-0.11970793
231	0xbd954300	-0.0728817
232	0x3d76470e	0.060126357
233	0x3e81ef53	0.25377902
234	0x3e27899d	0.16361089
235	0x3efd1171	0.4942737
236	0xbf00a692	-0.50254166
237	0xbc245adf	-0.010031431
238	0xbf212c6c	-0.6295841
239	0x3e6c5488	0.23079121
240	0x3f002c27	0.5006737
241	0x3ced0246	0.028931748
242	0x3e0eb98f	0.13937972
243	0xbd425ef0	-0.04745382
244	0x3ea0f404	0.3143617
245	0xbed4eca1	-0.41586784
246	0xbd5e4798	-0.054267496
247	0x3e229d0e	0.15880224
248	0x3e47efdc	0.19525093
249	0xbe05824b	-0.13037984
250	0x3e6612d5	0.22468121
251	0xbf15c5ad	-0.58504754
252	0xbda63545	-0.08115629
253	0xbed4e4a4	-0.4158069
254	0xbe2cdb53	-0.1688054
255	0x3f564e8d	0.8371361

rnn.bias_ih_l0 f4 [32]
0	0xbce4ed76	-0.027945261
1	0xbeb3ba09	-0.3510287
2	0xbcbde995	-0.02318267
3	0xbd5839e9	-0.052789602
4	0x3af12993	0.0018399231
5	0xbc29690e	-0.010339988
6	0x3f573dcb	0.84078664
7	0xbe7dff00	-0.24804306
8	0xbde500e7	-0.11181813
9	0x3eacaced	0.33725682
10	0xbea5518e	-0.32288784
11	0x3e54498a	0.20731178
12	0xbf1261f0	-0.5718069
13	0xbe9562ab	-0.2917684
14	0x3f10ac63	0.5651304
15	0x3da2f847	0.079575114
16	0xbe19e052	-0.15026978
17	0x3fc0f704	1.5075383
18	0x3c30e43f	0.010796606
19	0x3db1bf28	0.08679038
20	0x3e8d6676	0.27617234
21	0xba329c37	-0.0006813439
22	0x3f829cab	1.0204061
23	0xbe820a87	-0.25398657
24	0xbf4b739a	-0.7947327
25	0xbd933ca1	-0.071892984
26	0x3f14842e	0.5801419
27	0xbd866b3d	-0.06563423
28	0x3e66bc88	0.22532856
29	0x3d2b404e	0.041809373
30	0x3f5d43f1	0.86431795
31	0x3bdf66bb	0.0068176663

rnn.bias_hh_l0 f4 [32]
0	0xbd330c6c	-0.04371302
1	0xbf030aff	-0.51188654
2	0xbe781a37	-0.2422875
3	0xbcf49e55	-0.029860655
4	0x3d0c7dde	0.034299724
5	0xbe0c81c3	-0.13721375
6	0x3f4bdc5b	0.7963311
7	0xbd41fbd0	-0.047359288
8	0xbe46fa0a	-0.1943132
9	0x3e04534a	0.12922397
10	0xbe300250	-0.17188382
11	0xbdd2fbc8	-0.1030193
12	0xbec464a0	-0.3835802
13	0xbe309f72	-0.17248324
14	0x3f19f2f4	0.6013634
15	0xbdf7964f	-0.12089216
16	0xbe1ac342	-0.15113547
17	0x3fb2ece9	1.3978549
18	0x3dec3ebe	0.115354046
19	0xbce57904	-0.028011806
20	0x3ee7ba79	0.45259455
21	0xbe1a1fbc	-0.15051168
22	0x3f4ce2d0	0.8003359
23	0xbe0ae680	-0.13564491
24	0xbefafb1f	-0.49019715
25	0x3e46d726	0.1941801
26	0x3f43fc30	0.7655668
27	0xbdfa544c	-0.122231096
28	0xbd37dac1	-0.044886354
29	0x3d143762	0.03618563
30	0x3f8535bc	1.0407023
31	0xbd81bed0	-0.06335223

fc.weight f4 [2, 32]
0	0xbe9d0b37	-0.3067262
1	0xbedd755b	-0.43253598
2	0xbfba6c99	-1.4564391
3	0xbd1ba434	-0.037998393
4	0x3e9e69a9	0.30939987
5	0x3dfc1b73	0.12309923
6	0x3eecaaa3	0.46223935
7	0x3e4b2e3a	0.19841853
8	0xbedd755c	-0.432536
9	0x3e216513	0.15761213
10	0x3ecc65cf	0.39921424
11	0x3e1c7664	0.15279537
12	0xbe7c4dae	-0.24639007
13	0xbe02428d	-0.127207
14	0xbf61ea18	-0.88247824
15	0xbc9b4520	-0.01895386
16	0xbe53b9dd	-0.2067637
17	0xbfb3655e	-1.401531
18	0x3f735de7	0.9506516
19	0xbf23a185	-0.63918334
20	0x3e91d0d3	0.28479633
21	0xbce896d0	-0.028392226
22	0x3eb2a57f	0.34891888
23	0xbe254e5a	-0.1614317
24	0xbe23c347	-0.15992461
25	0x3d893714	0.066999584
26	0xc08006bb	-4.0008216
27	0xbe0eeac6	-0.13956746
28	0x3c23c90a	0.009996662
29	0xbe3eca91	-0.1863196
30	0xbf9ecee6	-1.240689
31	0xbe3dc554	-0.18532306
32	0x3e6f81e9	0.233894
33	0x3f057cf5	0.52143794
34	0x3f9fdc08	1.2489023
35	0x3dda8df5	0.106716074
36	0xbeb0386f	-0.34418055
37	0xbdf001db	-0.11719104
38	0xbecc2f3f	-0.39879796
39	0xbe5cd977	-0.21567331
40	0x3f357c84	0.7089312
41	0xbe8c6e5c	-0.27427948
42	0xbee22ead	-0.44176236
43	0x3c96589b	0.018352797
44	0x3d90aa46	0.07063727
45	0x3e479131	0.1948898
46	0x3f2f32bf	0.6843681
47	0xbcbe147d	-0.023203129
48	0xbcff898c	-0.031193517
49	0x3fa8de03	1.3192753
50	0xbf6f5ec0	-0.9350395
51	0x3f41d41e	0.7571429
52	0xbe74db9e	-0.23911902
53	0xbcfb085e	-0.030643638
54	0xbe7f7ed5	-0.24950726
55	0x3e00f920	0.12595034
56	0x3cdb793c	0.026791207
57	0xbe6c7387	-0.23090945
58	0x407ac9a8	3.9185581
59	0xbe07df27	-0.1326872
60	0xbdb7f261	-0.08981777
61	0x3e424a93	0.1897376
62	0x3fa314a7	1.2740678
63	0x3e091403	0.1338654

fc.bias f4 [2]
0	0x3f9ee2e1	1.2412988
1	0xbfacd789	-1.3503276
