detector/models/32_1_64_5_32_0.001_covert_detector_3.pth (torch, 8433 bytes, 6 tensors)

rnn.weight_ih_l0 f4 [32, 3]
0.0071871253 -0.034876 0.13955803 -0.34239945 -0.042931497 -0.39143065 -0.17156716 -0.21986495
0.06849367 0.13848214 -0.034960736 0.025538286 0.052525815 0.04326019 0.23551863 0.1581787
-0.03659163 -0.002388247 0.37884673 0.02524814 0.8342963 -0.10651709 0.033302534 0.23214294
-0.22220919 -0.052800946 -0.20971407 0.0595016 0.033791814 0.16753927 -0.11914402 -0.0028770047
-0.022516096 -0.048834693 0.028213259 0.15027244 -0.5651719 -0.037116654 -0.72894835 0.097403176
-0.03740048 -0.13206525 0.041767202 -0.0019024439 0.18924937 0.11963816 0.032853257 0.09983387
0.041622523 -0.034581546 -0.024613552 0.83067256 0.005245039 0.67181206 0.0052035498 -0.031115126
-0.1577545 -0.0066199047 0.031775624 0.119858235 0.0322933 0.04089617 0.062226046 -0.01756926
0.037075136 0.068048105 0.7107118 0.0118896505 0.5702341 -0.27727905 -0.04860087 -0.2963492
-0.58668447 -0.005055522 -0.29489383 0.29966033 0.033068135 -0.0047194515 0.46388426 -0.002751504
0.34383765 0.08218039 0.030908518 -0.050438885 -0.07183313 -0.014579895 0.22328237 -0.10876697
0.057864804 -0.12013137 0.95029956 0.0072447783 0.737746 -0.0890414 -0.035845086 -0.05968434
00000000: fa81 eb3b 23da 0ebd 4de8 0e3e fb4e afbe
00000010: f0d8 2fbd 9969 c8be 4daf 2fbe 4724 61be
00000020: 6946 8c3d 43ce 0d3e fd32 0fbd ab35 d13c
00000030: 4f25 573d 9931 313d cc2b 713e 99f9 213e
00000040: 1be1 15bd 2384 1cbb 33f8 c13e 30d5 ce3c
00000050: 7194 553f a225 dabd 3d68 083d e1b6 6d3e
00000060: ce8a 63be ce45 58bd 49bf 56be f3b7 733d
00000070: 4969 0a3d 6a8f 2b3e c801 f4bd 218c 3cbb
00000080: ad73 b8bc e306 48bd 7e1f e73c 05e1 193e
00000090: 1baf 10bf a207 18bd 5c9c 3abf 517b c73d
000000a0: 3f31 19bd 1d3c 07be 1614 2b3d 6d5b f9ba
000000b0: 96ca 413e da04 f53d 2391 063d b375 cc3d
000000c0: 617c 2a3d 61a5 0dbd 5ca2 c9bc f5a6 543f
000000d0: 93de ab3b e0fb 2b3f 8a82 aa3b 26e5 febc
000000e0: 658a 21be c9eb d8bb 2827 023d 3c78 f53d
000000f0: fb45 043d be82 273d bde0 7e3d 69ed 8fbc
00000100: 19dc 173d ce5c 8b3d 35f1 353f cfcc 423c
00000110: ddfa 113f 85f7 8dbe b511 47bd 15bb 97be
00000120: f430 16bf cba8 a5bb 53fc 96be 146d 993e
00000130: 7472 073d a1a5 9abb 3d82 ed3e 9452 34bb
00000140: 7d0b b03e 314e a83d dc33 fd3c 0199 4ebd
00000150: 401d 93bd 83e0 6ebc 22a4 643e 38c1 debd
00000160: a503 6d3d 7007 f6bd d546 733f 9b65 ed3b
00000170: ecdc 3c3f 565b b6bd 4cd2 12bd 9177 74bd

rnn.weight_hh_l0 f4 [32, 32]
0.004688437 0.24270004 -0.18796305 0.13329238 -0.7146397 -0.025999146 -0.7108892 0.29165897
0.5743055 0.6512869 0.39256015 0.39818332 -0.6252975 0.013358073 -0.28133914 0.15822062
-0.15035293 0.45778754 0.13855737 -0.13465776 -0.042741343 -0.8911682 0.25021175 0.41566598
-0.18502143 -0.31727904 0.7087502 0.14493594 -0.21570374 -0.85999763 -0.13567312 -0.15964225
-0.15155202 -0.1426037 0.40338942 -0.5991319 -0.37355962 -0.52053684 -0.24342485 -0.26709676
0.19242354 0.48284742 -0.23772089 0.53669095 0.18181102 0.050863028 -0.5035315 -0.029026223
0.57747334 -0.19024591 -0.31658366 0.13857865 -0.09895699 0.17607576 -0.32249513 0.3100699
0.4685798 -0.6752911 0.23211336 0.6835558 -0.09292891 0.17958477 -0.81657475 0.4162152
0.123484656 -0.20024006 -0.23676924 0.08581035 -0.06697016 0.13393265 0.032769777 0.052057005
0.012436596 -0.18524593 -0.17331812 0.0816512 -0.13208546 0.056882307 -0.12088655 -0.023438804
0.08453419 0.16198443 0.086662464 0.24401885 0.012367717 -0.05477889 0.13965243 -0.123285584
0.086113006 0.028503677 -0.1954022 -0.043293025 0.07266991 0.0905343 0.18653232 0.041869793
0.12627211 0.6269356 0.07076781 -0.083840616 -0.45017487 -0.123264976 0.12629661 0.26271653
0.070686795 0.37429616 -0.18305655 -0.12326931 -0.36608312 -0.53074664 0.32827196 -0.15019567
-0.13823089 0.030182077 -0.09957154 0.110489696 -0.31424966 -0.28348246 0.23898937 0.3166387
-0.64511746 0.5088003 0.060315195 0.4261672 -0.3632133 -0.529404 -0.25588357 -0.13909663
0.120915264 0.15518792 -0.15952815 0.104100265 -0.07083241 0.11026115 0.0053520016 0.26818883
-0.30395663 0.34393528 0.25253424 -0.20651715 -0.22175834 0.14865687 -0.12099664 0.09894759
-0.32005262 0.17173596 -0.030388752 0.035458058 0.024303611 -0.05689314 0.3083368 -0.032431766
0.06500314 0.15933876 0.050134394 0.021325814 0.029508851 0.12094715 0.44396767 0.09230788
0.24284366 0.56562716 -0.031677365 0.29294685 -0.18173437 -0.18865523 0.21294282 0.18115784
0.01797231 0.12038566 -0.026580866 -0.119123004 0.005354952 0.19748656 0.279329 -0.60113305
-0.55957025 0.075244546 0.2012366 -0.38793296 -0.42668393 -0.3210214 0.13910681 0.21366002
-0.32737663 0.030696305 -0.060672708 0.061781064 -0.32163757 -0.2539018 -0.18881065 0.119372666
0.62808555 0.039403085 -0.9425845 -0.28813207 -0.0387706 -0.47245866 -0.18382771 0.33372492
0.19193913 0.38605657 0.69696194 -0.16638577 -0.47840443 -0.15337683 0.44485494 -0.13561797
0.62830293 0.42078888 0.5762316 -0.50297934 -0.6416427 -0.291081 0.37692547 0.20977074
-0.2799564 -0.062175423 0.099768564 0.47511622 -0.48535547 -0.14026038 -0.38987866 -0.560587
-0.38574758 0.12320492 -0.34277096 -0.14704414 -0.454333 0.2026799 -0.025236629 -0.054801717
-0.032303188 0.3250495 0.07110863 0.4219188 -0.5747342 -0.07605489 -0.5164667 0.3141401
0.41751814 0.10121482 0.06269641 0.03800131 0.46449476 -0.30523348 0.034857314 0.045672555
0.10974768 -0.037162445 0.323496 -0.5211812 -0.15659826 -0.31853008 -0.043742724 0.7448789
00000000: 76a1 993b 5c86 783e 6379 40be cc7d 083e
00000010: a1f2 36bf 29fc d4bc d6fc 35bf 5354 953e
00000020: af05 133f bdba 263f a5fd c83e afde cb3e
00000030: 7f13 20bf d2db 5a3c af0b 90be 9604 223e
00000040: 1ef6 19be 2163 ea3e fce1 0d3e b9e3 09be
00000050: 8c11 2fbd 9923 64bf c11b 803e 2cd2 d43e
00000060: 4276 3dbe 6672 a2be a770 353f 166a 143e
00000070: 71e1 5cbe ce28 5cbf e5ed 0abe 4279 23be
00000080: 7430 1bbe b406 12be 0f89 ce3e b560 19bf
00000090: 3543 bfbe e741 05bf 5d44 79be e8c0 88be
000000a0: ad0a 453e c737 f73e 1b6d 73be 9464 093f
000000b0: ab2c 3a3e c055 503d 71e7 00bf 67c8 edbc
000000c0: 4bd5 133f d3cf 42be 4117 a2be 90e7 0d3e
000000d0: f6a9 cabd 344d 343e 151e a5be 7bc1 9e3e
000000e0: b1e9 ef3e e1df 2cbf 20af 6d3e 83fd 2e3f
000000f0: 8351 bebd 12e5 373e 0b0b 51bf 291a d53e
00000100: 86e5 fc3d bb0b 4dbe a373 72be 56bd af3d
00000110: a727 89bd a425 093e 9a39 063d ba39 553d
00000120: ddc2 4b3c 1cb1 3dbe 4e7a 31be bf38 a73d
00000130: 6941 07be 6cfd 683d 5e93 f7bd bc02 c0bc
00000140: 4320 ad3d 3fdf 253e 177c b13d 14e0 793e
00000150: f7a1 4a3c d45f 60bd 0c01 0f3e 277d fcbd
00000160: 045c b03d 8b80 e93c 8417 48be 0754 31bd
00000170: f6d3 943d 0c6a b93d 5402 3f3e a97f 2b3d
00000180: 7a4d 013e da7e 203f b7ee 903d a1b4 abbd
00000190: 527d e6be 5972 fcbd e653 013e c882 863e
000001a0: 3dc4 903d bfa3 bf3e 2d73 3bbe 9f74 fcbd
000001b0: 3f6f bbbe 03df 07bf 4313 a83e e5cc 19be
000001c0: 668c 0dbe 6740 f73c 2aec cbbd 6c48 e23d
000001d0: 55e5 a0be 9d24 91be a1b9 743e 781e a23e
000001e0: 6b26 25bf bd40 023f 110d 773d 9632 da3e
000001f0: 18f7 b9be 0587 07bf 2c03 83be 596f 0ebe
00000200: 6ca2 f73d 95e9 1e3e 595b 23be 8532 d53d
00000210: 9510 91bd 99d0 e13d d85f af3b 0c50 893e
00000220: 34a0 9bbe 4918 b03e 2b4c 813e 3b79 53be
00000230: 9e14 63be 8239 183e 16cd f7bd 09a5 ca3d
00000240: f0dd a3be 8ddb 2f3e d5f1 f8bc 783c 113d
00000250: 5e18 c73c c808 69bd 52de 9d3e 2cd7 04bd
00000260: 5e20 853d b329 233e b959 4d3d 79b3 ae3c
00000270: 8cbc f13c 24b3 f73d bb4f e33e ea0b bd3d
00000280: 02ac 783e f1cc 103f 20c0 01bd 21fd 953e
00000290: 9318 3abe d62e 41be af0d 5a3e 7181 393e
000002a0: aa3a 933c c28c f63d 1ec0 d9bc c3f6 f3bd
000002b0: 9878 af3b eb39 4a3e 3604 8f3e dbe3 19bf
000002c0: ff3f 0fbf d019 9a3d f810 4e3e 269f c6be
000002d0: 5176 dabe eb5c a4be 0472 0e3e b1c9 5a3e
000002e0: e99d a7be d176 fb3c f283 78bd 240e 7d3d
000002f0: aead a4be 6bff 81be 9457 41be a879 f43d
00000300: 37ca 203f 2165 213d 384d 71bf 0c86 93be
00000310: eccd 1ebd 1ae6 f1be 553d 3cbe fedd aa3e
00000320: b18b 443e 35a9 c53e 196c 323f 0861 2abe
00000330: 6df1 f4be d10e 1dbe 07c4 e33e 70df 0abe
00000340: 76d8 203f a471 d73e ea83 133f 41c3 00bf
00000350: b242 24bf 9208 95be 60fc c03e 24ce 563e
00000360: 7256 8fbe a8ab 7ebd 7653 cc3d 6f42 f33e
00000370: 8380 f8be 6ba0 0fbe 2d9e c7be a182 0fbf
00000380: b580 c5be dc52 fc3d ad7f afbe bd92 16be
00000390: 569e e8be 528b 4f3e 0cbd cebc c477 60bd
000003a0: 5950 04bd e36c a63e 67a1 913d be05 d83e
000003b0: c821 13bf abc2 9bbd 2937 04bf f9d6 a03e
000003c0: f0c4 d53e b749 cf3d fa66 803d 43a7 1b3d
000003d0: 42d2 ed3e 9047 9cbe 8bc6 0e3d 2513 3b3d
000003e0: 64c3 e03d a637 18bd 45a1 a53e 226c 05bf
000003f0: 4b5b 20be 6016 a3be 922b 33bd 62b0 3e3f

rnn.bias_ih_l0 f4 [32]
-0.008687485 -0.3377145 -0.019354003 -0.056943625 -0.015543971 0.023073263 0.8099542 -0.15258156
-0.08306179 0.30725858 -0.32107955 0.3275236 -0.5484549 -0.2830277 0.5462856 0.0651797
-0.117693454 1.457505 0.006961852 0.08136087 0.24833025 -0.030832121 0.9944704 -0.2582587
-0.7616847 -0.01761715 0.4152943 -0.11284968 0.26275575 0.020713089 0.8397331 0.023887146
00000000: f455 0ebc eae8 acbe 498c 9ebc b83d 69bd
00000010: 24ac 7ebc 2404 bd3c 2959 4f3f 573e 1cbe
00000020: 4d1c aabd ff50 9d3e 8a64 a4be 2cb1 a73e
00000030: 8a67 0cbf 02e9 90be 60d9 0b3f ef7c 853d
00000040: 4409 f1bd 868f ba3f 3f20 e43b 87a0 a63d
00000050: 494a 7e3e a593 fcbc 9d95 7e3f 7c3a 84be
00000060: c5fd 42bf d751 90bc 74a1 d43e bc1d e7bd
00000070: ec87 863e 7fae a93c c0f8 563f faae c33c

rnn.bias_hh_l0 f4 [32]
-0.024455251 -0.49855176 -0.23845728 -0.034014676 0.016915793 -0.10380418 0.7654987 0.048101567
-0.16555578 0.09922818 -0.17007558 0.01719096 -0.3602486 -0.16374238 0.58251864 -0.13528658
-0.118559144 1.3478216 0.11151939 -0.033441383 0.42475253 -0.18066739 0.77440405 -0.13992015
-0.45717278 0.24845612 0.6007192 -0.16944666 -0.00745974 0.015089353 1.0161794 -0.04628268
00000000: 6156 c8bc 2d42 ffbe 252e 74be f952 0bbd
00000010: fd92 8a3c 4997 d4bd b9f7 433f 2606 453d
00000020: 7487 29be 2538 cb3d 4b28 2ebe 0ed4 8c3c
00000030: 8172 b8be 15ac 27be f11f 153f 9188 0abe
00000040: 23cf f2bd 6b85 ac3f 4764 e43d d5f9 08bd
00000050: 2a79 d93e df00 39be 583f 463f 3a47 0fbe
00000060: 8d12 eabe 486b 7e3e bcc8 193f 6d83 2dbe
00000070: d670 f4bb 5539 773c 2b12 823f e892 3dbd

fc.weight f4 [2, 32]
-0.24037616 -0.36618453 -1.3898231 -0.10588238 0.24297614 0.18942927 0.395961 0.17092776
-0.36622712 0.09129703 0.46538973 0.19495657 -0.18006173 -0.05837616 -0.48146808 -0.085311
-0.1404497 -1.4687213 1.0169617 -0.7056015 0.21710584 -0.09481927 0.28167865 -0.09496841
-0.093625605 0.02180814 -1.5500054 -0.20710911 0.07676894 -0.25262207 -1.3072407 -0.11898347
0.16754732 0.45508698 1.1822891 0.17459904 -0.27775806 -0.1835194 -0.332521 -0.18818061
0.6426237 -0.20796652 -0.50793713 -0.023806645 0.0043099457 0.12606059 0.28335777 0.04315231
-0.097505674 1.3864677 -1.0013478 0.8235593 -0.17143127 0.035781894 -0.1822684 0.05948809
-0.039506763 -0.18571694 1.4677451 -0.06514731 -0.15658803 0.2560382 1.3406168 0.06752703
00000000: 2b25 76be 8a7c bbbe b9e5 b1bf dcd8 d8bd
00000010: bdce 783e bff9 413e 66bb ca3e b007 2f3e
00000020: 1f82 bbbe f0f9 ba3d 9047 ee3e b2a2 473e
00000030: 1a62 38be d71b 6fbd fc82 f6be 89b7 aebd
00000040: 0cd2 0fbe 0fff bbbf cd2b 823f 4da2 34bf
00000050: fe50 5e3e 9b30 c2bd 2f38 903e cc7e c2bd
00000060: c8be bfbd fca6 b23c 9466 c6bf 6914 54be
00000070: 0939 9d3d ae57 81be aa53 a7bf 9bad f3bd
00000080: 8691 2b3e 2901 e93e 4055 973f 17ca 323e
00000090: 4e36 8ebe 82ec 3bbe 3140 aabe 6bb2 40be
000000a0: fd82 243f 2df5 54be 2b08 02bf 2706 c3bc
000000b0: 723a 8d3b 0716 013e 4514 913e 7ac0 303d
000000c0: 0eb1 c7bd c677 b13f 2a2c 80bf c8d4 523f
000000d0: ae8b 2fbe 0990 123d 91a4 3abe c9a9 733d
000000e0: d8d1 21bd 952c 3ebe 12df bb3f f46b 85bd
000000f0: 9d58 20be 7017 833e 5599 ab3f 9d4b 8a3d

fc.bias f4 [2]
1.1750237 -1.2840548
00000000: 2d67 963f e85b a4bf
