detector/models/32_1_32_5_256_0.001_covert_detector_1.pth (torch, 8445 bytes, 6 tensors)

rnn.weight_ih_l0 f4 [32, 3]
0	0xbd6dfe89	-0.05810407
1	0xbc057cdf	-0.008147447
2	0xbdb7c3fe	-0.089729294
3	0x3e5b9c39	0.21446313
4	0x3c4861b3	0.012230325
5	0xbc6596c9	-0.014013001
6	0xbd39aa81	-0.04532862
7	0xbc01646a	-0.007897476
8	0xbd3ca361	-0.046054248
9	0xbe165538	-0.14680946
10	0xbe878828	-0.26471066
11	0x3dafd0a0	0.08584714
12	0x3e1c326b	0.15253608
13	0xbca4aeb8	-0.020102844
14	0x3d3ef363	0.04661883
15	0x3df87e91	0.121335156
16	0x3c918543	0.01776374
17	0x3e14e89e	0.14541861
18	0x3dc06546	0.093943164
19	0xbc7bbb61	-0.015364499
20	0x3dc0ca75	0.094136156
21	0xbe84c1f7	-0.25929233
22	0xbcab7386	-0.02092911
23	0x3c373039	0.011180931
24	0x3d89bd95	0.06725613
25	0xbc9bb382	-0.019006494
26	0xbd74b27b	-0.059740525
27	0x3ecf7fa6	0.40527076
28	0x3bbaa510	0.0056959465
29	0x3e98c994	0.29841292
30	0xbe084b82	-0.13310054
31	0xbc82d533	-0.015970802
32	0xbe7dc16d	-0.24780817
33	0xbc9b5817	-0.018962903
34	0x3bac4896	0.0052576764
35	0x3d2aec8e	0.041729502
36	0xbce431ab	-0.027855715
37	0x3c7e411c	0.015518453
38	0x3e8fef54	0.2811228
39	0x3d55a67e	0.052160732
40	0xbc8afe0d	-0.016966844
41	0xbd48e3ae	-0.049045257
42	0xbe742dde	-0.23845622
43	0xbc515d61	-0.012778611
44	0xbc51c526	-0.0128033515
45	0x3da9fad4	0.08299795
46	0x3e402953	0.18765764
47	0x3df1d99a	0.11809082
48	0xbe4be9a1	-0.19913341
49	0xbc4dc4ac	-0.012559097
50	0xbdbb8c95	-0.09157673
51	0xbdc5529d	-0.09634898
52	0xbc9b9fba	-0.018997062
53	0x3d8ed5d6	0.0697438
54	0x3e1cf3c8	0.1532737
55	0x3cba14df	0.02271503
56	0xbd247cf8	-0.040158242
57	0x3d69bb2b	0.057063263
58	0x3d814b6a	0.06313212
59	0x3c4fe82c	0.012689631
60	0x3e4b4cbd	0.19853492
61	0x3e7e14a3	0.2481256
62	0x3d829f8e	0.06378089
63	0xbda8c782	-0.08241178
64	0x3bdfc6e7	0.006829131
65	0x3cf16af6	0.029469948
66	0x3de5843d	0.11206863
67	0x3c3f9340	0.011692822
68	0x3d835ac7	0.06413799
69	0xbe384dce	-0.1799843
70	0xbc8e9312	-0.017404113
71	0x3da9e1d6	0.08295028
72	0x3e286dc4	0.16448122
73	0x3c61420e	0.013748659
74	0x3de52915	0.111894764
75	0x3b482f6a	0.003054584
76	0xbc9b8142	-0.018982533
77	0xbbef0e79	-0.0072954264
78	0xbdb30908	-0.08741957
79	0xbc6ad55f	-0.014333098
80	0xbe2e786d	-0.17038126
81	0x3db85e71	0.09002388
82	0xbe2ca25c	-0.1685881
83	0x3db3a2ef	0.087713115
84	0x3d492bc6	0.04911401
85	0xbc642e47	-0.013927049
86	0x3dbc2c64	0.09188154
87	0xbe22d099	-0.15899886
88	0xbc08729f	-0.008328109
89	0x3dcd918a	0.10037525
90	0x3dcb42a7	0.09924822
91	0x3ca37f82	0.019958261
92	0x3c958c95	0.018255511
93	0x3e850bd4	0.25985587
94	0x3c1d05f7	0.009583942
95	0x3e6fc65e	0.23415515

rnn.weight_hh_l0 f4 [32, 32]
0	0x3e7698ea	0.2408177
1	0x3cf8a1af	0.030350534
2	0x3e3e09fb	0.18558495
3	0x3e27dc8b	0.16392724
4	0x3d2415cf	0.04005986
5	0xbd1223fa	-0.03567884
6	0xbe553a3a	-0.20822993
7	0xbe0e40ae	-0.13891861
8	0xbcd9d960	-0.02659291
9	0x3cecb7be	0.028896209
10	0x3e000efd	0.12505718
11	0xbdf4fb5a	-0.11962004
12	0x3d81d7f6	0.063400194
13	0xbd23dd91	-0.040006224
14	0x3e0638b4	0.13107568
15	0xbe1e0075	-0.15429862
16	0xbdd0b137	-0.10190051
17	0xbe4bcb95	-0.19901879
18	0x3e63e27a	0.22254363
19	0xbe297215	-0.16547425
20	0xbebf48ed	-0.37360325
21	0x3de99c17	0.11406725
22	0xbe1dfa4f	-0.15427516
23	0xbd889227	-0.06668501
24	0x3da13180	0.078707695
25	0xbd21d290	-0.03950745
26	0xbdafbd15	-0.085809864
27	0x3e5e45bd	0.2170629
28	0x3e15a748	0.14614594
29	0x3df994ca	0.121865824
30	0xbc80516b	-0.015663823
31	0x3e296d86	0.16545686
32	0xbe2e0cee	-0.1699712
33	0xbe15b284	-0.1461888
34	0x3e05a106	0.13049707
35	0xbe1333d9	-0.14375247
36	0x3e1f5d46	0.15562925
37	0xbe3e518b	-0.18585794
38	0x3e3db1da	0.18524876
39	0xbd274944	-0.040841356
40	0x3d09c472	0.03363461
41	0x3e107df6	0.1411055
42	0x3e0db163	0.13837199
43	0xbbadaa2e	-0.005299828
44	0x3d127f9b	0.035766225
45	0x3db9997a	0.090624765
46	0x3dab9011	0.08377088
47	0x3d132be2	0.03593052
48	0xbe0fadd2	-0.14031151
49	0x3e32ffd0	0.17480397
50	0xbdbcb4fb	-0.09214207
51	0xbc11f9d2	-0.008909659
52	0xbd84fcc4	-0.06493524
53	0x3cad566a	0.02115937
54	0x3ca0c28f	0.019624023
55	0x3e61b4a3	0.22041564
56	0x3db01f68	0.0859974
57	0x3decb7f7	0.11558526
58	0x3ddc52c5	0.107579745
59	0xbe06bd10	-0.13158059
60	0x3d50dea1	0.050993565
61	0xbe4fc689	-0.20290579
62	0xbdb00be1	-0.08596016
63	0x3c5f8766	0.013643121
64	0xbe31794c	-0.17331427
65	0xbd351978	-0.044213742
66	0x3e729bc6	0.23692235
67	0x3e185878	0.14877498
68	0xbe8152d8	-0.25258517
69	0x3cda7096	0.026665013
70	0xbe7c4ec4	-0.24639422
71	0x3d81a2c3	0.063298725
72	0xbe6126ea	-0.21987501
73	0x3c88af77	0.01668523
74	0xbd568d6a	-0.052380957
75	0x3d85a9bb	0.06526514
76	0xbd1a7a7a	-0.03771446
77	0x3d14ff4c	0.036376283
78	0x3ba4452e	0.0050131297
79	0xbe90c1da	-0.28272897
80	0xbd9d7591	-0.0768844
81	0xbd756718	-0.05991277
82	0x3e68b43a	0.22725001
83	0xbe5414bc	-0.20711035
84	0xbe4191cc	-0.18903273
85	0x3d665983	0.05623771
86	0x3cdc4225	0.026887009
87	0x3cefd4bd	0.029276246
88	0x3e1e6d93	0.15471487
89	0xbe132bb3	-0.14372139
90	0x3d9232ab	0.071385704
91	0x3db3e2d2	0.08783497
92	0xbdc7b897	-0.097520046
93	0xbe455c92	-0.19273594
94	0x3dd35765	0.103194036
95	0xbd31ae61	-0.04337919
96	0xbc9c3e88	-0.019072786
97	0x3e2955ce	0.16536638
98	0xbdd5255a	-0.10407515
99	0x3dc86e99	0.0978672
100	0x3d0199ad	0.031640697
101	0x3dd70b90	0.10500252
102	0xbe2e12a8	-0.16999304
103	0xbd395557	-0.045247402
104	0xbe123934	-0.14279634
105	0xbcaabbb3	-0.020841455
106	0x3d8bee5e	0.06832574
107	0x3cb39d98	0.021925732
108	0xba8bc5dc	-0.0010663825
109	0x3d9531d1	0.07284892
110	0xbc90538d	-0.017617965
111	0xba1d7a1c	-0.00060072704
112	0xbdd9ab34	-0.106283575
113	0x3dd0ea90	0.10200989
114	0x3e2f07f7	0.17092882
115	0xbe3b7c88	-0.18309224
116	0xbd4c83e5	-0.049930472
117	0xbdc25246	-0.09488349
118	0xbd86ae4c	-0.06576213
119	0x3b678641	0.0035327824
120	0xbe8cd3b1	-0.27505258
121	0x3d44c79c	0.048041925
122	0x3e10a6df	0.14126156
123	0xbad9e975	-0.0016625362
124	0x3df245c0	0.1182971
125	0xbdc37f65	-0.09545783
126	0x3cf37cd4	0.029722609
127	0xbdc60cec	-0.096704334
128	0x3d8add7f	0.06780528
129	0xbe836a26	-0.25666922
130	0xbd39a0b9	-0.045319293
131	0x3e1a9fc2	0.15100005
132	0xbd867289	-0.065648146
133	0xbdf50a30	-0.11964834
134	0x3df1dc59	0.11809606
135	0x3e1014fc	0.14070505
136	0x3e0327da	0.12808171
137	0x3c0a1f79	0.008430355
138	0xbb05e632	-0.0020431397
139	0xbe4d3829	-0.20040955
140	0xbdf64c24	-0.120262414
141	0xbcb116fe	-0.021617409
142	0x3d8eca91	0.0697223
143	0x3c1ef4cc	0.009701919
144	0x3e6c94fb	0.23103707
145	0x3dd500ba	0.10400529
146	0x3da4cc79	0.080468126
147	0xbdef7d1e	-0.11693786
148	0xbd426aa5	-0.047464985
149	0x3cff4e10	0.031165153
150	0xbdae1411	-0.08499921
151	0x3dcaae51	0.098965295
152	0xbe1929aa	-0.149573
153	0x3d3475d3	0.04405768
154	0x3e73cc74	0.23808461
155	0xbd1434ca	-0.036183156
156	0x3e3584ef	0.17726491
157	0x3e0344bb	0.12819187
158	0xbe46aa65	-0.19400938
159	0xbd944db7	-0.072413854
160	0xbb01ca07	-0.0019804256
161	0x3e7a5c1e	0.24449202
162	0xbe259395	-0.1616958
163	0xbd94e743	-0.07270672
164	0xbe283c74	-0.16429311
165	0xbc362e4e	-0.011119438
166	0xbe8424e6	-0.258094
167	0xbcc437d4	-0.023952402
168	0xbe849a21	-0.2589884
169	0x3c994341	0.018708827
170	0xbe525297	-0.20539318
171	0x3e6b3771	0.22970368
172	0x3e583bf5	0.21116622
173	0xbe29bad8	-0.16575181
174	0xbe4c15f9	-0.19930257
175	0xbc837502	-0.016047005
176	0xbe8d8b14	-0.2764517
177	0xbe7b8033	-0.24560623
178	0x3e649ef2	0.22326258
179	0x3d685b71	0.05672783
180	0x3dd122e0	0.1021173
181	0x3e22ff66	0.1591774
182	0xbc864312	-0.016389403
183	0xbe48c3b2	-0.19605902
184	0xbccc2add	-0.024922783
185	0xbe994093	-0.2993208
186	0xbe3c3e45	-0.18383129
187	0x3df3c80a	0.11903389
188	0xbe27fefb	-0.16405861
189	0xbc9ce327	-0.019151283
190	0x3cb38f6e	0.021918979
191	0x3e8544ed	0.2602915
192	0x3e516cde	0.20451686
193	0xbe460353	-0.19337206
194	0xbd98b50f	-0.07456409
195	0x3dda1bd4	0.10649839
196	0xbdfc463c	-0.12318084
197	0xbcb121c0	-0.021622539
198	0x3e063783	0.13107114
199	0xbdb46b74	-0.088095576
200	0x3da9c371	0.082892306
201	0x3dafc870	0.08583152
202	0x3db72293	0.089421414
203	0x3d4f0bd8	0.050548404
204	0xbe441a1c	-0.19150585
205	0xbdeba1e0	-0.115054846
206	0x3e1f87d5	0.1557916
207	0xbe0e5d13	-0.13902692
208	0x3e420aea	0.18949476
209	0xbe26b896	-0.16281351
210	0x3914c900	0.00014189258
211	0x3da90d3e	0.08254479
212	0xbe0efe8f	-0.13964294
213	0x3d84958a	0.06473835
214	0xbdc579f8	-0.09642404
215	0x3e739e55	0.23790868
216	0x3d0b68b4	0.0340354
217	0x3d282924	0.04105486
218	0x3e3494dd	0.17634912
219	0x3d9a0dd1	0.075221665
220	0x3ca10715	0.019656697
221	0x3e261292	0.16218022
222	0x3ce568d4	0.028004088
223	0x3e08f6d1	0.13375403
224	0x3ead3b77	0.3383443
225	0xbdd68808	-0.10475165
226	0x3eaabf66	0.3334915
227	0xbc62d29e	-0.01384416
228	0x3aae49be	0.0013297123
229	0xbda53b22	-0.08067919
230	0x3ea3ad48	0.3196814
231	0xbe935a1e	-0.2877969
232	0x3e5e34e7	0.21699868
233	0xbe3baaea	-0.18326917
234	0x3dbb405d	0.09143136
235	0xbd2a98e5	-0.041649718
236	0xbeb64bbc	-0.35604656
237	0x3e030211	0.12793757
238	0x3ea14ee0	0.3150549
239	0xbe2998be	-0.16562173
240	0x3de48199	0.11157531
241	0xbd6ba82e	-0.057533436
242	0x3e071a04	0.13193518
243	0x3c8320b4	0.016006805
244	0xbe4c1783	-0.19930844
245	0xbe1c5cfb	-0.15269844
246	0xbe51140b	-0.20417802
247	0x3dc68e84	0.096951514
248	0xbd99233e	-0.07477425
249	0x3d4a72c0	0.04942584
250	0x3de586a8	0.11207324
251	0x3e2d7e9c	0.16942829
252	0x3e598b1b	0.21244471
253	0x3e9796ab	0.29607138
254	0xbdc9fcfc	-0.09862706
255	0xbe1ba1a3	-0.15198378

rnn.bias_ih_l0 f4 [32]
0	0xbdc1fc83	-0.09471991
1	0x3e4197a3	0.18905501
2	0xbd8453ea	-0.06461318
3	0xbdd55655	-0.10416857
4	0x3e24da43	0.16098885
5	0xbd111b69	-0.03542653
6	0xbe33cd60	-0.17558813
7	0x3cea5224	0.02860362
8	0x3dbbfe0a	0.091793135
9	0x3ec6a909	0.3880084
10	0xbe711620	-0.23543596
11	0x3cfdea0c	0.030995391
12	0x3d6467a7	0.055762913
13	0x3d0dc0a4	0.034607545
14	0xbe836e2f	-0.2567
15	0x3e67965e	0.22615954
16	0xbd204e1d	-0.039136995
17	0xbe210e6a	-0.15728155
18	0x3aa7e810	0.0012810249
19	0x3e412b8c	0.18864268
20	0x3ddd9cf4	0.10820952
21	0x3e395bfa	0.18101493
22	0x3ea48137	0.32129833
23	0xbe63cf61	-0.22247078
24	0x3db0d727	0.08634787
25	0xbde04362	-0.10950352
26	0xbe849e11	-0.25901845
27	0xbe59c64e	-0.21267053
28	0x3e0ef3ff	0.13960265
29	0x3bb4d141	0.005518109
30	0x3d3fca01	0.046823505
31	0x3dd5343e	0.10410355

rnn.bias_hh_l0 f4 [32]
0	0xbd4d080d	-0.050056506
1	0xbd5ce740	-0.053931475
2	0xbe66338b	-0.224806
3	0xbd45c520	-0.048283696
4	0x3d8c3e38	0.06847805
5	0xbe1104ff	-0.14162062
6	0x3d999d88	0.0750075
7	0x3dc4229b	0.09576913
8	0xbd4146eb	-0.047186773
9	0x3eac88a1	0.3369799
10	0xbe9d1e77	-0.30687305
11	0x3e198e9f	0.14995812
12	0x3e08c457	0.13356148
13	0xbe957ad9	-0.29195288
14	0xbe007f43	-0.12548546
15	0x3d535dd7	0.051603165
16	0xbd6a4198	-0.05719146
17	0xbe02e1e4	-0.12781483
18	0xbda6c3ab	-0.081427895
19	0xbd9c179c	-0.07621691
20	0xbd10a861	-0.03531683
21	0x3e254730	0.16140437
22	0x3eb7d202	0.3590241
23	0xbe0aa1ef	-0.13538335
24	0xbe25d2d4	-0.16193706
25	0xbdc82d1f	-0.09774231
26	0xbd6cc7fe	-0.057807915
27	0xbd9c7833	-0.07640114
28	0xbda163c8	-0.0788036
29	0x3ce4c9ca	0.027928252
30	0x3e585e08	0.2112962
31	0x3e95630a	0.29177123

fc.weight f4 [2, 32]
0	0x3d8c9b43	0.06865551
1	0x3db142f2	0.08655347
2	0xbd0786dc	-0.033087596
3	0xbd64ddab	-0.05587546
4	0x3e0388d5	0.12845166
5	0xbe023756	-0.12716421
6	0xbd3c4e8c	-0.045973346
7	0x3e728b3d	0.23685928
8	0x3dbe56a1	0.09293867
9	0xbea22cb0	-0.3167472
10	0xbdfa8e4e	-0.12234174
11	0x3dea7d20	0.11449647
12	0x3ac8fc49	0.0015333976
13	0x3d61aacb	0.05509452
14	0xbd9e83e2	-0.077399984
15	0x3d5a2ad7	0.05326351
16	0x3d7fded7	0.062468376
17	0x3d8ceeb8	0.068814695
18	0xbd87d16b	-0.0663174
19	0x3d15d301	0.036578182
20	0x3dc3bfa0	0.09558034
21	0xbd53d069	-0.051712427
22	0xbcd7ea64	-0.026356883
23	0xbdab26bd	-0.08356998
24	0xbdce7260	-0.10080409
25	0xbd35cea7	-0.044386532
26	0x3d90bf1c	0.07067701
27	0xbdfd9a8b	-0.12382992
28	0xbe702133	-0.23450164
29	0xbd22f973	-0.039788675
30	0xbd9259b9	-0.071460195
31	0xbe181233	-0.14850692
32	0x3cbabda4	0.022795506
33	0x3cc0bb50	0.023526818
34	0x3d840fa4	0.06448296
35	0x3dfd997d	0.12382791
36	0x3d726b30	0.059184253
37	0x3d61d011	0.05513007
38	0xbcf6beb8	-0.030120239
39	0x3d789bae	0.060695343
40	0xbd839960	-0.06425738
41	0x3dfb1d78	0.1226148
42	0xbdd5dcf7	-0.10442536
43	0xbd9d7576	-0.076884195
44	0xbc8b8319	-0.017030286
45	0x3db71102	0.08938791
46	0xbce04724	-0.027377672
47	0xbe33dc75	-0.17564566
48	0x3c971ab4	0.01844535
49	0xbde9ce71	-0.11416329
50	0x3e3b9a4c	0.18320578
51	0xbe1d19d8	-0.1534189
52	0xbe04569d	-0.12923665
53	0x3da61f3d	0.08111427
54	0x3da07eb1	0.078366645
55	0xbd98cb76	-0.07460682
56	0xbe0423e1	-0.12904312
57	0xbe0edf03	-0.1395226
58	0x3c6f0339	0.014588171
59	0x3d5f97ef	0.054588255
60	0x3c807d74	0.01568482
61	0x3d97d94b	0.07414492
62	0x3d41f8c5	0.047356386
63	0x3e03bacc	0.12864226

fc.bias f4 [2]
0	0x3dae320f	0.08505642
1	0xbea369c2	-0.31916624
