detector/models/32_1_64_5_32_0.001_covert_detector_1.pth (torch, 8433 bytes, 6 tensors)

rnn.weight_ih_l0 f4 [32, 3]
00000000: 5092 56be 7ae0 63bc 03a4 643c afd9 40be
00000010: e2b2 e3bc 14bc 42be 8587 2cbe c519 7ebe
00000020: 28ff ebbd 525d 183e b9e2 163d 9ac6 7f3d
00000030: bf4f 07be 6645 a1bc 2ee9 71be 576f dd3d
00000040: 7fb3 7e3c 60e9 22bc 8546 f6bd f624 e8bb
00000050: d69f 673c 5572 68be 9570 9bbb dc25 8fbd
00000060: c57e 4f3d 6354 903c 9a4b 913e 885b bdbc
00000070: 877a ac3c 8360 5a3e 6a04 583d acec c4bc
00000080: 7b8e 523e 54ac e8bd b16a aa3c 691d 583e
00000090: a1e4 29bf dc8b cebb d543 38bf 9a26 ed3d
000000a0: a612 d9bb 0b4c 16be d1d5 4ebe bd8d a4bc
000000b0: 887d 87be 8c2b 483e 69c2 e23c addc 253e
000000c0: 7186 173c 08f2 b6bc b168 1abd 430b 2f3f
000000d0: 6332 3cbb bd37 143f 0077 663d f0f8 383e
000000e0: 7b63 f63c 1cf2 13be bc7e 39be f333 e5bd
000000f0: f19f ddbb 899d 683c 08ba 96bd 2282 f6bd
00000100: 262f 88bc 8a8b 53be 2115 233f 54dd 353c
00000110: 8763 fc3e a5d3 40bd c0e4 613e 2336 323d
00000120: ea78 1bbe 821f 96bc 5bff 77be f6ad 613e
00000130: 1ad8 b33d 7ae7 df3d 553a 3d3e 1266 b63c
00000140: 080c 003e 64e4 1a3d fe92 acbc 6137 b6bd
00000150: 6d3e 563d 1507 0a3c 532d 403d c3c1 55be
00000160: 5c1b 93bc 30b5 90be 86d3 2c3e 4ed6 713c
00000170: 3188 343e 698b 803d 3edf cd3c 8676 2e3e
-0.20954251 -0.0139085 0.013955119 -0.1883304 -0.027795259 -0.19017059 -0.16848572 -0.24814518
-0.115232766 0.14879349 0.036837313 0.06244526 -0.13214014 -0.019686412 -0.23624107 0.10812252
0.015545725 -0.009943336 -0.12025169 -0.007084484 0.014137229 -0.22699864 -0.0047436454 -0.06989643
0.050658006 0.017618364 0.28377992 -0.023114935 0.02105452 0.21325879 0.052738585 -0.024038635
0.20562164 -0.11360994 0.020802828 0.21104969 -0.66364485 -0.0063032936 -0.71978503 0.11579628
-0.0066245375 -0.14677446 -0.20198752 -0.020087117 -0.2646296 0.19547862 0.027680593 0.16197462
0.009248362 -0.022332206 -0.037697498 0.6837656 -0.0028716556 0.5789755 0.05626583 0.18063712
0.030076733 -0.14447826 -0.18114752 -0.11191549 -0.0067634513 0.014197716 -0.073597014 -0.120365396
-0.016624045 -0.20658699 0.63704115 0.011100132 0.49294683 -0.04707684 0.22059917 0.04350866
-0.15182844 -0.018325571 -0.24218504 0.22039017 0.087814525 0.109328225 0.18479283 0.022265468
0.1250459 0.037815467 -0.021066185 -0.088972814 0.052305628 0.00842454 0.046918225 -0.20874695
-0.017957382 -0.28263235 0.16877565 0.014760567 0.17630078 0.062765904 0.025130864 0.170374

rnn.weight_hh_l0 f4 [32, 32]
00000000: 4f21 f53c 5a78 953c 3933 643d 6a42 713e
00000010: 9ff2 5ebe b062 813e 5cfe 99be 15e6 87bd
00000020: 45af 133e d3a5 723e da32 323e 5660 ad3d
00000030: c4d4 27be 963d 7c3c 7564 9dbe f27b e5bc
00000040: 44ad 3ebe ddeb c53d ad5a 22be ec9a 2b3e
00000050: 960f 843e 1c6e 8abe 7db4 2c3d cbc5 89bd
00000060: fc4f 89bd 90ec 13be d815 933e 9ea2 93bd
00000070: 5037 e03b 7b6f 77be 6048 243e 77c0 55bc
00000080: dfc1 2f3d 46f6 a33d 8998 183e 2430 6bbe
00000090: 6fd8 5f3e 2f88 efbd a969 8c3e 913d 0abd
000000a0: 8643 ccbe dcfb af3d 410a f9bd b81a 023e
000000b0: 8c71 c33e 5e29 0c3e 09f6 7fbd bbe4 c3be
000000c0: 003c 053e 5d9b 793d 9796 1bbe 040d 9c3d
000000d0: a1b2 5ebe 7522 ec3d 637a 99bd b3a2 bfbc
000000e0: 024b 22bc 95bd cabd ce46 9bbe d06d 953e
000000f0: 22e1 7abe 4d29 033e abc6 51be 4b70 38be
00000100: 5875 103e f8c8 28be 0c20 883d f806 093e
00000110: 650c 03be dd02 283e 6384 4abd c21f 543d
00000120: f845 ec3d dd78 49be 8d42 2dbe d092 b73d
00000130: a0c2 f6bd 9ddb d73d ea96 d0bd f5e1 debc
00000140: 679e 613d 3deb 193e 811f 883d 8160 5e3e
00000150: 06f8 8cbc bf10 f0bd 986b 023e 06be 96bd
00000160: dbc0 9e3d 07c6 a2bc 434d a5bd 89b1 58bd
00000170: 56c4 753d 04ba 573d 9ae2 073e 7071 643d
00000180: feda 633d 003c 4a3e bb65 03bd 9e0f 33bc
00000190: 11a4 f9bd d54c 903e a1e8 5ebc 9ff1 edbd
000001a0: 411b 8c3d 33c4 a63d e052 e6bd ed0a 203d
000001b0: 1a4b d7bd d79b 25be 3c67 febd 0db1 cabd
000001c0: ee56 cebd 7b43 d93d 810f 893d 9374 493d
000001d0: 3726 063e 2bb3 dd3c 837b 9d3e 5278 8639
000001e0: bda8 4bbe c69d 873d 0a27 0a3d 736f 1dbd
000001f0: 31d3 b13d 5a63 80be e7f6 7e3e b328 9b3e
00000200: 4763 6b3c 8bbb f73d f8ff 643e b84b 123c
00000210: 05b5 88bd 8150 4b3c 1442 99be 2ae8 fe3d
00000220: 53f6 69bd c42f 9fbc e13f c73d 327e 27bd
00000230: 02c4 70bd fb27 2e3d 7c59 16be 2af7 963e
00000240: c0ec 47be 5e58 90bd 8ca3 64be 088c 413e
00000250: f15f a53d f3b2 4d3d 1821 733d 446c 87bd
00000260: 4891 763e bc32 56bc da65 603e 6366 7d3c
00000270: c8ea 2c3e fb31 913e 34b6 803e a439 5d3e
00000280: 729c 8fbc 7617 3c3e 3a0e 4dbd 69b9 143d
00000290: 4c27 273d 8370 14be b3a9 9c3d 554c 9a3d
000002a0: 6c4b cb3d 4416 5e3e 389b a4bd 6f36 4f3e
000002b0: cd23 763d a0b4 543d 9fc7 2f3c faee 58be
000002c0: 05bd 59be e4d5 7a3d 6041 5f3e 4e5e d5bd
000002d0: 444e 973b 43ef 00be a249 323e e5b0 38bd
000002e0: 4adb 3dbd cc72 32bd 4a11 ac3d b951 65be
000002f0: 1e87 283c c5fa febc 3432 a03d 8bd7 f83d
00000300: 479e 383e e11b 3abe 9247 663c 255b e33d
00000310: c320 9b3e 543c a2bd 082a 28be 6a97 cbbd
00000320: cb84 2c3d a2c9 4cbc 4682 223e af24 33be
00000330: 139f 8bbc f6aa 3c3e 2f4c 8d3e bd0c 513e
00000340: 9252 9d3c 1ec0 68be f5b3 44bd c2e6 633d
00000350: bdee 88be 9c8c 073e 8dee 8bbe 5a0c febd
00000360: 4670 973c f8b2 e4bc 3b10 31bc be56 0d3e
00000370: 0f1a 3cbe 3d4f 8c3e 6003 e3bd 56a5 8ebe
00000380: 378e 21be be6d 3a3e e7ff 2b3d b339 813b
00000390: aee0 c3bd d446 873e d05f 573d 34e3 873c
000003a0: abde ddbd 3613 973d dd79 62bb f23c 453e
000003b0: 0e64 9cbe b0ff 8bbd aae7 633c 0d25 463e
000003c0: b6da 333e e918 19bd 9f9d fcbd 6aaf 433e
000003d0: 504a 7b3e 93e5 e6bd e922 cdbd 288d 1dbe
000003e0: 7199 87bd bd84 d7bd eff6 963d d3ba 82be
000003f0: 1360 60bd ae2c 53be 5903 993d fe34 6d3e
0.02992311 0.018245865 0.055712912 0.23560491 -0.2177224 0.25270605 -0.30076873 -0.066356815
0.14422329 0.2369607 0.17402211 0.0846564 -0.16389757 0.015395543 -0.30740705 -0.028013203
-0.18620783 0.09664128 -0.15854903 0.16758317 0.2579314 -0.27037132 0.042164315 -0.06727179
-0.06704709 -0.1444571 0.28727603 -0.07208751 0.0068425313 -0.2416362 0.16043234 -0.0130463755
0.0429095 0.08005957 0.14901938 -0.22967583 0.21859907 -0.11695897 0.27424362 -0.03375012
-0.39895266 0.0859296 -0.12160159 0.12705505 0.38172567 0.13687655 -0.062490497 -0.38260445
0.1301117 0.06093918 -0.15194164 0.0761967 -0.21747829 0.1153001 -0.074940465 -0.02339301
-0.009905579 -0.09899441 -0.30327457 0.29185343 -0.24499944 0.12808724 -0.20485942 -0.18011586
0.14107263 -0.16482913 0.066467375 0.13381565 -0.12797697 0.16407342 -0.04944266 0.0517881
0.11536783 -0.19675012 -0.16919918 0.08963549 -0.120488405 0.10539935 -0.101850346 -0.027207354
0.055082705 0.15031143 0.06646634 0.21716501 -0.01720811 -0.11721944 0.12736356 -0.07360463
0.07751628 -0.019869817 -0.08071377 -0.052903686 0.060001694 0.052667633 0.13270035 0.055772245
0.05562877 0.1974945 -0.03207944 -0.010929016 -0.12189496 0.28183618 -0.013605268 -0.11618351
0.06841136 0.08142891 -0.11246276 0.03907292 -0.10512371 -0.1617273 -0.12422034 -0.09897051
-0.10075174 0.10608574 0.0669241 0.04918344 0.13100515 0.027062973 0.30758294 0.00025648117
-0.19888587 0.0662189 0.033728637 -0.038436364 0.0868286 -0.250758 0.24898873 0.3030449
0.014366931 0.12096318 0.2236327 0.008929186 -0.06675152 0.01240933 -0.29933226 0.124466255
-0.05711968 -0.019431956 0.09728981 -0.040891834 -0.058780678 0.042518597 -0.14682573 0.29485446
-0.19523907 -0.07048105 -0.22328013 0.18901074 0.0807494 0.050219487 0.059357733 -0.06612447
0.24078858 -0.013073619 0.21913853 0.015466305 0.16886437 0.28358445 0.2513901 0.2160402
-0.017530654 0.18368325 -0.050062396 0.036309633 0.04080896 -0.14496045 0.07649555 0.075340904
0.09926495 0.21688181 -0.08037418 0.20235609 0.060092736 0.05193007 0.010728746 -0.21184912
-0.21263511 0.06123914 0.21802282 -0.10418378 0.0046174843 -0.12591271 0.17410901 -0.045090575
-0.04635171 -0.04356651 0.08401735 -0.22394456 0.010286121 -0.031125436 0.078220755 0.121504866
0.18029128 -0.18174697 0.01405515 0.11101369 0.30298433 -0.07921663 -0.16422284 -0.09940989
0.04211883 -0.012499245 0.15870008 -0.17494462 -0.017043626 0.18424591 0.27597186 0.20415016
0.019204412 -0.22729537 -0.048023183 0.05563999 -0.26744643 0.13237232 -0.27330437 -0.124046996
0.018486153 -0.02791737 -0.010807092 0.13802621 -0.18369316 0.27404204 -0.11084628 -0.27860516
-0.15776907 0.18205926 0.041992094 0.003943646 -0.095643386 0.26421225 0.05258161 0.016587831
-0.10833486 0.07376711 -0.00345575 0.1926153 -0.30545086 -0.06835878 0.0139102135 0.19350071
0.175639 -0.03737727 -0.12334751 0.19109884 0.24540067 -0.112742566 -0.10016424 -0.15385878
-0.066210635 -0.10523365 0.073713176 -0.2553316 -0.054779124 -0.20622513 0.07471342 0.23164746

rnn.bias_ih_l0 f4 [32]
00000000: 614e 6bbe ab5e bebd 922c 03bd 66c1 313c
00000010: 4739 86be 95c0 803d 9148 223e 0c86 96be
00000020: 717c a93e ddb1 573e a384 8ebd e9fd 453e
00000030: db5d 04bf e374 2abe f573 06bd c3be 043d
00000040: 9fb7 f9bd fc40 913f 582a e33d f084 e3bd
00000050: 89bc a1bc 5ee1 16be 4aad 633f fe23 8ebc
00000060: 4a7c 9cbe 1fab f0bc 58e2 81bd fcc0 9b3b
00000070: 2865 123e b6cf b6bd a368 f9bd 72a7 7e3e
-0.22979118 -0.092954 -0.032024927 0.010849332 -0.26215574 0.06286732 0.15847994 -0.29399145
0.33102754 0.21063943 -0.06958892 0.1933514 -0.5170571 -0.16646151 -0.03282543 0.032408487
-0.12193226 1.1347957 0.11092061 -0.1110934 -0.01974322 -0.14734408 0.88936293 -0.017351147
-0.30563575 -0.029378472 -0.06342 0.00475323 0.142964 -0.089263365 -0.12178161 0.24868563

rnn.bias_hh_l0 f4 [32]
00000000: cb73 7bbe 27f1 81be 7193 80be 525b 0a3d
00000010: 5535 6bbe dd17 83bd b085 e93d a718 bfbd
00000020: 6a7f 7e3e 8500 2b3b e4bc a63d 6794 efbd
00000030: 275f a8be 523b 41bd 0f47 5f3b 2817 2cbe
00000040: 7d7d fbbd e136 833f 60a6 5c3e f450 67be
00000050: 4e70 203e d727 98be 0557 2b3f c1d1 ce3d
00000060: 109b 93ba 2460 723e 8ddd f93d f15a 54bd
00000070: 7c4e 02be 2454 c2bd c7ed 5f3d d2cc 363e
-0.2455589 -0.25379297 -0.2511249 0.033778496 -0.22969563 -0.06401036 0.11402452 -0.09330874
0.24853292 0.002609284 0.08141497 -0.116982274 -0.32885095 -0.047175713 0.0034069454 -0.16805708
-0.12279794 1.0251123 0.21547842 -0.22589475 0.15667841 -0.29717895 0.66929656 0.10098601
-0.0011261422 0.23669487 0.122004606 -0.05184454 -0.12725252 -0.09488705 0.05467012 0.1785157

fc.weight f4 [2, 32]
00000000: 7db5 e1bd b548 c83d 81e8 98be 2b5b ad3c
00000010: e777 25bd 2882 473c d064 213d 4f4f 73bd
00000020: cf9a a03d 301c adbd 3e7f 02be 35ce c03d
00000030: b1e4 1a3e 017c 4fbd 9fa6 fabd 1a0d bbbd
00000040: 9c05 26be 0289 09c0 d7ae ca3d 435d d4bd
00000050: 1918 fc3b 2cf8 983c 0d50 4cbf 4b52 e83d
00000060: cc24 f6bd 0e8b ad3d 5ad6 71bd 1563 d8bd
00000070: 0007 80bc 6113 163c b21c 943c 7442 12bd
00000080: 6d1c 193d 58b2 11bc ee9a ba3d b3c9 423d
00000090: 5400 b83b a75c cdbb 93e8 c43c 1fa4 2c3d
000000a0: 6eba 4a3e 4da8 03bd 5bdb ad3d 99b5 9d3d
000000b0: 6a6e a7be 6f5c f23d b414 9bbd 656b 493d
000000c0: c449 9bbd 6745 0440 87b4 aabd 3ef8 623e
000000d0: 7d92 1b3d a226 9fbd edc2 653f cf7d 18be
000000e0: 3317 54bc 599d 7ebe fb32 bebc 2c99 2abe
000000f0: b576 83bd d139 bcbb 299e 7a3c 9402 81bc
-0.11020944 0.09779493 -0.29864886 0.021161636 -0.04039755 0.012177028 0.039402783 -0.059401806
0.078420274 -0.08452642 -0.12743852 0.09414331 0.15126301 -0.05065537 -0.12238812 -0.09133358
-0.16213077 -2.1489873 0.09896629 -0.10369351 0.0076933024 0.018673025 -0.7980965 0.11343821
-0.12018737 0.08473788 -0.059042312 -0.105657734 -0.015628338 0.009159894 0.01808009 -0.035707906
0.037380625 -0.008892618 0.09111582 0.047555637 0.0056152735 -0.0062671485 0.024036681 0.042148706
0.1979768 -0.032142926 0.08489104 0.07700653 -0.32701427 0.118340366 -0.07572308 0.049174685
-0.07582429 2.066736 -0.08335214 0.2216501 0.0379815 -0.077710405 0.8975056 -0.14891742
-0.012944984 -0.24864711 -0.023217669 -0.16659993 -0.06419126 -0.005744197 0.015296497 -0.0157483

fc.bias f4 [2]
00000000: 5a2e ad3d 263d 46be
0.084561065 -0.19359264
