detector/models/32_2_16_5_32_0.001_covert_detector_4.pth (torch, 18069 bytes, 10 tensors)

rnn.weight_ih_l0 f4 [32, 3]
000000 5a 67 16 3f 87 52 3c bb 2a 65 0e 3f 6f 87 2c bd
       0.5875145 -0.0028735714 0.55623114 -0.042121347
000010 d0 64 ea 3c e1 42 0f 3a 72 32 19 be 21 f7 98 bc
       0.028612524 0.0005464983 -0.1496065 -0.018672528
000020 48 ba 56 be a4 3a 42 3e e1 7b 9a 3d 6d 6f ec 3d
       -0.20969498 0.18967682 0.07543159 0.1154469
000030 00 7c 82 be 64 20 fb bc 06 e1 a6 bd b1 99 9a 3e
       -0.2548523 -0.030655093 -0.081483886 0.30195382
000040 3d c1 55 3c 6b f2 88 3e 38 9a f0 bc d1 be 0d 3d
       0.01304656 0.2674745 -0.029370412 0.034605805
000050 5b 97 75 bd 50 4e af be 59 79 1c bc 40 db 98 be
       -0.059958797 -0.34239435 -0.009550416 -0.29854774
000060 94 fd c4 3e ef a5 26 3d 57 3b 96 3e 17 05 be bd
       0.38474715 0.04068559 0.29342148 -0.092783146
000070 91 6d 02 bd 1e 87 5a be 37 71 dd 3e 18 f0 5e 3c
       -0.031842772 -0.21340606 0.4325044 0.0136070475
000080 26 8f b5 3e 13 0b ab 3d 38 70 05 3d 8d 9c b1 3e
       0.35460776 0.083517216 0.032577723 0.3468975
000090 28 14 33 be cb 3d 4f bc 19 e3 56 be 19 06 b2 be
       -0.17488158 -0.01264901 -0.20985068 -0.34770277
0000a0 ac c9 00 bd 90 04 a8 bd ca 75 3d 3d b9 6f ac bc
       -0.03144233 -0.08203995 0.04625491 -0.021049367
0000b0 11 cc 52 bd 48 fc 58 be 59 48 b2 bc c2 c8 b8 bd
       -0.051464144 -0.21189988 -0.021763014 -0.090226665
0000c0 76 e2 9c bd f0 7a a8 bc 13 24 52 be eb c3 4b 3d
       -0.076603815 -0.020566434 -0.20521574 0.04974739
0000d0 e1 8a 13 3d 71 68 b7 3c 53 27 6f bc 78 18 1a bd
       0.036021117 0.022388669 -0.014596778 -0.03762099
0000e0 e9 14 ad 3d f2 91 38 3e 34 28 09 3d d8 78 96 3c
       0.08451254 0.18024424 0.033485606 0.01836817
0000f0 70 c0 19 3e 3c 95 12 3d c2 73 82 3d ec 29 2c 3e
       0.15014815 0.035786852 0.06369735 0.16812867
000100 87 86 c9 bc 41 4f 3a 3a b2 5a 7a 3e ab a4 fa 3c
       -0.02460028 0.00071071467 0.2444866 0.030596098
000110 1a 2c 80 3d f0 92 70 3c 7b 26 f5 3c e6 d9 c0 bd
       0.06258412 0.01468347 0.029925575 -0.09416561
000120 68 52 50 be e8 e1 06 bd 9e 89 69 be 32 ce 1b be
       -0.20343935 -0.032930285 -0.22806403 -0.15215376
000130 db de bc bc 5c ee a9 be 5e 68 29 bd 2c c0 0e bd
       -0.023055485 -0.33189666 -0.041359298 -0.034851238
000140 19 3f 3a be 6d 2c 3d 3e 3b 42 a0 3c 71 40 61 3e
       -0.18188132 0.18473978 0.019562831 0.21997239
000150 26 b3 1a be 50 65 15 bd 0b 99 98 be ce d1 e8 bd
       -0.15107402 -0.036473572 -0.29804263 -0.11368142
000160 6c b2 b4 bc d5 4d 9f be c8 28 b6 bd 8f 0b b1 bc
       -0.022057734 -0.3111407 -0.08894497 -0.021611957
000170 3f 81 08 bd 7e cb 8e 3e ef 5f 27 3d 74 7c 8e 3c
       -0.033326384 0.27889627 0.040862974 0.017393328

rnn.weight_hh_l0 f4 [32, 32]
000000 6b 5b b7 be 6d 15 f0 3e 15 8a 45 bf a3 8f 2e 3f
       -0.35811934 0.46891347 -0.7716382 0.6818792
000010 f4 a7 1d bf dd 8a cd 3e 4c 64 83 3f c0 09 47 bf
       -0.615844 0.40145007 1.0264983 -0.7774925
000020 c3 95 76 3f dd fe e1 be 0c cb e3 3e 2d 86 5d 3f
       0.9632227 -0.44139758 0.4449085 0.8653286
000030 41 0a 43 bf 7c 6f 0d bf 6a ee 53 bf 04 4d 79 bf
       -0.7618752 -0.55248237 -0.82785666 -0.9738314
000040 58 bb 3f bf bc 52 e8 3e 0c 06 53 bf 37 fc dd 3e
       -0.7489524 0.4537562 -0.824311 0.43356487
000050 a7 80 5f 3f 17 0c 7f be a5 42 0e 3f 22 76 0f 3f
       0.8730568 -0.24906956 0.5557044 0.5603963
000060 3c c5 fe be 25 d9 80 bf 13 7f 83 be 78 56 3c 3e
       -0.49759853 -1.0066267 -0.25682887 0.1839236
000070 68 5a 50 bf 84 58 f7 be 2b 69 48 bf 05 d2 0e 3f
       -0.8138795 -0.4830972 -0.78285474 0.55789214
000080 d6 05 77 3e f6 e5 ad 3e a4 bd c8 3e 04 0b eb 3e
       0.2412332 0.3396451 0.39207184 0.45906842
000090 b3 e2 fe be 97 88 95 3e 45 97 c6 be a6 b3 17 3e
       -0.49782333 0.29205772 -0.38787284 0.14814624
0000a0 4a fa 73 bd f5 ab 11 be 30 6b 75 3e 89 ce be be
       -0.059564866 -0.14225753 0.2396667 -0.3726695
0000b0 97 9d f0 be d2 6e ba 3e 4e 71 ba 3e 31 6b 76 3e
       -0.46995232 0.36412674 0.3641457 0.24064328
0000c0 8a b4 c5 be f1 89 fa 3e 5c 10 e7 3e 0f 05 c6 be
       -0.38614303 0.48933366 0.4512967 -0.38675734
0000d0 9a 1e 40 3e b4 40 09 bf a2 13 a5 3e 2b cc cf be
       0.18761674 -0.53614354 0.3224154 -0.40585455
0000e0 04 f4 87 be 2c 43 b4 3e e4 fa bc be ef 71 c0 be
       -0.26553357 0.35207498 -0.36910164 -0.37586924
0000f0 36 01 05 3f eb 87 bb be 76 fa dc be 5c 84 09 3f
       0.5195497 -0.36627135 -0.43159837 0.5371759
000100 1e 49 4e 3f e6 f2 ca be 44 2c 4f 3e 48 e8 a7 3e
       0.8058032 -0.39638442 0.2023173 0.32794404
000110 aa 3c 63 be 8c 91 24 3e 76 21 0f bf 5d 99 81 3d
       -0.2219111 0.16071147 -0.5591043 0.0632808
000120 b0 79 e1 3e ed 46 7e 3e 24 bb 85 bc 83 bc 30 3f
       0.44038153 0.24831744 -0.016324587 0.69037646
000130 62 31 bd 3d be b7 40 3f c6 e0 44 3f 6c ed 23 3f
       0.09237935 0.7528037 0.7690548 0.6403415
000140 9a 47 1e 3e 8b 24 bc 3e 46 47 1e bf 04 84 bb bd
       0.15457001 0.3674663 -0.61827505 -0.09156039
000150 ff 6f 01 3f 07 47 99 3d 50 ad 84 bd f5 cf 63 be
       0.5056152 0.074842505 -0.06478369 -0.22247298
000160 6c bb b2 3e c8 6f 0f bf bc 83 2f 3d 55 0d 00 bf
       0.34908617 -0.5602994 0.04285024 -0.50020343
000170 73 85 36 3e eb 6f 7f 3e e3 9b 8b 3e 14 37 d2 be
       0.17824344 0.24945037 0.2726737 -0.41057646
000180 6d a0 0f bc bd 09 90 be 7e be 2b be 19 43 90 3e
       -0.008766276 -0.2813243 -0.16771886 0.2817619
000190 9f b8 33 be 06 f6 6f 3d 40 1f 0e bd 33 95 a4 3e
       -0.17550896 0.058584236 -0.03469777 0.3214508
0001a0 76 a5 b1 3e c2 fa 3a be c9 f7 68 3e 19 45 45 3e
       0.3469655 -0.18259719 0.22750773 0.1926464
0001b0 07 f5 77 3d 94 40 f4 3d 25 a3 89 3e c7 61 67 bc
       0.06053641 0.1192638 0.26882282 -0.014122433
0001c0 3f 29 13 be 48 62 62 bc 52 9f 22 3d c1 be 20 bd
       -0.14371203 -0.013817377 0.03970272 -0.039244417
0001d0 70 e0 e2 3d 29 62 4c bc 12 4e fd bc 7b f3 54 bc
       0.11077964 -0.012474575 -0.030921016 -0.012997503
0001e0 e8 e4 f5 bd dd 1b b9 3c d2 35 18 3c c9 1c 05 3d
       -0.12006551 0.022596294 0.0092901755 0.032498155
0001f0 9a 15 97 bd 96 db 9e bd c7 2c 31 be 3c 49 b7 bd
       -0.07377167 -0.077567264 -0.17302237 -0.08949515
000200 05 f7 54 3e 7d 42 60 3e 27 42 63 bc c1 4e 01 be
       0.20797355 0.21900363 -0.013870752 -0.12627698
000210 56 d2 b9 3d 2b 58 ab be df 4a 48 bd 96 03 03 be
       0.090733215 -0.33465704 -0.048899528 -0.12794337
000220 6d 4d 17 bd c4 5a b2 3e e4 29 d0 be 76 0a ee bd
       -0.036939073 0.34834874 -0.4065696 -0.11623089
000230 92 9e ab bd fd 4f 88 3d b0 91 c9 be bf d8 02 be
       -0.08379854 0.066558816 -0.39368963 -0.12777995
000240 09 e4 9e bd a2 27 f7 bd 2d 01 4c be 27 9f 04 be
       -0.07758338 -0.12068106 -0.19922324 -0.12951337
000250 12 24 86 be dd c9 27 3d 42 fe e7 bd e0 e9 ca bc
       -0.26199394 0.040963996 -0.11327793 -0.024769723
000260 63 9b 05 3e ef 7a 3d bd 81 e9 63 bc d7 83 ed 3c
       0.13047557 -0.046259817 -0.013910652 0.02899353
000270 83 a6 02 3e 58 06 74 3d d5 63 eb 3d 04 33 6f bc
       0.12758832 0.059576362 0.11493651 -0.014599565
000280 04 98 59 be c6 b4 d4 be c6 18 6c be ac 14 cc be
       -0.21249396 -0.4154417 -0.23056325 -0.3985952
000290 e7 c4 be 3e 0d 74 2b 3e 88 40 7f 3e 01 79 38 be
       0.372596 0.16743489 0.2492696 -0.1801491
0002a0 73 60 fb bd 17 e8 e1 be 64 fe 0d be 21 a0 c1 3e
       -0.122742556 -0.44122383 -0.13866574 0.3781748
0002b0 be 9d ea be 5b 08 b7 be 4c cc a7 be 29 f7 9f 3e
       -0.45823473 -0.35748562 -0.32773054 0.31243256
0002c0 6e ea 43 3e 05 55 47 be 4c 07 90 3e de e3 c3 be
       0.19132397 -0.19466026 0.28130567 -0.38259786
0002d0 17 c2 2c 3d 3d d6 71 3e b2 fb e9 3e 33 ca bc 3e
       0.042177286 0.23616882 0.4569984 0.36873016
0002e0 44 9d 42 be 93 1e 7f 3e ff 75 1f bd 6b 5a a9 3e
       -0.19005305 0.24914007 -0.03893089 0.33076796
0002f0 4e 8f 54 3e b3 f9 e1 be 78 1a 77 be ae 04 2c bd
       0.20757791 -0.44135818 -0.24131191 -0.04199665
000300 d2 f9 0e bf 9b 1e 25 3e 37 d0 56 3d 06 38 10 be
       -0.55849946 0.16124956 0.052444663 -0.14083871
000310 33 45 53 3e 72 d7 00 bd ab f1 5e bd 9f e5 ba bd
       0.20631866 -0.031455465 -0.05442969 -0.09125828
000320 28 11 e0 be d8 9b d2 3d 2f 2c ac bd 4b ba b4 be
       -0.4376309 0.10283631 -0.08406865 -0.3529838
000330 bc e9 1e 3e ec a6 05 bf 60 de f8 bd 26 50 0f bf
       0.1551885 -0.5220783 -0.1215179 -0.5598167
000340 f9 07 a3 bd 0c cc 28 be 50 1b ae 3e fb 72 f6 3e
       -0.07960505 -0.16484088 0.34005213 0.48134598
000350 9f e6 a8 be c0 af eb be aa 4c 8c be 21 e8 db 3e
       -0.3298845 -0.46032524 -0.2740224 0.42950538
000360 ac c0 04 be 12 39 95 3e d1 7c 24 be 1d f6 66 3e
       -0.12964123 0.29145104 -0.16063239 0.22554822
000370 3d 42 05 be 48 b9 7d 3d f4 e7 fd bc e0 17 ec 3d
       -0.13013549 0.061944276 -0.030994393 0.11527991
000380 f4 82 bd 3e 32 72 37 bf 0a ed f8 be 39 c1 1f be
       0.37013972 -0.71658623 -0.48618346 -0.15601052
000390 e9 4e b5 3e 49 59 7b be e9 19 0a 3f 3b 5d 93 bd
       0.35411766 -0.24545778 0.53945786 -0.07195517
0003a0 fa 43 4e 3f e5 c8 a4 3e b4 e2 9c be 8e 54 05 3f
       0.80572474 0.3218452 -0.3064171 0.52082145
0003b0 a3 0d 38 3f 57 a6 d8 3e 2d 11 02 3f 7a bf 53 bf
       0.7189581 0.42314407 0.5080746 -0.82714045
0003c0 54 e2 33 3f b5 bd 23 bf 64 c3 15 bf 88 38 d4 be
       0.70267224 -0.63961345 -0.5850127 -0.4144938
0003d0 8e b6 82 3f b3 d0 8a 3e 70 27 2a bf e9 f9 b1 3e
       1.0211961 0.2711235 -0.66466427 0.3476098
0003e0 fe 66 09 3f ed 22 f7 be 22 c2 ca 3e 60 1f 30 bf
       0.5367278 -0.48268834 0.39601237 -0.68797874
0003f0 48 9a 45 3f 6c 6d 4f 3f b0 85 47 3f 1c d6 2f bf
       0.7718854 0.8102634 0.77938366 -0.6868608

rnn.bias_ih_l0 f4 [32]
000000 f8 59 c8 3e 08 dc 05 3e 61 1b c3 be 20 51 17 3e
       0.3913114 0.13072217 -0.38106826 0.1477704
000010 9f 66 10 be c1 4a e7 3e 37 4b 28 3d c0 40 00 bf
       -0.14101647 0.4517422 0.041087355 -0.500988
000020 9f fd b1 3e 90 4d 6b be 7d a6 f7 3e 4b 29 27 3e
       0.3476381 -0.22978806 0.48369208 0.16324346
000030 bb a6 32 be a6 f7 80 be 7f 43 80 3e f6 d7 f3 3a
       -0.17446415 -0.2518894 0.25051495 0.001860379
000040 8f 2e 0c be 76 36 db 3d 76 90 62 bd 57 c3 cf 3d
       -0.13689636 0.10703747 -0.05531355 0.1014468
000050 fe 41 83 3e 43 cc 19 be 60 48 87 3e 69 f9 1b 3e
       0.25636286 -0.15019326 0.26422405 0.15231861
000060 7a 9d 44 be 2d 2c f1 be 0d 3b c9 bd f3 b8 59 bd
       -0.19200698 -0.47104016 -0.09825716 -0.053154897
000070 4e 2b f8 bd 1d 9d 9b be 7a 70 e5 be e5 a1 4e 3e
       -0.12117635 -0.30393305 -0.44812375 0.20178945

rnn.bias_hh_l0 f4 [32]
000000 4d 80 0b 3f 2f f2 80 3e 78 4d cb be c8 d1 10 3e
       0.54492646 0.2518477 -0.3970754 0.14142525
000010 b3 9e 53 be ec 07 df 3e c5 47 40 3e 2f ee bb be
       -0.20666008 0.4356073 0.18777378 -0.36705157
000020 3e fa 1f 3e 9d fd 15 be a6 a2 cf 3e 01 13 15 3e
       0.15622804 -0.14647527 0.40553778 0.1455803
000030 d3 bf bc be 05 38 0d bd 29 b8 00 3e 11 b8 17 bb
       -0.368651 -0.034477253 0.12570252 -0.0023150484
000040 cb e7 4f be 2e fe 3e 3d 5d 90 1f be 3f 5b 02 bc
       -0.20303266 0.046629123 -0.15582414 -0.007956325
000050 4d 2b 82 3e 7f 9d cf bd 75 0a 7a 3e 89 7b f1 bc
       0.2542366 -0.10137462 0.24418052 -0.029477851
000060 16 a9 68 bd 81 ee a3 be 6b 4e 2b be bc a1 10 3e
       -0.056801878 -0.32017902 -0.16729133 0.14124197
000070 95 e7 95 be 21 58 a4 be 50 4b a1 be 51 7f 2d 3e
       -0.29278246 -0.32098487 -0.3150277 0.16943099

rnn.weight_ih_l1 f4 [32, 32]
000000 e6 99 69 3d dd 97 ef bd 88 c1 c1 bd 9f 0f 53 bc
       0.057031535 -0.116988875 -0.09460741 -0.012882142
000010 4a 7e cf bd d5 da 24 3e b2 18 99 bc 28 0c cb bc
       -0.101315096 0.16099103 -0.018688533 -0.02478607
000020 e5 2c 82 bd 58 af 10 3e ca a6 8a 3d 32 61 88 3d
       -0.06356219 0.14129388 0.06770094 0.066591635
000030 1c f6 ea 3d b7 d9 84 bd 73 7c 0f 3e db 4e 40 be
       0.11472723 -0.06486838 0.14012317 -0.18780081
000040 07 63 7a 3c 47 d5 04 bd 5d b0 d5 3c 4b 11 25 3d
       0.015282399 -0.03242996 0.026085073 0.040299695
000050 14 99 83 3d 4f 6e e9 3d 78 a0 b4 bc 67 ad bb 3d
       0.06425682 0.11397993 -0.022049174 0.09163933
000060 e6 73 30 3e f1 e1 2f 3e a8 56 92 3c 2d 35 3f bd
       0.17231712 0.17176034 0.017863587 -0.04668157
000070 67 0d ae 3c f9 59 47 bd 28 17 4d 3d 3b fd f6 3d
       0.021246625 -0.04866979 0.05007091 0.12060019
000080 db 0d 12 be 14 3b f1 3d f5 ee 85 bb b3 e1 24 be
       -0.14263098 0.117788464 -0.004087324 -0.16101722
000090 9e ed b3 bc b4 e9 0a be e3 6d 53 3d 2a 0b cb be
       -0.02196389 -0.13565713 0.051618468 -0.39656955
0000a0 96 23 1c be 18 df 75 3d 4d 1e 34 bd b6 b1 11 be
       -0.1524795 0.060027212 -0.04397421 -0.14227948
0000b0 da 5a 40 bd ad ed 85 bd 8b 13 3e be d3 27 5d 3d
       -0.046961643 -0.06539474 -0.18562143 0.053993057
0000c0 ad 62 86 bc 3c 8a 39 3e 25 e8 c0 bb b0 f8 2b 3d
       -0.016404474 0.18119138 -0.005887049 0.041985214
0000d0 77 bb 73 be 32 f1 41 3b 9e 6f 08 be 50 a3 00 be
       -0.23801981 0.0029593226 -0.13323829 -0.12562299
0000e0 76 5e 03 be 46 89 9a bd f5 08 f6 3c ce 2d de 3d
       -0.12829003 -0.07545714 0.030033568 0.1084858
0000f0 97 cb d6 3c 66 63 29 be db 04 5b 3c c8 f2 43 3e
       0.026220126 -0.16541824 0.013367857 0.19135582
000100 00 2d 96 3e b3 a1 98 bd 93 d3 3a be 10 d6 f3 bc
       0.29331207 -0.07452717 -0.18244772 -0.029765159
000110 a5 86 10 be 12 78 85 3e 9d 94 db 3c ff 92 a0 3e
       -0.14113863 0.2606817 0.026804263 0.3136215
000120 10 fa 36 bd 8e 8a f7 bc 79 5c 0d 3e a0 b4 30 3e
       -0.044672072 -0.030217435 0.13804807 0.17256403
000130 da 7d 38 3d 91 fd cf 3d e7 d8 40 3e 0a 49 ee bd
       0.045041896 0.10155786 0.18832742 -0.11635025
000140 92 11 4a be 7e 03 24 3d f9 a7 80 bd 51 67 1c be
       -0.19733265 0.040042393 -0.06282038 -0.15273787
000150 7b b8 93 bd 7f 39 bb 3d 11 0d d5 bd 6f a0 60 be
       -0.07212921 0.09141826 -0.10402883 -0.219362
000160 22 91 f0 3d 32 42 bb be 40 3e 2f 3d 32 9e 32 bd
       0.11746432 -0.3657394 0.042783976 -0.043607898
000170 15 a9 99 bd ea af 47 3d e9 b1 83 3d 51 68 58 be
       -0.07502953 0.04875175 0.06430418 -0.21133544
000180 02 4e 13 3d 91 28 64 3e 1f 7b 34 3e 6e 42 58 3d
       0.035963066 0.222811 0.17625092 0.052797727
000190 ce 2c 59 bc c6 d8 8d 3d 38 e0 bb 3d 83 85 89 be
       -0.013255311 0.06926112 0.09173626 -0.26859674
0001a0 cb 0e 0a be 52 e5 46 be f3 39 b6 bc 1b 28 07 3e
       -0.13482206 -0.19423416 -0.02224443 0.13198893
0001b0 ba e0 66 3d ac f8 e4 bc 4b bf 27 be c7 e2 10 be
       0.05636666 -0.027950607 -0.16381566 -0.14149009
0001c0 f8 3e 29 be 9b 80 15 bd 23 48 6a bc e5 de 2f bc
       -0.16527927 -0.0364996 -0.014299425 -0.010734295
0001d0 c8 a0 02 3d c7 64 1d 3e 8c 47 c2 3d 1b 2c a0 3d
       0.031891614 0.15370475 0.09486303 0.078209125
0001e0 4d 09 48 be fc 4f 12 bc 91 9d 8d 3c 35 10 4d 3c
       -0.19534798 -0.008930203 0.017287048 0.012516071
0001f0 c8 b8 0c bd ea 17 58 be 6a 66 82 3d 40 08 1e 3e
       -0.03435591 -0.21102872 0.0636719 0.15432835
000200 54 ab ae 3e 50 8d 2a bd 75 bc a3 3d 2c 35 cf 3d
       0.34115088 -0.041638672 0.0799493 0.101175636
000210 85 23 03 3c 04 f9 2a 3e 60 6a f6 3d 66 df b0 3e
       0.008004074 0.16696554 0.12032008 0.3454544
000220 3e 30 35 bc df 43 d7 3d 4d 76 b2 bb c9 80 c7 3d
       -0.011058865 0.10510992 -0.0054462315 0.09741361
000230 41 e6 01 be 96 f3 14 3e fc 13 84 3d a9 04 23 be
       -0.12685491 0.14546046 0.06449124 -0.15919746
000240 a6 63 d0 3a 62 99 01 bd 74 d4 50 be eb 04 76 bd
       0.0015898838 -0.031640418 -0.20393544 -0.060063284
000250 d4 a0 3c 3e 93 86 8d bd d4 d8 dd 3d 26 bb 46 be
       0.18420726 -0.069104336 0.10832372 -0.19407329
000260 39 28 84 3d 42 8a 96 be f4 f9 2b 3d f1 f4 ad bd
       0.06452984 -0.29402357 0.04198642 -0.084939845
000270 52 d3 fe bd 6f be 16 3c 54 fc c9 3d 9c ca 2c be
       -0.1244265 0.009200676 0.09862581 -0.16874164
000280 52 46 bc bd 0b da 85 be aa dd 31 be 3d e0 b5 3b
       -0.091931 -0.26142916 -0.17369714 0.005550413
000290 8f 88 d5 3c 87 ef 9c bb 0b c8 75 bd ed ca fe 3d
       0.026066093 -0.004789296 -0.06000523 0.12441049
0002a0 3a 6c 5d 3e 4b a3 ab 3d 9b c9 f0 bd 6a 14 a0 bc
       0.21623316 0.08380755 -0.11757203 -0.019540984
0002b0 24 20 14 3e ec ce d4 bb 85 e6 8c bd 8d c0 10 3e
       0.14465386 -0.0064943936 -0.068799056 0.14135952
0002c0 e3 ea 2a 3e fc b0 bc bd 9d 61 0f 3e 9c e9 d6 bd
       0.16691165 -0.092134446 0.1400208 -0.10493776
0002d0 f7 8c 66 bd bb d8 37 bd 3f 08 86 3d 97 d9 a3 bb
       -0.05628678 -0.044884425 0.065445416 -0.005000304
0002e0 43 00 ca bc f9 d0 b4 bd d4 f7 cf bd 5c ad 54 3e
       -0.024658328 -0.08828921 -0.10154691 0.20769256
0002f0 af 74 83 bd d5 fb 87 bc 68 0f 24 3e 0c eb 58 bc
       -0.0641874 -0.016599575 0.16021502 -0.013239633
000300 4d a6 d5 3e 1f a6 6f be 67 f3 01 be bc 86 3b 3d
       0.4172844 -0.23403214 -0.12690507 0.04578279
000310 f2 73 31 be 25 5d 1f 3d 60 52 60 3c 34 ab 31 3e
       -0.17329386 0.03890719 0.013691515 0.17350465
000320 2d 25 7c 3d ce 6c db 3d 07 19 34 3e d9 9a 16 3e
       0.06155889 0.10714112 0.17587672 0.14707507
000330 cc 1e 4c 3d ae a4 07 3e 3e e6 2b 3c a5 5c 2d bd
       0.049834058 0.13246414 0.010491906 -0.04232468
000340 47 05 21 3d bb 77 ba bb 4c 36 08 bd 12 f0 da bd
       0.039311673 -0.0056905425 -0.033254907 -0.10690321
000350 ce bf 74 3e 34 78 2d bd a8 84 ee bd f5 79 89 3d
       0.23901293 -0.042350963 -0.11646396 0.067127146
000360 4d 9a 6b bd 97 8c 58 be 0b 03 31 3d 8e 40 a1 3c
       -0.0575202 -0.21147381 0.043215793 0.019684102
000370 2c 7e cb bd 7d f9 c1 3d 17 a9 5c 3c b0 4b 64 bd
       -0.09936175 0.09471414 0.013468049 -0.055736244
000380 86 8b ed 3d 3d 89 20 bd 70 53 40 3e 9a 6d bd bd
       0.115988776 -0.03919338 0.18781829 -0.092494205
000390 44 7f 39 bc 98 26 53 bc 52 e9 6a 3e 85 4a a7 3d
       -0.011321846 -0.012887619 0.22940567 0.0816851
0003a0 08 c5 0f 3d b4 18 c9 3d f7 d7 d5 bd a6 46 89 bd
       0.035100013 0.09819165 -0.10441583 -0.06702928
0003b0 00 d5 40 3d 5b 1f 36 3d c6 9a 81 3d e9 95 2f be
       0.047078133 0.044463497 0.06328349 -0.1714703
0003c0 0f 3c 8b bc 41 48 11 be 26 24 63 3e a5 90 54 bd
       -0.016996412 -0.14187719 0.22181758 -0.051895756
0003d0 35 4a 1b be f9 d2 29 bd 98 3b e9 3d fa 95 41 3e
       -0.15165026 -0.041460965 0.1138832 0.18904868
0003e0 70 9c 32 be 32 27 24 3d 4d 9f 32 be 99 40 ed bd
       -0.17442489 0.040076442 -0.17443581 -0.11584587
0003f0 0b 3c 10 3e ab 24 37 bb ad 38 b7 bd 94 2e f0 3d
       0.14085405 -0.002794544 -0.08946357 0.11727634

rnn.weight_hh_l1 f4 [32, 32]
000000 4c 2d 32 be 26 2d d5 3d e4 1f 86 3d e3 56 35 3e
       -0.17400092 0.10409002 0.065490514 0.17708926
000010 cb b5 8a 3c 58 de 4c bd f0 e7 82 be f9 22 67 be
       0.016932389 -0.05001673 -0.2556758 -0.22571935
000020 5b 93 9c 3e c2 9c 24 be 8e d4 25 bd 88 36 4a bd
       0.30581173 -0.16075423 -0.04048591 -0.04936841
000030 30 05 f4 bd b9 7f 67 bd a6 af d0 bd e5 a1 4e be
       -0.11915052 -0.05651829 -0.10189752 -0.20178945
000040 ad 60 cc 3e d7 e0 c1 3d 17 a0 21 3e c4 53 8f bd
       0.39917508 0.09466713 0.15783726 -0.06998399
000050 3a 23 4b 3e e4 62 2a 3d 56 a2 66 be 6d 6c a0 bd
       0.19837657 0.041598216 -0.22522864 -0.078331806
000060 be 3c f0 bd 9f e2 12 bd 31 50 61 3e 64 51 93 3e
       -0.11730336 -0.035860654 0.22003247 0.28773034
000070 98 66 a7 3c c5 0e 60 bd 23 6d ea bd 96 15 e3 bd
       0.020434663 -0.054701585 -0.114465974 -0.110881016
000080 85 5f 50 3e d6 18 3b 3e 4d a4 17 3d e7 6a 26 3d
       0.20348938 0.18271193 0.037021924 0.040629294
000090 8d 83 bc bd 9f d1 6f be 2e 1a 14 be 1f 1e 5f be
       -0.09204779 -0.23419808 -0.14463112 -0.21788834
0000a0 93 fb 1b 3a c0 e1 2a 3c 3b 03 7d 3d 10 7f 16 bd
       0.0005950268 0.0104298 0.06177066 -0.03674227
0000b0 bc c7 3b 3e 84 f7 11 3e 44 f1 cf bd 68 fc 3c be
       0.18337911 0.14254576 -0.1015344 -0.1845566
0000c0 bd 90 4d 3e ee 62 64 3b 66 2f e6 3e 4b ba 7e bd
       0.20074745 0.0034849006 0.44958037 -0.06218938
0000d0 4c d6 c6 3d ea 07 08 3e f7 68 88 3d 5c 2e e2 bd
       0.09708843 0.13284269 0.066606455 -0.110439986
0000e0 8e 98 df bd 29 6f 49 3e b8 a1 1d bd 7a 2e fa 3d
       -0.10917769 0.1967131 -0.038484305 0.12215896
0000f0 85 61 4f 3e 9e c0 31 3e 27 e3 91 bd 53 b8 92 be
       0.20252044 0.17358634 -0.07123404 -0.28656253
000100 84 e2 60 3b 14 6c af 3d 73 f1 a5 3a d1 69 8f 3e
       0.0034314701 0.08565536 0.0012660458 0.2801042
000110 9e f0 d4 3d 81 54 93 39 8b 55 f7 3d 1c a6 58 3d
       0.103974566 0.00028100985 0.12076863 0.05289279
000120 a3 a5 e5 3d 08 c7 5c 3e 20 21 42 3c 73 21 5e 3e
       0.11213233 0.215603 0.011848718 0.21692447
000130 21 b0 6a 3e df cb 36 3e 87 b2 3d 3e 19 f0 9d 3d
       0.2291875 0.17851208 0.18525134 0.077118106
000140 ec 21 44 bd 8d 54 22 be bc 6b 82 be 3c 15 59 be
       -0.047883913 -0.15852566 -0.2547282 -0.21199507
000150 58 26 82 bb 04 47 0b 3e 58 ae 6f 3e b1 6c 55 3e
       -0.003971856 0.13601309 0.2340635 0.20842244
000160 87 1b 0f 3e 2c 3b 0d 3d 40 30 62 bc 1d 7f d4 3d
       0.13975345 0.03448026 -0.013805449 0.103758074
000170 a1 aa f4 bd 57 b4 47 be 79 92 4b bd 46 9d 20 3d
       -0.119466074 -0.19502388 -0.049700234 0.039212488
000180 79 d9 7c bd 20 32 9f 3d 4d 4e d4 bd c1 c6 32 be
       -0.061730836 0.077732325 -0.10366497 -0.17458631
000190 b4 f8 b9 bd 74 00 77 3e c3 bd 92 bd e4 7e 11 3e
       -0.090806395 0.24121267 -0.071651004 0.14208561
0001a0 85 80 cb 3d 12 a0 d4 3d b0 55 33 3d 16 b0 2e 3d
       0.099366225 0.103820935 0.04378289 0.042648397
0001b0 1f 56 00 3e 62 a7 d1 3c af 63 af bd 0e 83 99 be
       0.12532853 0.02559251 -0.08563935 -0.299828
0001c0 1d e3 c5 3d 48 35 5e 3b 91 0c b9 3d cb 4b d7 bd
       0.09662459 0.003390627 0.090356 -0.10512503
0001d0 35 1a 33 be 69 db a7 3c 52 73 42 3d dd 5e 65 be
       -0.17490466 0.020490365 0.04747326 -0.22399469
0001e0 b1 78 aa bd e7 a8 03 bc e8 88 25 3e fd b7 4f be
       -0.08323801 -0.008035875 0.16165507 -0.2028503
0001f0 59 c7 b2 bd d6 30 93 3d e2 64 32 bd e9 ac 8d bd
       -0.08729429 0.07187049 -0.04355324 -0.069177456
000200 7c ba b6 3c 42 09 08 bd 8d ec 1f 3e f1 1b 4a 3d
       0.02230572 -0.033211954 0.1561758 0.049343053
000210 2f ea 11 bd 31 d1 85 3d 2b cd 7d 3d 05 f6 24 bc
       -0.035623726 0.06534041 0.06196324 -0.010068421
000220 fa 82 39 be a8 26 a2 3b a8 73 6a 3e e5 40 81 3c
       -0.1811637 0.004948456 0.22895682 0.015778014
000230 ca 1f 68 bc e9 56 b2 3e 63 9d 3f 3e f7 89 8c 3d
       -0.014167735 0.34831932 0.18712382 0.06862252
000240 99 fd 70 be 74 e2 91 3d 6b 28 8a bd 04 e9 82 be
       -0.2353424 0.07123271 -0.0674599 -0.25568402
000250 55 2b 4c be 05 52 e6 bd bc f3 80 bc 29 7d fc bc
       -0.19938405 -0.11246113 -0.015741222 -0.0308214
000260 08 b6 4d 3e b5 c7 33 be c4 2c 51 bd 47 60 3a bd
       0.2008897 -0.17556651 -0.051068082 -0.045501973
000270 63 b5 28 bd a4 be 28 bc ad c3 27 ba 38 0f c0 bd
       -0.04118861 -0.0102993585 -0.00063997024 -0.09377903
000280 18 a5 24 3d 0b fb b9 bd ea a5 63 bd 00 99 33 3e
       0.04019651 -0.09081086 -0.05557815 0.17538834
000290 d5 86 d0 3d 51 88 09 be 7c df 6b 3e a3 0f 7d be
       0.10181967 -0.13430907 0.23034471 -0.24712996
0002a0 27 10 c5 bc 03 cd 98 3e 0d ab 4b 3e 28 4b 4a bd
       -0.024055554 0.29843912 0.1988947 -0.04938808
0002b0 39 22 44 3d c1 43 a7 3e 68 e4 ab bc 0e 0f 9b 3d
       0.0478842 0.3266888 -0.020982936 0.07571231
0002c0 6d b8 a6 bd 5b 0d 2f 3e a8 bd 5a be cd f9 b4 3d
       -0.08140645 0.17094938 -0.2136141 0.08836708
0002d0 03 cf 84 3d 75 93 8c bd 49 ee d2 3e 33 34 9c 3d
       0.06484797 -0.06864063 0.41197422 0.07627144
0002e0 7b d4 88 3d 56 09 a0 3d 25 42 43 be 2d 41 8e bc
       0.066811524 0.07814281 -0.19068201 -0.017365063
0002f0 ab 0b 4c 3e 06 07 46 be b0 ab 38 3c bc 82 f4 3d
       0.19926326 -0.19338617 0.011271402 0.11938998
000300 27 af 59 bd 29 d9 54 be 0a 19 7d 3e 03 b1 2b 3e
       -0.053145554 -0.20785965 0.24716583 0.16766743
000310 73 2f 4b bb ef 57 37 3d 21 ce 49 3e 4e c1 04 be
       -0.0031003624 0.044761594 0.19707538 -0.12964365
000320 b4 75 92 bc 0d 39 27 3e a5 aa af 3d 90 30 ed 3d
       -0.01787839 0.16330357 0.0857747 0.11581528
000330 41 db 98 3d 27 cf 8d 3e 65 b1 63 3e 02 08 1b 3e
       0.07463694 0.27697107 0.2223564 0.15139773
000340 9f 9a 2f be 7e ca c1 bd 04 28 44 be b9 c9 14 3c
       -0.17148827 -0.094624504 -0.1915589 0.009081298
000350 44 2e 41 be 74 bc 87 3b e3 77 d7 3c 6f df 97 3e
       -0.18865305 0.0041423384 0.026302284 0.29662654
000360 9d f3 70 3e 28 4a 43 be bc ae 67 be 1b c2 25 bd
       0.23530431 -0.19071257 -0.2262525 -0.040468317
000370 05 91 93 3d 1d a2 8c be b9 12 2a be 5a 2d df 3d
       0.07205395 -0.27467433 -0.16608705 0.10897322
000380 db e6 50 be ec af df bd e4 8a fb bb a4 56 bf 3d
       -0.20400564 -0.10922226 -0.007676469 0.09342697
000390 2d 3b cd bc 5d c5 62 3e 73 48 f4 3d 53 f0 12 3d
       -0.025052631 0.221456 0.11927881 0.035873722
0003a0 32 37 92 be c7 af 4a bc 5e 1e 89 3e 7c f5 2f 3e
       -0.28557736 -0.01237101 0.2678098 0.17183489
0003b0 de 11 73 3d d0 09 d9 3c 6c 5f c1 3d de c2 03 3e
       0.05934321 0.026493937 0.094420284 0.12867305
0003c0 60 8b 4d be 52 15 c3 bc d1 f4 15 3d ce d7 05 be
       -0.20072699 -0.023813877 0.03661043 -0.13070604
0003d0 fc 3b b2 3d b2 b7 71 be bc e5 b5 3d ea 85 ff bd
       0.08702847 -0.2360523 0.08881709 -0.12476714
0003e0 ec 09 68 3e 38 e2 da bd c9 88 68 3c e6 48 8e be
       0.22660035 -0.10687679 0.014192768 -0.27789992
0003f0 00 65 2b bd 60 8c d5 3c e1 a2 39 bd 8e db 67 3e
       -0.041844368 0.026067913 -0.04532135 0.22642347

rnn.bias_ih_l1 f4 [32]
000000 4e 85 ea 3d c6 9e 31 bd d6 90 24 be 7c 94 51 be
       0.11451207 -0.04336431 -0.16070876 -0.20466799
000010 fd 6c 2f 3e a4 be 62 3e cd 53 34 3e 0e ec 98 bd
       0.1713142 0.22143036 0.17610092 -0.07466899
000020 9a dc dd bc 7f 90 ac 3d 8b b3 95 3d c2 83 89 3e
       -0.02708273 0.08425998 0.07309636 0.26858336
000030 c4 67 66 3c 94 a7 98 bd 9d db 57 be 86 c7 97 3c
       0.014062826 -0.07453838 -0.2107987 0.018527757
000040 19 92 98 bb 6a a3 56 3e 72 45 1d be e4 57 dd bd
       -0.004656088 0.20960775 -0.15358523 -0.108077794
000050 b4 23 50 be 12 46 93 be da 61 2d bd 2e 03 25 bd
       -0.2032612 -0.28764397 -0.042329647 -0.040286236
000060 9c e8 10 3e 7d 7f a2 be 99 c9 0a be b7 34 61 be
       0.14151233 -0.3173789 -0.13553466 -0.21992765
000070 ff 40 64 38 6d e5 34 3c 63 53 57 bc 60 bc f0 bc
       5.441997e-05 0.0110410275 -0.01314244 -0.0293867

rnn.bias_hh_l1 f4 [32]
000000 24 d3 2f be 71 ba 55 be 00 ef 5f bc bc b1 3d be
       -0.17170388 -0.20871903 -0.013667822 -0.18524832
000010 a5 b8 f4 3b 8d de 91 3e 9a 6b fb 3c bf 31 4c 3e
       0.0074683004 0.28490105 0.030690957 0.19940852
000020 25 de 34 be 35 7c fd bd 00 28 3a bc 2f 43 03 bd
       -0.17662866 -0.12377206 -0.011362076 -0.032046493
000030 00 3d 14 be 0e a3 05 3b 54 29 52 be 8d 53 17 3d
       -0.14476395 0.0020391378 -0.20523578 0.036944915
000040 a1 09 c7 3d 2c b6 8b 3e 4e 82 81 bc 5c 82 50 bd
       0.097186334 0.27287424 -0.015809204 -0.05090557
000050 19 57 2d be 53 12 17 bd 8c 64 12 be 9d 3b 7a 3c
       -0.16927756 -0.03688271 -0.14296168 0.015273002
000060 40 e8 ce 3a e4 0e 22 be 07 a5 5d 3e 4b 44 0d be
       0.0015785769 -0.15825993 0.21644984 -0.13795583
000070 f9 d3 c9 bb b8 c9 d3 bd 37 01 e3 3c 21 00 93 3c
       -0.0061593023 -0.10341209 0.02771054 0.017944397

fc.weight f4 [2, 32]
000000 68 1a bd 3e fc 97 de bc 9b ec 94 be 7c e2 0b 3e
       0.3693421 -0.027172081 -0.29086766 0.13660616
000010 d2 e1 7c be b7 96 20 bd f8 fb 33 be 68 66 45 be
       -0.24695519 -0.039206233 -0.17576587 -0.19277346
000020 66 1e 05 3f 3d c5 05 bf e1 cd 5b be 15 a8 4d be
       0.5199951 -0.52254087 -0.21465255 -0.2008365
000030 be 14 88 bc 10 6b bd be 80 95 92 be 9b 9c a2 be
       -0.016611453 -0.36995745 -0.28629684 -0.31760105
000040 45 d7 50 3e df c8 e9 3d 45 f2 45 3b 3d 32 af 3d
       0.20394619 0.11415266 0.0030204218 0.08554504
000050 b0 c9 54 3c 6c 28 0d 3e f2 34 01 bf e9 da b5 be
       0.012987539 0.13784951 -0.50471413 -0.35518578
000060 76 38 78 be 12 39 59 ba 23 a4 84 3e dc 04 2c 3e
       -0.24240288 -0.0008286397 0.25906476 0.16798729
000070 e5 da f9 b9 ad 1a 84 3e a7 77 62 be 32 f5 20 be
       -0.0004765607 0.25801602 -0.22115956 -0.15718535
000080 25 3f 11 be 1e 63 21 be 95 38 9d 3e 34 08 d6 3d
       -0.14184244 -0.15760466 0.3070723 0.10450783
000090 ce ea e5 3d 23 b6 ea 3d 95 3a a1 3e 23 7f 93 3e
       0.11226426 0.11460521 0.31490007 0.28807935
0000a0 a9 5b e3 be 5b 97 ce 3e 4a 53 94 3e ac bb a3 3e
       -0.4440587 0.4034985 0.28969795 0.3197912
0000b0 9f 28 9c 3e 65 30 01 3f 6c 1c 66 3e 45 76 ae 3e
       0.3049974 0.5046447 0.2247178 0.34074607
0000c0 43 00 c1 be bb 2f b6 bd 2d 10 01 be 2b 2d ba be
       -0.37695512 -0.088958226 -0.12603827 -0.36362585
0000d0 24 5d fb 3d 5d c9 e7 be 31 a5 eb 3e 3a 67 8c 3e
       0.122736245 -0.45270815 0.4602447 0.27422506
0000e0 1d 01 8d 3e e6 5b 0a 3e ca 7f 8c be a0 22 a4 be
       0.27539912 0.13511619 -0.27441245 -0.32057667
0000f0 85 6d e7 bd 75 97 84 be 32 51 82 bd 4d f5 27 3e
       -0.11300186 -0.25896803 -0.06363143 0.16402169

fc.bias f4 [2]
000000 92 dd 88 3e 8e 0b 36 3d
       0.26731545 0.044444613
