detector/models/32_2_16_5_32_0.001_covert_detector_1.pth (torch, 18069 bytes, 10 tensors)

rnn.weight_ih_l0 f4 [32, 3]
000000 a1 36 f0 3d 5d c6 12 bd 8a cf 31 3d e3 0c a6 bd
       0.1172917 -0.035833705 0.043410815 -0.08107927
000010 e9 c8 e7 3c 9d 19 04 bd cd ba 2c 3d 02 03 aa 3c
       0.028294044 -0.03225099 0.042170335 0.020753387
000020 4a 8a 1e bd 47 54 39 3e c4 3a 97 3d 72 e2 e9 3d
       -0.0387061 0.18098556 0.073842555 0.11420144
000030 18 06 77 be 9e 92 f6 bc 94 c0 9c bd 8f 7d 9a 3e
       -0.24123418 -0.03009921 -0.07653919 0.3017392
000040 71 d5 55 3c ce 18 89 3e ce 94 ce bd 77 f3 7c bc
       0.013051377 0.26776737 -0.10086976 -0.015438906
000050 fc 64 19 be d8 3f af be 62 6b 1c bc df d1 98 be
       -0.14979929 -0.34228396 -0.009547086 -0.2984762
000060 36 6e 4b 3e e8 9a fb bc e1 92 10 3e 5c a4 a7 bd
       0.19866261 -0.030713513 0.1411853 -0.08185646
000070 fa 89 04 bd ab 84 5e be 88 76 d8 3e a7 be 5d 3c
       -0.032358147 -0.21730296 0.42277932 0.013534225
000080 d3 71 b1 3e fe be 1e be d2 01 04 bd 8e db dc 3d
       0.34657153 -0.15502545 -0.0322283 0.10784064
000090 5b 7d 2e be 2f 36 50 bc cd 49 55 be ec a9 aa be
       -0.17040007 -0.012708231 -0.20828934 -0.33332765
0000a0 1c a6 00 bd 20 aa 9c bd e0 e1 ab 3d ba 45 a8 bc
       -0.031408414 -0.07649636 0.083926916 -0.02054106
0000b0 1e 02 94 bc e1 32 35 be b9 4d 91 3c 40 6b 08 bd
       -0.018067416 -0.1769519 0.017737256 -0.033305407
0000c0 7a 80 96 bd a2 9b a8 bc 81 c1 50 be 30 93 2f 3d
       -0.07348724 -0.020582024 -0.20386316 0.04286498
0000d0 34 95 0f 3d 3a e0 8b 3c c1 6d 33 3e 11 43 de 3c
       0.0350544 0.017074693 0.17522337 0.02713159
0000e0 88 8e 6d 3e 55 c3 4a 3e 6d a7 0f 3d b0 7b 12 3c
       0.23198903 0.19801076 0.03507178 0.008940622
0000f0 52 1a 89 bd 8b 7a f5 bc 10 2d e8 bd f9 bd c9 3b
       -0.06694473 -0.02996566 -0.1133672 0.0061566797
000100 9a 4e fc bc a9 8b 0a be bc 86 77 3e 93 20 fa 3c
       -0.030799199 -0.13529839 0.24172491 0.03053311
000110 fa 38 6d 3d 67 23 c2 bc 45 e1 37 bc 62 6e 14 be
       0.057915665 -0.023698522 -0.011223142 -0.14495233
000120 7f c7 82 be cc 8d 11 bd 4f 5a 91 be 5c a6 91 3e
       -0.25542828 -0.03553562 -0.28389212 0.28447235
000130 7d e4 16 3d c6 fe a6 3d 9c 90 0c bd fe bf 0e bd
       0.036838997 0.08154063 -0.034317598 -0.034851067
000140 6e ab 2f be 1b 7e 3b 3e ec a9 a0 3c 74 57 5f 3e
       -0.17155239 0.18309824 0.019612275 0.21810704
000150 c9 48 15 be 50 88 14 bd f6 02 96 be b9 5c e4 bd
       -0.14578547 -0.03626281 -0.29299134 -0.11150498
000160 3d 86 b4 bc 21 4b 9e be d2 f7 9f bd 91 78 ae bc
       -0.022036666 -0.30916694 -0.0781094 -0.021297725
000170 be 69 d5 bc 44 cf 83 3e c7 6e 26 3d 94 4f a5 bb
       -0.026051398 0.2574407 0.04063299 -0.005044887

rnn.weight_hh_l0 f4 [32, 32]
000000 64 29 93 bd d5 eb 24 be 5a 12 0c be 99 04 32 3d
       -0.07185629 -0.16105588 -0.13678876 0.043461416
000010 d6 13 c0 3c 74 c6 6c be 62 88 d6 3e 75 c1 11 be
       0.023446959 -0.23122579 0.41900927 -0.14233954
000020 c5 bd af 3e 95 fb 45 3e b6 c8 3c be 3b 6c 6a 3e
       0.3432447 0.19334252 -0.1843594 0.22892849
000030 56 cf eb bd 01 51 bc 3d dc 8e 54 be fe 32 ab be
       -0.115141556 0.09195138 -0.20757622 -0.3343734
000040 33 e0 e0 bd 22 39 39 be ae be 7d be 81 46 44 be
       -0.109802626 -0.180882 -0.2477977 -0.1916752
000050 37 e8 77 3e 84 05 b4 3e 43 83 a9 bd cd ab 95 bd
       0.24209677 0.35160458 -0.08276989 -0.07308159
000060 e1 89 14 3d b0 8b d0 be b5 89 bb 3e 55 fa eb be
       0.036264304 -0.40731573 0.366285 -0.46089426
000070 b9 47 2f be d9 9d 23 3e 98 b0 12 be 8b 77 a4 bd
       -0.17117204 0.15978183 -0.14325178 -0.080306135
000080 9a 95 80 3e 68 33 97 3e 54 6a db 3e 1d 29 d8 3e
       0.25114137 0.29531407 0.4285456 0.42218867
000090 b1 6b ec be d5 31 83 3e d0 d6 d6 be e0 af 3c 3e
       -0.46175912 0.25623956 -0.41960764 0.18426466
0000a0 c9 36 c2 bd 36 65 e1 bd d3 ce 50 3e 6b ed d1 be
       -0.09483106 -0.110056326 0.20391397 -0.41001448
0000b0 1a 40 de be be 34 cc 3e 76 86 cb 3e 07 f2 8d 3e
       -0.4340828 0.3988399 0.39751023 0.27723715
0000c0 fe 56 b3 be 7b a8 e7 3e a2 59 f3 3e 24 03 d2 be
       -0.35027307 0.45245728 0.47529322 -0.4101802
0000d0 23 bd 26 3e 5d 69 0c bf 0b 67 92 3e c3 25 e2 be
       0.16283087 -0.5484827 0.2859424 -0.44169435
0000e0 df a1 89 be d3 28 c8 3e 8b fb af be 97 ea d1 be
       -0.2688131 0.39093646 -0.343716 -0.4099929
0000f0 2b 35 0e 3f d2 3b a9 be f5 1e ca be 03 4e 00 3f
       0.5554988 -0.33053452 -0.39476743 0.50119036
000100 cc 4d 21 3f 9d 9e 55 be 75 1b 1b 3e b5 0f 04 3f
       0.63009334 -0.20861287 0.15147193 0.5158647
000110 e0 22 d2 be 8b dd b2 3e 3f e4 cc be 92 06 01 be
       -0.41042233 0.3493465 -0.40017888 -0.12600163
000120 e4 7f 87 3e d2 a4 75 3d 9a a1 32 3e 10 fe 04 3f
       0.2646476 0.059971638 0.17444459 0.5195017
000130 c9 37 c5 bd 54 45 10 3f 08 ba 14 3f 49 50 e6 3e
       -0.09629781 0.56355786 0.5809636 0.44983128
000140 bc e9 0d bd c9 61 0e 3f be 3e e0 be a7 25 c6 3d
       -0.034646735 0.5561796 -0.43797868 0.0967515
000150 37 a6 a9 3e 87 27 ce bd 3d 45 fe 3d e3 f1 02 bd
       0.33134624 -0.10066133 0.1241555 -0.031968962
000160 c9 b4 27 3e 7a d7 c3 be d4 fa 19 be 50 b4 9e be
       0.16377558 -0.38250333 -0.1503709 -0.30996943
000170 68 a6 31 bc 16 29 79 3d 5f c8 ab 3d 28 c9 65 be
       -0.010842897 0.0608302 0.08387827 -0.22440016
000180 4f da 21 bc 6d ac 91 be 55 6f 27 be a5 cf 8c 3e
       -0.009878709 -0.28451863 -0.16351064 0.2750217
000190 04 9a 2f be 7a 97 60 3d ac 13 12 bd 93 a5 a6 3e
       -0.17148596 0.05483196 -0.03566329 0.32548198
0001a0 3d 03 b0 3e ea c7 34 be c8 b7 64 3e 42 03 40 3e
       0.3437747 -0.17654386 0.22335732 0.18751243
0001b0 1f 92 83 3d 89 a6 fb 3d d1 69 8b 3e 4f 21 19 bc
       0.06424355 0.122876234 0.2722917 -0.00934632
0001c0 26 71 0f be c9 35 93 bc 77 e4 2a 3d cc ee 2f bd
       -0.14008006 -0.017969983 0.041721787 -0.042952344
0001d0 a7 e2 dd 3d 54 92 44 bc 62 9c 0d bd 68 ba 86 bc
       0.10834246 -0.011997778 -0.034572966 -0.016446307
0001e0 d5 fa ed bd 5e 40 c9 3c 33 b9 57 3c 3e 2d eb 3c
       -0.11620108 0.024566825 0.0131667135 0.028708097
0001f0 c4 7b 8f bd 5c ad 96 bd 6a eb 2b be 09 e8 bd bd
       -0.07006028 -0.073572844 -0.16789022 -0.09272773
000200 c1 55 5a 3e bc 12 6d 3e af 20 00 bd 8a 0b d8 bd
       0.21321775 0.23151678 -0.03128117 -0.10549076
000210 5c b4 98 3d 70 c3 a3 be f1 10 42 bd e8 3d 13 be
       0.07456276 -0.31985044 -0.047379438 -0.14379084
000220 e5 5e d4 bc b0 cf a9 3e f8 9f c7 be 77 61 cb bd
       -0.025924155 0.33166265 -0.38989234 -0.09930699
000230 d5 17 ca bd e2 58 5a 3d 36 45 d1 be 07 f0 11 be
       -0.09867827 0.05330742 -0.40873116 -0.1425172
000240 36 45 c1 bd b1 35 d7 bd 30 8d 54 be 6c 82 f2 bd
       -0.09437029 -0.10508288 -0.20756984 -0.11841282
000250 ea 37 80 be 06 03 30 3d e1 e0 c9 bd f6 f3 ed bb
       -0.2504266 0.042971633 -0.09857345 -0.0072617484
000260 32 be f9 3d 32 4a 6e bd 81 23 d3 bc c3 e1 35 3d
       0.1219448 -0.058176227 -0.025773766 0.044404756
000270 c7 18 e6 3d ca 38 36 3d 8a 8e c2 3d a8 3c 6b bb
       0.11235195 0.044487752 0.094998434 -0.0035894308
000280 72 f5 5a be 95 bb d5 be 70 17 6a be 30 16 cd be
       -0.21382692 -0.41744676 -0.22860503 -0.4005599
000290 78 c2 bf 3e 1e d1 26 3e df df 7e 3e b8 74 36 be
       0.37453055 0.1629071 0.24890088 -0.17817962
0002a0 f4 9a fe bd 90 f0 e0 be f9 f6 0f be 85 aa c0 3e
       -0.12431899 -0.43933535 -0.14059056 0.37630096
0002b0 17 97 e9 be f3 08 b6 be 80 b5 a6 be 73 f8 a0 3e
       -0.45623085 -0.35553703 -0.3256035 0.31439552
0002c0 e7 f6 45 3e f5 66 49 be 19 d0 90 3e 3d b7 c4 be
       0.19332467 -0.19668181 0.28283766 -0.3842105
0002d0 3d 2e 26 3d 5d 6d 71 3e 1e f5 e8 3e 77 c8 bb 3e
       0.04057144 0.23576875 0.4549951 0.3667638
0002e0 7d 32 41 be 6c 74 80 3e 8a 7c 17 bd 36 52 a8 3e
       -0.18866916 0.25088823 -0.036984004 0.32875222
0002f0 e4 9a 56 3e e9 f5 e0 be c9 23 75 be 89 2f 34 bd
       0.20957524 -0.43937615 -0.23939432 -0.043990646
000300 61 06 d7 be d5 c3 48 3d 1d 75 4c ba 09 fa 82 be
       -0.41997054 0.049014885 -0.00077994337 -0.25581387
000310 19 de a3 3e 25 7f 0c be f7 b9 bf bc e2 37 75 3c
       0.32005385 -0.13720377 -0.023404105 0.014966937
000320 9f 63 8d be 04 90 67 3e 6a 40 47 be e4 ff 54 be
       -0.27615067 0.22613531 -0.19458166 -0.2080074
000330 cc 14 86 3e 49 a9 d0 be 37 a0 db b9 07 67 dc be
       0.26187742 -0.40754154 -0.00041890304 -0.43047354
000340 6c a0 47 3d 1d 30 8e be b1 2a 53 3e 85 d9 af 3e
       0.048736975 -0.27771083 0.20621754 0.34345642
000350 00 fb 34 be 33 88 a8 be 6f 67 c5 be a7 20 9a 3e
       -0.17673874 -0.32916412 -0.38555476 0.30103037
000360 d8 9e 20 3c 28 8d 08 3e 9c bd 35 bd 15 d6 e0 3d
       0.009803496 0.13335097 -0.04437028 0.10978333
000370 5d c1 c3 bc 20 9f 2c 3e ba b4 bd 3d 59 0b 27 3b
       -0.023895914 0.16857576 0.092629865 0.0025488941
000380 f4 82 bd 3e 32 72 37 bf 0a ed f8 be 35 c1 1f be
       0.37013972 -0.71658623 -0.48618346 -0.15601046
000390 e9 4e b5 3e 44 59 7b be e9 19 0a 3f 73 5d 93 bd
       0.35411766 -0.24545771 0.53945786 -0.071955584
0003a0 fa 43 4e 3f e5 c8 a4 3e b4 e2 9c be 8e 54 05 3f
       0.80572474 0.3218452 -0.3064171 0.52082145
0003b0 a3 0d 38 3f 57 a6 d8 3e 2d 11 02 3f 7a bf 53 bf
       0.7189581 0.42314407 0.5080746 -0.82714045
0003c0 54 e2 33 3f b5 bd 23 bf 64 c3 15 bf 88 38 d4 be
       0.70267224 -0.63961345 -0.5850127 -0.4144938
0003d0 8e b6 82 3f b3 d0 8a 3e 70 27 2a bf e9 f9 b1 3e
       1.0211961 0.2711235 -0.66466427 0.3476098
0003e0 fe 66 09 3f ed 22 f7 be 22 c2 ca 3e 60 1f 30 bf
       0.5367278 -0.48268834 0.39601237 -0.68797874
0003f0 48 9a 45 3f 6c 6d 4f 3f b0 85 47 3f 1c d6 2f bf
       0.7718854 0.8102634 0.77938366 -0.6868608

rnn.bias_ih_l0 f4 [32]
000000 9f d5 60 be d5 26 bd 3d b3 92 47 be 5f e9 12 3e
       -0.2195649 0.09235922 -0.19489555 0.14346837
000010 28 c1 02 be fe 65 e7 3e bf 8d 81 bd 2f 39 00 bf
       -0.12768996 0.45195 -0.06325864 -0.50087255
000020 4f 2c 07 3e a0 c7 74 be 49 7a ef 3e e0 33 b4 bd
       0.13200496 -0.23904276 0.46772984 -0.08798957
000030 96 50 31 be c4 aa 7d be 8e 9b 92 3e 2c 25 2d 3d
       -0.17315897 -0.24772173 0.28634304 0.042271778
000040 94 15 08 be 21 ec ce 3d 99 eb 19 3e 79 18 04 3e
       -0.13289481 0.10103632 0.1503128 0.1289996
000050 65 98 cd 3c 17 4a a2 be 4b 3c 85 3e cd 63 dc 3d
       0.025097081 -0.3169715 0.26022562 0.10761223
000060 a8 46 8e be ad 2a 81 3d 12 33 ba bd 70 4f 53 bd
       -0.2778828 0.06306968 -0.09091772 -0.05158943
000070 a5 7e e1 bd 54 92 9a be 06 0d dd be 60 49 28 3e
       -0.11010484 -0.30189764 -0.43174 0.1643424

rnn.bias_hh_l0 f4 [32]
000000 08 0f 87 bd 85 a1 5a 3e e1 f6 57 be 07 6a 0c 3e
       -0.06594664 0.21350677 -0.2109027 0.13712321
000010 3c f9 45 be 29 23 df 3e 2a dc aa 3d 77 de bb be
       -0.19333357 0.43581513 0.08342774 -0.36693165
000020 68 52 73 bd ad 77 1f be 72 76 c7 3e 74 60 d8 bd
       -0.05940476 -0.15572996 0.38957554 -0.10565272
000030 a5 16 bc be 2b 32 f8 bc 4c 66 25 3e ec 0a 1c 3d
       -0.36736026 -0.03029736 0.16152304 0.038096353
000040 da ce 4b be 26 6f 26 3d eb 05 4c 3d c2 89 a0 3c
       -0.19903126 0.040633343 0.04981033 0.019596938
000050 66 2d bc 3c 3f 4b 89 be 37 ee 75 3e 23 ef 97 bd
       0.022970866 -0.2681522 0.24016653 -0.074186586
000060 44 18 12 be c4 10 5b 3e d0 cd 23 be 26 3e 12 3e
       -0.14267069 0.21393114 -0.1599648 0.1428152
000070 49 3c 90 be 58 4d a3 be dd e7 98 be cc 26 07 3e
       -0.28170994 -0.31894946 -0.29864398 0.13198394

rnn.weight_ih_l1 f4 [32, 32]
000000 47 d8 fb 3d 2d e9 ea bd f9 7a c1 bc 2c f0 1f bc
       0.12297111 -0.11470256 -0.023618208 -0.009761851
000010 7b 82 d5 bd 4d 06 28 3e 4b 1e 05 bd 63 19 e5 bc
       -0.10425278 0.16408654 -0.032499593 -0.027966207
000020 a9 e1 9b bd 30 db 0d 3e 97 e9 90 3d 6b 59 0f 3d
       -0.07611401 0.13853145 0.07075804 0.034997385
000030 28 b8 e4 3d 50 a5 8a bd 72 6b 0d 3e 52 3a 36 be
       0.111679375 -0.06769812 0.13810518 -0.17795685
000040 04 a5 48 3c 0f 7c f1 bc 84 fc aa 3c 5a 35 2d 3d
       0.012246374 -0.029478101 0.020872362 0.04228721
000050 5d 50 62 3d 1f 9f f9 3d 4a 62 9b bc 3a 7d aa 3d
       0.05525242 0.12188553 -0.018967766 0.08324666
000060 b7 15 30 3e 46 ba 82 3d cd 70 7b 3c ac 3f 34 bd
       0.17195784 0.06383185 0.015346718 -0.044006035
000070 50 e4 94 3c 1a 42 54 bd e9 76 41 3d 7f 61 fd 3d
       0.018175274 -0.05182085 0.047232542 0.123721115
000080 54 bc 12 be ae d3 ec 3d 72 28 83 ba c4 42 28 be
       -0.14329654 0.11563812 -0.001000656 -0.16431719
000090 bd 58 9b bc 70 5f 0e be 52 bb 72 3d 26 e1 c8 be
       -0.018963212 -0.13903594 0.059260674 -0.39234275
0000a0 eb 6d 1f be 32 40 80 3d 34 d3 40 bd 10 4e 15 be
       -0.15569274 0.06262244 -0.04707642 -0.1458056
0000b0 30 a5 32 bd 62 26 82 bd 6b d9 3c be 02 5a 65 3d
       -0.043614566 -0.06354977 -0.18442313 0.05599404
0000c0 50 e4 5a bc ae 3a 36 3e 03 72 05 bc 98 71 39 3d
       -0.013360098 0.17795822 -0.008144858 0.045274347
0000d0 ff 00 76 be dc 10 58 bc 18 d8 0b be 2f d8 01 be
       -0.24023817 -0.013187613 -0.13656652 -0.12680124
0000e0 63 3f 04 be 66 cd 9c bd 6a da 05 3d e9 16 d9 3d
       -0.12914805 -0.07656364 0.032679 0.10600073
0000f0 63 6a f1 3c 60 ed 25 be e1 5e 83 3c 88 f6 40 3e
       0.029469674 -0.16203833 0.016036453 0.18844044
000100 31 72 ac 3b dc ad 8c bd 57 99 11 be a0 69 bf bc
       0.005262636 -0.068690985 -0.14218651 -0.023365796
000110 e4 03 17 be ef bb 88 3e 96 6f 1e 3d 91 4e 9d 3e
       -0.14747578 0.26705882 0.038680635 0.30724004
000120 7e 25 75 bd 8e 56 16 bd 41 eb 13 3e 6d ab fe 3d
       -0.05985021 -0.03670364 0.14445211 0.124350406
000130 3b 54 1e 3d 15 f4 c3 3d 15 94 3b 3e 32 e0 f8 bd
       0.038654547 0.09568039 0.18318208 -0.12152137
000140 63 ac 50 be 31 83 3d 3d cf c0 4d bd 31 cb 17 be
       -0.2037826 0.046267692 -0.050232705 -0.14823605
000150 df dd ac bd d5 12 97 3d f2 1d c8 bd 26 b2 5b be
       -0.08440756 0.07376639 -0.097713366 -0.21454677
000160 ef ff d9 3d c5 3e 50 be 38 3f 16 3d ea 89 1a bd
       0.106445186 -0.20336445 0.036681384 -0.03772918
000170 3a 8b a6 bd 33 7b 2d 3d 09 51 6d 3d d4 75 51 be
       -0.08132024 0.04235382 0.05793861 -0.20455104
000180 ea 86 ea bc 4a 7c 63 3e 2d 09 3e 3e fc 4f 53 3d
       -0.028628785 0.22215381 0.18558188 0.05158995
000190 8c 94 47 bc 17 35 8b 3d 38 a9 c1 3d 11 d8 88 be
       -0.012181412 0.067972355 0.09456104 -0.26727346
0001a0 e7 90 10 be 3f 29 46 be 3c 9f bf bc 25 f6 f9 3d
       -0.14117776 -0.19351672 -0.023391359 0.122051515
0001b0 14 06 6c 3d 23 6b e0 bc 84 b2 27 be b7 54 0c be
       0.057622984 -0.027394837 -0.16376692 -0.13704191
0001c0 58 31 28 be de 92 1a bd d0 39 2c bc 24 fc 06 bc
       -0.16425073 -0.03773772 -0.01051183 -0.008238826
0001d0 2c aa d7 3c 30 22 0f 3e a1 ac bf 3d 2e 60 98 3d
       0.026326261 0.13977885 0.09359098 0.0744022
0001e0 f4 64 4a be a4 61 8a 3c 88 88 95 3c 79 38 3f 3c
       -0.19765073 0.016892262 0.01825358 0.011671179
0001f0 f1 af 07 bd 9b cb 56 be b6 39 84 3d 6d 20 1d 3e
       -0.033126775 -0.20976107 0.0645632 0.153444
000200 c6 dd 68 3c 65 dd 4e bd fa d8 eb 3d 02 97 be 3d
       0.014213031 -0.050504107 0.11515994 0.09306146
000210 90 c2 84 3c f8 a1 22 3e 57 ab e5 3d b1 69 b5 3e
       0.016206056 0.15882099 0.11214321 0.354322
000220 6c 0a f6 bc 5f e1 e7 3d 8e ff 5e bc 04 67 87 3d
       -0.030034266 0.11322283 -0.013610734 0.066114455
000230 c9 1c f3 bd 8e ef 1d 3e 95 65 97 3d fc 51 15 be
       -0.11870725 0.15423414 0.07392422 -0.14582056
000240 8f 0a 1f 3c 5f 7a 23 bd b5 37 3d be 08 2f 90 bd
       0.009707107 -0.039911624 -0.18478282 -0.070402205
000250 b5 c1 2c 3e e6 8f 98 bd f6 0b cd 3d fe bd 54 be
       0.16870768 -0.074493214 0.10012047 -0.20775601
000260 e3 56 8e 3d bd e6 09 be 0c 4f 4f 3d a2 d0 bf bd
       0.06950166 -0.13466926 0.050612494 -0.093659654
000270 be f7 ed bd 72 f0 8d 3c 3a d1 da 3d 70 f9 34 be
       -0.11619519 0.017326567 0.10684438 -0.17673278
000280 29 63 f6 bd 58 79 93 be af 3f 1f be f1 95 a6 bc
       -0.12030632 -0.28803515 -0.15551637 -0.02033517
000290 3b 7d 55 3d e0 c7 fa bc b5 c6 b4 bd 1b e1 19 3e
       0.052121382 -0.030612886 -0.08826963 0.15027277
0002a0 e0 15 54 3e 7a 8b e1 3d 3d e6 12 be 3d 5d 0c bd
       0.2071147 0.11012931 -0.14345641 -0.034268606
0002b0 b7 91 2e 3e b8 73 a6 3c ee 55 2a bd 2f 35 2a 3e
       0.17047773 0.02031885 -0.041585855 0.1662185
0002c0 b9 97 45 3e d3 c2 f1 bd a4 11 16 3e 5d 3a 0a be
       0.19296159 -0.11804738 0.14655167 -0.13498826
0002d0 ef 3e 80 bd ed 99 04 bc 87 30 22 3d 99 a8 f9 bc
       -0.06262004 -0.008093339 0.03959706 -0.030475901
0002e0 d4 83 68 3b 2d bd bb bd 45 15 9a bd fa 9c 39 3e
       0.0035478966 -0.09166942 -0.07523588 0.18126288
0002f0 51 b3 1c bd 1f 94 16 3c a0 eb 3e 3e f6 ca 20 bd
       -0.038256947 0.009190588 0.18644571 -0.03925606
000300 40 87 66 3e 10 dd 6e be 46 b1 00 be 62 0d 41 3d
       0.22512531 -0.23326516 -0.12567624 0.047131903
000310 e2 d6 32 be 72 fc 24 3d 50 51 91 3c 63 6b 30 3e
       -0.17464784 0.040279813 0.017738968 0.17228465
000320 72 3f 87 3d fb 80 d8 3d 1e 90 35 3e 5d 7b 13 3e
       0.06603898 0.10571476 0.17730758 0.14402528
000330 4b a2 46 3d f4 45 06 3e 39 0e 24 3c 03 68 30 bd
       0.04849462 0.13112622 0.010013157 -0.043067943
000340 2f 4c 1b 3d 9d f4 91 bb f9 67 b6 bc 86 3a d9 bd
       0.03791445 -0.004454209 -0.022266375 -0.106068656
000350 a7 90 7a 3e c4 89 57 bd bb d2 eb bd 5c f2 8a 3d
       0.24469243 -0.052621618 -0.11514803 0.06784508
000360 38 7a 7a bd 61 4b b4 bd e3 59 2c 3d 08 e0 aa 3c
       -0.061151713 -0.0880344 0.04207791 0.02085878
000370 f7 2d ce bd 32 26 bf 3d f6 1f 46 3c 8f 3a 5f bd
       -0.10067361 0.09333457 0.012092581 -0.054499205
000380 5f 13 68 3d bd 3d 29 bd 2f 41 32 3e 40 59 c1 bd
       0.0566591 -0.041318644 0.17407678 -0.09440851
000390 c2 e2 17 bc 91 d8 72 bc 00 32 68 3e a6 16 ab 3d
       -0.009270372 -0.014822141 0.22675323 0.08353929
0003a0 79 55 35 3d 6e cd cd 3d b8 44 da bd 06 f9 1b bd
       0.044270966 0.10048948 -0.10657638 -0.038079284
0003b0 e7 46 48 3d c5 a5 41 3d 07 90 85 3d dd f4 27 be
       0.048895743 0.04727723 0.06521612 -0.16402002
0003c0 2e e6 75 bc bc 01 13 be 07 78 56 3e 35 29 68 bd
       -0.015008492 -0.1435613 0.20944224 -0.056679923
0003d0 1e 63 14 be 2b 2b ed bc a3 7b e5 3d 9e 0b 3a 3e
       -0.14490935 -0.028951248 0.112052225 0.18168494
0003e0 ac 83 2a be f7 c3 02 bc 70 e1 2f be ac b8 f1 bd
       -0.16651791 -0.007981292 -0.17175841 -0.118028015
0003f0 c7 32 12 3e 3c 7f 69 ba 10 92 b2 bd 0f 1d ec 3d
       0.14277183 -0.0008907204 -0.087192655 0.1152898

rnn.weight_hh_l1 f4 [32, 32]
000000 bc ce 70 be 34 48 9a 3d 24 5a 2d 3e 72 01 23 3e
       -0.23516363 0.07533303 0.16928917 0.1591852
000010 89 1c 09 3e 87 c6 90 3b da 49 45 be cd ec 11 be
       0.13389792 0.0044181976 -0.19266453 -0.14250489
000020 81 8d a3 3d 6b b6 29 bc d0 42 05 3d d1 52 1d 3c
       0.07985974 -0.010358433 0.03253442 0.0096022645
000030 f7 20 98 bd 8c 92 bd 3b c8 bd 97 bc ca 99 73 bc
       -0.074281625 0.005785292 -0.018523112 -0.014868209
000040 70 bd 57 3e 6e 0f d9 3d 7e 9d 09 3e 29 f6 28 be
       0.21068358 0.10598646 0.13438985 -0.16500153
000050 10 ea 3d 3e 90 75 45 bd 8e 6c 00 be db cb 74 3d
       0.18546319 -0.04820782 -0.1254141 0.059764724
000060 d1 1a 9d bc 80 52 3d bd cb 4c d0 3d b6 cd 17 3e
       -0.019177826 -0.046221256 0.10170897 0.14824566
000070 ce f0 bb 3c 9e 09 ea bd ae 3e a0 bd 4f f6 83 bc
       0.022941973 -0.114276156 -0.07824455 -0.01610866
000080 8a b7 48 3e 48 da 1a 3e 09 9b 49 3d 96 0f 16 3d
       0.19601265 0.1512233 0.04922012 0.036635958
000090 1f ff 93 bd 3e 40 3d be 31 66 24 be 0e f3 43 be
       -0.07226395 -0.18481538 -0.16054608 -0.19135687
0000a0 e5 e7 00 bd ac 69 c6 3c 1f a9 65 3d 8a 7a 08 bd
       -0.03147115 0.02422031 0.05606949 -0.033319987
0000b0 bb 43 39 3e 9c fe 14 3e 3f f1 36 bd b2 cf 37 be
       0.18092243 0.14550251 -0.044663664 -0.17950323
0000c0 f8 84 5b 3e 68 e7 32 bb c7 0c d9 3e 06 42 3d bd
       0.21437442 -0.0027298573 0.4239256 -0.046205543
0000d0 7d 2e df 3d ad 36 0a 3e 71 25 7d 3d 8f fa f3 bd
       0.10897539 0.1349742 0.061803285 -0.11913025
0000e0 21 ab f6 bd 39 fa 4f 3e bd e2 0d bd 49 03 17 3e
       -0.12044359 0.20310296 -0.034640063 0.14747347
0000f0 e3 91 31 3e 7b 42 2f 3e aa cf 03 bd b4 da 8e be
       0.17340808 0.17115204 -0.032180466 -0.27901232
000100 6b 71 df 3c 87 8a db 3d 1d c8 bd bd f0 bb 95 3e
       0.027275762 0.10719781 -0.09266684 0.29244947
000110 7d ec 3a 3c 7e 13 4b bd c8 c2 11 bd 70 c3 51 3c
       0.011408922 -0.049579136 -0.03558615 0.012802944
000120 50 d0 5a 3e 6c bc d1 3c 92 e0 cd bd 7e 2e 01 3e
       0.21368527 0.025602542 -0.10052599 0.12615392
000130 10 d9 3f 3e 89 e3 dd bc d7 63 80 3d 97 0a 5e 3b
       0.18735147 -0.027086036 0.06269043 0.0033880824
000140 16 cf 6a 3d 0c 99 26 be 4f df 75 be ed e8 be bd
       0.0573264 -0.1626932 -0.24010967 -0.09321771
000150 99 81 aa 3b f5 16 33 3e ee e4 a6 3d 64 56 11 3e
       0.0052034375 0.17489226 0.081491336 0.14193112
000160 51 9a f6 bc 67 3e 26 3d d2 94 0a 3e 05 17 7c 3e
       -0.03010288 0.040586855 0.13533333 0.24618156
000170 5f f2 ee bd 51 f7 87 bd 01 01 8e bd 51 6b 0e bd
       -0.11667322 -0.06638969 -0.06933785 -0.034770314
000180 b2 db 93 bd 78 6f a0 3d 47 6b dd bd 70 22 22 be
       -0.07219638 0.07833761 -0.10811477 -0.1583345
000190 78 4d ce bd 3f e4 84 3e 2f 10 d1 bd 60 e9 f8 3d
       -0.1007337 0.25955388 -0.10208165 0.12153888
0001a0 f2 bc e6 3d b9 40 aa 3d b4 5f c4 3c 71 a4 2f 3d
       0.11266507 0.08313126 0.023971416 0.042881433
0001b0 21 cb 02 3e 2b da 09 3c c5 06 a4 bd 69 fe b0 be
       0.127728 0.008413832 -0.08009104 -0.345691
0001c0 51 78 0a 3e 72 8e 4f bb 52 aa b1 3d b4 33 8f bd
       0.1352246 -0.0031670597 0.08675064 -0.069922835
0001d0 71 f8 27 be 32 26 fb 3c 2d c0 36 3c bc 23 7c be
       -0.16403367 0.030657861 0.011154217 -0.24623007
0001e0 ea 1f 06 be 97 ab ad ba c0 83 39 3e 01 07 1b be
       -0.13098112 -0.001324999 0.18116665 -0.1513939
0001f0 35 c3 c8 bd 71 6e be 3d 39 b5 23 bd 07 34 c2 bd
       -0.09802858 0.09298409 -0.03996775 -0.0948258
000200 06 6c e6 3c d3 c0 03 bd e1 94 e7 3d 26 5c 4a 3d
       0.028127681 -0.032166313 0.11307693 0.049404286
000210 1b 59 c8 bd f2 3c 34 3d da 0d ef bd 0b b3 a8 bd
       -0.097826205 0.044003434 -0.11672564 -0.08237275
000220 0b 2d 8c bd a6 53 30 be 44 c6 e0 3d bb 89 63 bd
       -0.06844529 -0.1721941 0.10975316 -0.055551272
000230 93 a4 88 bd 49 3e 12 3e eb bf a7 3d 01 30 1d bd
       -0.06672015 0.14281572 0.08190902 -0.03837586
000240 a6 38 01 be 6e b6 ab 3d a4 08 94 bd 6a 77 05 be
       -0.12619266 0.08384405 -0.072282106 -0.13033834
000250 99 29 53 be 29 25 d9 bc e0 d1 f1 bd aa e1 c3 bd
       -0.20621337 -0.026506977 -0.118076086 -0.095645264
000260 2f b3 e2 3c 29 57 40 be 07 23 b6 3d 84 36 fe 3d
       0.027673332 -0.18783249 0.088934 0.12412742
000270 b4 6e 7e bd de 40 e0 3d 9a ad 6a bb 5f be 0a be
       -0.062117293 0.109498724 -0.003580904 -0.13549183
000280 ac 84 fb 3d 14 15 da bd 0f d2 34 be aa be e8 3d
       0.122811645 -0.106485516 -0.17658256 0.11364491
000290 8c 82 01 3d db 8c 03 be 70 ce 12 3e a4 22 90 be
       0.03161864 -0.12846701 0.14336562 -0.2815143
0002a0 b0 0d 3c 3d 79 1a 2a 3e c1 af 09 3e 48 1b 21 be
       0.04591149 0.16611661 0.13445951 -0.15733063
0002b0 de 61 96 bd 28 79 0c 3e f4 b9 48 be b0 44 81 3b
       -0.073428854 0.13718092 -0.19602185 0.0039449558
0002c0 40 14 73 bc 51 86 5b 3e 86 8a 6e be 5d bc 34 3e
       -0.014836371 0.21437956 -0.2329503 0.1764998
0002d0 20 15 7e 3c c9 ae 40 3d 56 8b 9a 3e 47 41 dd ba
       0.015507966 0.047041688 0.3018443 -0.0016880416
0002e0 87 f4 5c bd b9 00 21 3d 6a d8 c6 bd c3 0a 95 3d
       -0.053944137 0.03930733 -0.097092465 0.07277443
0002f0 30 63 22 3e ca e8 f1 bd b1 1b 4a 3d 90 56 5e 3d
       0.1585815 -0.11811979 0.049342815 0.05428177
000300 53 be a2 bd c7 9e 55 be 66 d0 68 3e f1 f6 2b 3e
       -0.07946458 -0.2086135 0.22735748 0.1679342
000310 cf bc b2 bc 07 35 6d 3d 69 95 bf 3d e7 35 29 be
       -0.021818547 0.0579119 0.093546696 -0.16524468
000320 a3 88 34 3d e1 b3 91 3d 94 d1 f7 3c fd e4 94 3d
       0.04407562 0.07114387 0.030251302 0.072702385
000330 c8 07 85 3d b3 f9 41 3e 20 43 66 3e 6f fc 8c 3d
       0.06495625 0.18942909 0.22486544 0.068840854
000340 7b 09 b0 bd 54 fa bc bd 98 06 45 be 60 d9 84 3d
       -0.08595558 -0.09227434 -0.19240797 0.064867735
000350 dd ea 42 be 45 27 11 3d 7d 64 9b bd 7f 6f 87 3e
       -0.19034906 0.03543784 -0.07587526 0.26452252
000360 dd 27 f2 3d 44 64 46 be 6a 0c 1e be 08 40 3b 3d
       0.118240096 -0.19374186 -0.15434423 0.04571536
000370 7b 0f 7b 3d 21 f6 50 be 48 b0 2e be bb 4d a1 3d
       0.06129406 -0.2040639 -0.17059433 0.07876154
000380 ec be c1 bd 41 82 9b bd 14 b4 65 bd 25 cc eb 3d
       -0.094602436 -0.07593203 -0.05607994 0.11513547
000390 cf 0e d6 bd 73 42 15 3e 04 f0 48 3d be 1a 38 3b
       -0.10452043 0.1457613 0.04905702 0.0028092111
0003a0 f9 6d 5e be ff 89 ed bc f5 d6 3d 3e d7 73 e7 3d
       -0.21721639 -0.028996466 0.18539031 0.113013916
0003b0 53 9d dd 3c 1a 5c e4 bc fa ad 42 3d 6a c0 3c 3d
       0.027052557 -0.027875949 0.0475292 0.046081938
0003c0 91 40 19 be 16 de 1a bd 79 f7 83 3d 4e 3b 20 bd
       -0.14966036 -0.037809454 0.06443686 -0.039119057
0003d0 f7 16 c6 3d 95 a0 37 be 06 aa e4 bb 98 f6 46 be
       0.09672349 -0.17932351 -0.006978276 -0.19430006
0003e0 1a 9e 22 3e 0c 2d ce bd 4b f8 11 3e 2f 09 61 be
       0.15880623 -0.10067186 0.14254873 -0.2197616
0003f0 ea 21 22 bd ce 3f d7 3d 36 5f a8 bd ff 19 10 3e
       -0.039583124 0.10510217 -0.08221285 0.14072417

rnn.bias_ih_l1 f4 [32]
000000 21 1d f1 3d fa af 3f bd 0a 04 1e be e6 ee 52 be
       0.11773134 -0.046798684 -0.15431228 -0.20598945
000010 e7 17 27 3e fc 54 48 3e 8c bb 35 3e ec e2 9c bd
       0.16317712 0.19563669 0.17747325 -0.076604694
000020 e9 49 09 bd ed 4e ed 3d b3 0b a9 3d 15 cc 83 3e
       -0.03351775 0.115873195 0.082541846 0.2574164
000030 94 f9 d0 3c 61 61 94 bd 15 fe 42 be 4c 26 0a 3d
       0.025509633 -0.07245136 -0.19042237 0.03372793
000040 d4 c9 bf bc 25 f8 90 3e 10 35 15 be e5 47 f2 bd
       -0.023411669 0.2831432 -0.14571023 -0.11830119
000050 bc 10 6e be 8d a0 9c be 22 40 03 bd 78 3f 54 bb
       -0.23248571 -0.3059124 -0.032043584 -0.0032386463
000060 19 6f 03 3e 50 6c af be 56 13 13 be e3 11 78 be
       0.12835349 -0.34262323 -0.14362845 -0.24225573
000070 7e b4 38 3c 35 43 c3 3c 7a 0b fc bc 7b 1e 5b bd
       0.011273501 0.023835758 -0.030767191 -0.053495865

rnn.bias_hh_l1 f4 [32]
000000 17 87 2c be ad 3e 59 be b2 46 ee bb 26 0c 3f be
       -0.16848408 -0.21215315 -0.007271611 -0.18656978
000010 5e 2e 2f ba e1 a9 84 3e c5 5b 03 3d 77 36 4a 3e
       -0.00066826295 0.25910857 0.03206994 0.19747339
000020 f1 74 3b be c1 bd bc bd 54 35 fb ba 06 02 31 bd
       -0.18306328 -0.0921588 -0.0019165673 -0.04321482
000030 3b 84 08 be 2d 34 87 3b cb 4b 3d be 27 96 55 3d
       -0.13331692 0.004126093 -0.18485944 0.05214515
000040 20 a0 a0 3d 9f 5c b1 3e d0 fd 01 bc 6a 62 7a bd
       0.078430414 0.34640977 -0.007934049 -0.06112901
000050 21 44 4b be 6e e6 61 bd 0a dc 07 be 2b 4e 56 3d
       -0.19850208 -0.055151395 -0.13267532 0.05232064
000060 ae bc 3d bc 64 e8 3b be 4a 5b 55 3e 73 21 24 be
       -0.011580629 -0.18350369 0.20835605 -0.16028385
000070 b5 cc a5 3b f8 95 b9 bd bc 3e 25 3c 94 02 ca bb
       0.0050598034 -0.090618074 0.010085758 -0.006164858

fc.weight f4 [2, 32]
000000 dd d1 e3 3d 80 c7 03 be 15 f0 ac 3c 15 45 96 3d
       0.111240126 -0.12869072 0.021110574 0.07337395
000010 2f 56 a7 bd 24 da 49 3d 9f c8 1c 3d e2 d7 bd 3c
       -0.08170735 0.0492803 0.038277265 0.02317423
000020 bc b0 5f 3d 5d cd 46 bd 97 e3 e3 bc 33 f9 50 3d
       0.054611906 -0.048535693 -0.027818484 0.051018905
000030 31 bb cb 3d cd 29 b7 3d 09 d1 97 bd c4 42 4e bc
       0.09947813 0.0894352 -0.07412917 -0.01258916
000040 9b c1 d9 bc 9f dd 27 3e 43 4f a9 bd 63 1a 00 be
       -0.026581576 0.16393135 -0.08267071 -0.12510066
000050 dc ee 2e bd e3 e7 0b be bf b1 18 bd ce d2 0e be
       -0.042708263 -0.13662677 -0.037278887 -0.13947603
000060 aa 81 da bc cc 6d 41 bd 1b b6 03 3d a0 4d 50 bd
       -0.026673157 -0.04722385 0.03215609 -0.05085528
000070 33 e3 64 bd ac fd 8b 3d f0 e3 06 be e8 6c 79 3b
       -0.055880737 0.068354934 -0.13172889 0.0038059298
000080 8c 3c ee 3d 0b a1 65 bd 14 01 a3 bb b1 bb 2b 3e
       0.11632642 -0.056061786 -0.0049744938 0.16770817
000090 da 28 59 bd b3 9c d5 3c 11 7f ce 3d cb a2 93 3d
       -0.053017475 0.026075697 0.1008283 0.07208785
0000a0 b7 8c af 3c 62 98 90 bd f4 9b d2 3d 0f 05 8b 3d
       0.021429403 -0.07060315 0.10283652 0.06788074
0000b0 a4 69 41 3e 2e 08 39 3d 42 ba 4c 3c b7 23 12 3d
       0.18887955 0.045173816 0.012495579 0.03567859
0000c0 58 e6 15 be 51 06 0e be 3d 2b 25 bd f3 9d 1c be
       -0.1463865 -0.13869597 -0.04032444 -0.15294628
0000d0 83 ab 36 3e b1 71 36 be 04 a3 ee bb 78 83 6f 3d
       0.17838864 -0.17816807 -0.0072826166 0.058474988
0000e0 7e 47 74 3d 02 d3 39 3e 47 6a 42 bd 6e 49 d0 bd
       0.059638493 0.181469 -0.047464635 -0.101702556
0000f0 df d4 6b bd 4d e1 8d bd 2a c4 1c be 15 c8 44 3b
       -0.057576057 -0.06927738 -0.15309206 0.0030026485

fc.bias f4 [2]
000000 bb ff 68 3e 1b 65 ac 3d
       0.22753803 0.08417722
