detector/models/32_2_16_5_32_0.001_covert_detector_3.pth (torch, 18069 bytes, 10 tensors)

rnn.weight_ih_l0 f4 [32, 3]
000000 5a 67 16 3f 6a 86 3c bb 2a 65 0e 3f e6 94 2c bd
       0.5875145 -0.002876664 0.55623114 -0.042134188
000010 d0 64 ea 3c f2 3b 0c 3a 4e 33 19 be 21 f7 98 bc
       0.028612524 0.0005349509 -0.14960977 -0.018672528
000020 6a ba 56 be 7d 3a 42 3e e1 7b 9a 3d 65 6f ec 3d
       -0.20969549 0.18967624 0.07543159 0.11544684
000030 af 7b 82 be 64 20 fb bc bd e0 a6 bd b1 99 9a 3e
       -0.25484988 -0.030655093 -0.08148334 0.30195382
000040 3d c1 55 3c 6b f2 88 3e 08 04 f4 bc bf ac 0d 3d
       0.01304656 0.2674745 -0.029787078 0.03458857
000050 9f 2e 78 bd 50 4e af be 59 79 1c bc 40 db 98 be
       -0.060591336 -0.34239435 -0.009550416 -0.29854774
000060 94 fd c4 3e ef a5 26 3d 57 3b 96 3e 42 ee bd bd
       0.38474715 0.04068559 0.29342148 -0.0927396
000070 29 6d 02 bd 76 78 5a be 44 71 dd 3e 18 f0 5e 3c
       -0.031842384 -0.21335015 0.43250477 0.0136070475
000080 23 8f b5 3e 0d 0b ab 3d 38 70 05 3d 8d 9c b1 3e
       0.35460767 0.08351717 0.032577723 0.3468975
000090 01 14 33 be cb 3d 4f bc f7 e2 56 be 89 f9 b1 be
       -0.174881 -0.01264901 -0.20985018 -0.34760693
0000a0 ac c9 00 bd d5 d3 a7 bd 10 74 3d 3d b9 6f ac bc
       -0.03144233 -0.08194701 0.046253264 -0.021049367
0000b0 ed ce 52 bd 70 02 59 be 59 48 b2 bc c2 d6 b8 bd
       -0.05146687 -0.21192336 -0.021763014 -0.09025337
0000c0 12 d3 9c bd ef 7a a8 bc fa 1c 52 be 2e c6 4b 3d
       -0.07657446 -0.020566432 -0.20518866 0.049749546
0000d0 e1 8a 13 3d d5 6c b7 3c 28 38 6f bc 78 18 1a bd
       0.036021117 0.022390762 -0.014600791 -0.03762099
0000e0 9c 13 ad 3d 58 f7 37 3e 80 10 09 3d 24 b7 90 3c
       0.08451006 0.17965448 0.033463 0.017665453
0000f0 70 c0 19 3e 3c 95 12 3d c2 73 82 3d 92 58 2c 3e
       0.15014815 0.035786852 0.06369735 0.16830662
000100 59 68 c9 bc 68 37 66 3a b7 59 7a 3e ab a4 fa 3c
       -0.02458589 0.000878206 0.24448286 0.030596098
000110 27 28 80 3d 4f 47 6f 3c 7b 26 f5 3c 15 14 c1 bd
       0.062576585 0.014604404 0.029925575 -0.094276585
000120 cf 4f 50 be e8 e1 06 bd 9d 87 69 be 32 ce 1b be
       -0.20342945 -0.032930285 -0.22805639 -0.15215376
000130 db de bc bc 5c ee a9 be 4e 5f 29 bd 2c c0 0e bd
       -0.023055485 -0.33189666 -0.041350655 -0.034851238
000140 81 3e 3a be 8d 26 3d 3e 3b 42 a0 3c a7 3d 61 3e
       -0.18187906 0.18471737 0.019562831 0.21996175
000150 52 b2 1a be 4e 65 15 bd bb 98 98 be 25 d2 e8 bd
       -0.15107086 -0.036473565 -0.29804024 -0.11368207
000160 6c b2 b4 bc d5 4d 9f be 58 06 b6 bd 84 08 b1 bc
       -0.022057734 -0.3111407 -0.08887929 -0.021610506
000170 d1 47 08 bd 73 cb 8e 3e ef 5f 27 3d 47 82 8e 3c
       -0.033271614 0.27889594 0.040862974 0.017396105

rnn.weight_hh_l0 f4 [32, 32]
000000 6b 5b b7 be 6d 15 f0 3e 15 8a 45 bf a3 8f 2e 3f
       -0.35811934 0.46891347 -0.7716382 0.6818792
000010 f4 a7 1d bf dd 8a cd 3e 4c 64 83 3f c0 09 47 bf
       -0.615844 0.40145007 1.0264983 -0.7774925
000020 c3 95 76 3f dd fe e1 be 0c cb e3 3e 2d 86 5d 3f
       0.9632227 -0.44139758 0.4449085 0.8653286
000030 41 0a 43 bf 7c 6f 0d bf 6a ee 53 bf 04 4d 79 bf
       -0.7618752 -0.55248237 -0.82785666 -0.9738314
000040 58 bb 3f bf bc 52 e8 3e 0c 06 53 bf 37 fc dd 3e
       -0.7489524 0.4537562 -0.824311 0.43356487
000050 a7 80 5f 3f 17 0c 7f be a5 42 0e 3f 22 76 0f 3f
       0.8730568 -0.24906956 0.5557044 0.5603963
000060 3c c5 fe be 25 d9 80 bf 13 7f 83 be 78 56 3c 3e
       -0.49759853 -1.0066267 -0.25682887 0.1839236
000070 68 5a 50 bf 84 58 f7 be 2b 69 48 bf 05 d2 0e 3f
       -0.8138795 -0.4830972 -0.78285474 0.55789214
000080 42 04 77 3e 4c e5 ad 3e e2 bd c8 3e c4 0a eb 3e
       0.24122718 0.33964002 0.3920737 0.4590665
000090 74 e2 fe be 59 88 95 3e 52 97 c6 be 8b b4 17 3e
       -0.49782145 0.29205588 -0.38787323 0.14814965
0000a0 81 0a 74 bd e6 aa 11 be 5e 6a 75 3e c9 ce be be
       -0.05958033 -0.14225349 0.23966357 -0.3726714
0000b0 58 9d f0 be 06 6f ba 3e 8c 71 ba 3e 04 6c 76 3e
       -0.46995044 0.3641283 0.36414754 0.24064642
0000c0 4d b4 c5 be af 89 fa 3e bd 10 e7 3e 0f 05 c6 be
       -0.3861412 0.4893317 0.45129958 -0.38675734
0000d0 b1 1c 40 3e cc 40 09 bf 62 13 a5 3e 6b cc cf be
       0.18760945 -0.536145 0.3224135 -0.40585646
0000e0 0d f4 87 be 72 43 b4 3e b8 fa bc be 2c 72 c0 be
       -0.26553383 0.35207707 -0.36910033 -0.37587106
0000f0 4c 01 05 3f ad 87 bb be 33 fa dc be 44 84 09 3f
       0.51955104 -0.3662695 -0.43159637 0.53717446
000100 1e 49 4e 3f f1 f2 ca be 9b 30 4f 3e 40 e8 a7 3e
       0.8058032 -0.39638475 0.20233385 0.3279438
000110 f3 3b 63 be b6 90 24 3e 77 21 0f bf 68 9c 81 3d
       -0.22190838 0.16070828 -0.5591044 0.0632866
000120 a7 79 e1 3e b2 47 7e 3e d6 cb 85 bc 83 bc 30 3f
       0.44038126 0.24832037 -0.016332548 0.69037646
000130 65 34 bd 3d be b7 40 3f c6 e0 44 3f 6c ed 23 3f
       0.09238509 0.7528037 0.7690548 0.6403415
000140 5e 48 1e 3e 82 24 bc 3e 46 47 1e bf 2e 84 bb bd
       0.15457293 0.36746603 -0.61827505 -0.09156071
000150 ff 6f 01 3f fb 43 99 3d 51 b0 84 bd 71 d0 63 be
       0.5056152 0.07483669 -0.06478942 -0.22247483
000160 68 bb b2 3e c8 6f 0f bf bb 8b 2f 3d 55 0d 00 bf
       0.34908605 -0.5602994 0.042857867 -0.50020343
000170 34 86 36 3e c0 70 7f 3e e4 9b 8b 3e 1e 37 d2 be
       0.17824632 0.24945354 0.27267373 -0.41057676
000180 5e a8 0f bc c2 09 90 be 61 be 2b be 05 43 90 3e
       -0.008768169 -0.28132445 -0.16771843 0.28176132
000190 79 b8 33 be 73 f4 6f 3d ad 1d 0e bd 3c 95 a4 3e
       -0.1755084 0.058582734 -0.03469627 0.32145107
0001a0 75 a5 b1 3e 76 fa 3a be 9f f7 68 3e f1 44 45 3e
       0.34696546 -0.18259606 0.2275071 0.1926458
0001b0 98 f6 77 3d f9 40 f4 3d 2a a3 89 3e ed 59 67 bc
       0.060537905 0.11926455 0.26882297 -0.014120561
0001c0 21 29 13 be 1c 6b 62 bc e6 a0 22 3d d9 be 20 bd
       -0.14371158 -0.013819482 0.039704226 -0.039244507
0001d0 e6 df e2 3d 0e 6a 4c bc 9f 51 fd bc 8b f9 54 bc
       0.110778615 -0.012476457 -0.030922709 -0.012998949
0001e0 13 e4 f5 bd ee 1e b9 3c bb 3e 18 3c 3f 1b 05 3d
       -0.12006392 0.022597756 0.0092923 0.032496687
0001f0 1c 15 97 bd ff da 9e bd 8e 2c 31 be 7c 49 b7 bd
       -0.07377073 -0.07756614 -0.17302153 -0.08949563
000200 8a f7 54 3e ea 42 60 3e 0d 4a 63 bc e3 4d 01 be
       0.20797554 0.21900526 -0.013872636 -0.12627368
000210 d8 d0 b9 3d 18 58 ab be f2 4d 48 bd 2a 04 03 be
       0.09073037 -0.33465648 -0.04890246 -0.12794557
000220 d1 4a 17 bd a0 5a b2 3e ca 29 d0 be e1 08 ee bd
       -0.036936585 0.34834766 -0.40656883 -0.11622787
000230 fc 9f ab bd 00 4f 88 3d c0 91 c9 be 15 d9 02 be
       -0.08380124 0.06655693 -0.3936901 -0.12778123
000240 9d e5 9e bd 24 26 f7 bd a4 01 4c be 52 9f 04 be
       -0.07758639 -0.120678216 -0.19922501 -0.12951401
000250 e8 23 86 be c4 cc 27 3d dd fc e7 bd 63 e6 ca bc
       -0.2619927 0.040966764 -0.11327527 -0.02476806
000260 d8 9a 05 3e 9a 7d 3d bd 91 f1 63 bc 90 88 ed 3c
       0.1304735 -0.04626236 -0.013912574 0.028995782
000270 02 a6 02 3e 95 03 74 3d 28 62 eb 3d 8a 2b 6f bc
       0.1275864 0.05957373 0.11493331 -0.014597783
000280 04 98 59 be c6 b4 d4 be c6 18 6c be ac 14 cc be
       -0.21249396 -0.4154417 -0.23056325 -0.3985952
000290 e7 c4 be 3e d6 73 2b 3e 88 40 7f 3e 01 79 38 be
       0.372596 0.16743407 0.2492696 -0.1801491
0002a0 90 60 fb bd 17 e8 e1 be 64 fe 0d be 21 a0 c1 3e
       -0.12274277 -0.44122383 -0.13866574 0.3781748
0002b0 be 9d ea be 5b 08 b7 be 4c cc a7 be 29 f7 9f 3e
       -0.45823473 -0.35748562 -0.32773054 0.31243256
0002c0 6e ea 43 3e 05 55 47 be 4c 07 90 3e de e3 c3 be
       0.19132397 -0.19466026 0.28130567 -0.38259786
0002d0 8b c0 2c 3d 3d d6 71 3e b2 fb e9 3e 33 ca bc 3e
       0.04217581 0.23616882 0.4569984 0.36873016
0002e0 44 9d 42 be 93 1e 7f 3e 9b 74 1f bd 6b 5a a9 3e
       -0.19005305 0.24914007 -0.038929563 0.33076796
0002f0 4e 8f 54 3e b3 f9 e1 be 78 1a 77 be 18 06 2c bd
       0.20757791 -0.44135818 -0.24131191 -0.041998
000300 83 25 0f bf 8e 8d 24 3e 5c 20 59 3d a7 c9 10 be
       -0.55916613 0.16069624 0.053009376 -0.14139424
000310 7b d6 53 3e 3f 10 03 bd 5a b1 5e bd 22 c9 b9 bd
       0.20687287 -0.031997915 -0.054368354 -0.09071566
000320 cd 58 e0 be ec d3 d3 3d 95 4a ad bd 62 04 b5 be
       -0.4381775 0.10343155 -0.08461491 -0.35354906
000330 5e 78 1f 3e 29 82 05 bf cb bd f7 bd 4c 2a 0f bf
       0.1557326 -0.52151734 -0.12096747 -0.55923915
000340 b8 dd a1 bd 78 5d 29 be 07 6c ae 3e 2c 56 f6 3e
       -0.079036176 -0.16539562 0.34066793 0.4811262
000350 fc 2e a9 be 3b 14 ec be ba 94 8c be 2a 9e db 3e
       -0.3304366 -0.46109185 -0.2745722 0.42894107
000360 78 07 04 be 62 82 95 3e 85 e4 23 be 81 5f 66 3e
       -0.12893474 0.29201037 -0.16005142 0.2249737
000370 63 b4 04 be af f3 7f 3d fb 5c f9 bc 36 f0 ea 3d
       -0.12959437 0.062488254 -0.030439844 0.11471598
000380 f4 82 bd 3e 32 72 37 bf 0a ed f8 be 39 c1 1f be
       0.37013972 -0.71658623 -0.48618346 -0.15601052
000390 e9 4e b5 3e 49 59 7b be e9 19 0a 3f 3b 5d 93 bd
       0.35411766 -0.24545778 0.53945786 -0.07195517
0003a0 fa 43 4e 3f e5 c8 a4 3e b4 e2 9c be 8e 54 05 3f
       0.80572474 0.3218452 -0.3064171 0.52082145
0003b0 a3 0d 38 3f 57 a6 d8 3e 2d 11 02 3f 7a bf 53 bf
       0.7189581 0.42314407 0.5080746 -0.82714045
0003c0 54 e2 33 3f b5 bd 23 bf 64 c3 15 bf 88 38 d4 be
       0.70267224 -0.63961345 -0.5850127 -0.4144938
0003d0 8e b6 82 3f b3 d0 8a 3e 70 27 2a bf e9 f9 b1 3e
       1.0211961 0.2711235 -0.66466427 0.3476098
0003e0 fe 66 09 3f ed 22 f7 be 22 c2 ca 3e 60 1f 30 bf
       0.5367278 -0.48268834 0.39601237 -0.68797874
0003f0 48 9a 45 3f 6c 6d 4f 3f b0 85 47 3f 1c d6 2f bf
       0.7718854 0.8102634 0.77938366 -0.6868608

rnn.bias_ih_l0 f4 [32]
000000 f8 59 c8 3e 48 db 05 3e 6a 1b c3 be fe 50 17 3e
       0.3913114 0.1307193 -0.38106853 0.1477699
000010 28 66 10 be c1 4a e7 3e 7c 27 26 3d c0 40 00 bf
       -0.1410147 0.4517422 0.040565 -0.500988
000020 9f fd b1 3e 49 3d 6b be 78 a6 f7 3e 47 29 27 3e
       0.3476381 -0.22972597 0.48369193 0.1632434
000030 44 a6 32 be 33 e8 80 be ab 43 80 3e 0b b5 ef 3a
       -0.17446238 -0.25177154 0.25051627 0.0018288208
000040 e2 22 0c be b1 36 db 3d fd 93 62 bd 46 38 ce 3d
       -0.13685182 0.10703791 -0.055316914 0.10069327
000050 fe 41 83 3e 0e 9c 19 be 33 48 87 3e f9 e2 1b 3e
       0.25636286 -0.15000936 0.2642227 0.15223302
000060 f3 96 44 be 2d 2c f1 be 47 34 c9 bd 52 dc 59 bd
       -0.19198208 -0.47104016 -0.09824424 -0.05318863
000070 a0 25 f8 bd 0e 9d 9b be 4e 66 e5 be d3 a1 4e 3e
       -0.121165514 -0.3039326 -0.44804615 0.20178919

rnn.bias_hh_l0 f4 [32]
000000 4d 80 0b 3f f4 f1 80 3e 81 4d cb be a6 d1 10 3e
       0.54492646 0.25184596 -0.39707568 0.14142475
000010 3c 9e 53 be ec 07 df 3e bc be 3f 3e 2f ee bb be
       -0.2066583 0.4356073 0.18725103 -0.36705157
000020 3e fa 1f 3e 56 ed 15 be a1 a2 cf 3e fd 12 15 3e
       0.15622804 -0.14641318 0.40553764 0.14558025
000030 cc bf bc be ac b5 0c bd 70 b8 00 3e 79 c9 19 bb
       -0.3686508 -0.034352943 0.12570357 -0.0023466034
000040 1e dc 4f be 46 00 3f 3d bc 90 1f be b4 b2 0e bc
       -0.20298812 0.04663112 -0.15582556 -0.008709598
000050 4d 2b 82 3e 0e 3d cf bd 37 09 7a 3e 39 32 f2 bc
       0.2542366 -0.10119067 0.24417578 -0.029564964
000060 3a 8b 68 bd 81 ee a3 be 26 4c 2b be 22 9a 10 3e
       -0.0567734 -0.32017902 -0.16728267 0.14121297
000070 81 e6 95 be 12 58 a4 be 24 41 a1 be 3f 7f 2d 3e
       -0.29277423 -0.32098442 -0.3149501 0.16943072

rnn.weight_ih_l1 f4 [32, 32]
000000 5c 0b 78 3d b6 df f0 bd e8 79 c0 bd 8f 4d 5d bc
       0.06055771 -0.117614195 -0.09398252 -0.013507261
000010 52 36 ce bd 27 37 24 3e d0 68 9e bc 03 ed c5 bc
       -0.100689545 0.16036664 -0.019337088 -0.024160868
000020 ae 74 83 bd 40 53 11 3e ed 5e 89 3d 38 19 87 3d
       -0.06418739 0.14191914 0.06707559 0.06596607
000030 da 3d ec 3d 6a 91 83 bd b1 20 10 3e e0 aa 3f be
       0.11535235 -0.0642422 0.14074971 -0.18717527
000040 b5 50 82 3c a2 64 07 bd 3c cf da 3c 54 70 22 3d
       0.015907625 -0.033054955 0.026710145 0.039657906
000050 f8 50 82 3d 88 fa ea 3d 47 bf b9 bc f1 64 ba 3d
       0.063631 0.11473566 -0.022674216 0.09101284
000060 03 18 31 3e 6d 82 30 3e 3f 75 97 3c b2 c4 41 bd
       0.17294316 0.17237253 0.018488524 -0.047306724
000070 60 2c b3 3c c5 ca 44 bd 57 a7 4f 3d 7f b5 f5 3d
       0.021871746 -0.04804494 0.050696697 0.11997508
000080 f2 54 10 be 13 f8 f3 3d 2e df b1 bb 70 82 23 be
       -0.14094904 0.11912551 -0.0054282164 -0.15967727
000090 d9 e7 be bc 9a 8a 09 be 51 e7 58 3d 89 db cb be
       -0.023303913 -0.13431779 0.052954976 -0.3981593
0000a0 39 c4 1a be 5b 60 70 3d 6d a1 2e bd 7f 52 10 be
       -0.15113916 0.05868564 -0.042634416 -0.1409397
0000b0 18 d7 45 bd 31 ab 88 bd 4f 73 3f be 13 a8 57 3d
       -0.048300833 -0.06673277 -0.1869633 0.052650522
0000c0 a3 5e 91 bc 85 e9 3a 3e 0d f9 ec bb 40 75 31 3d
       -0.017745322 0.18253143 -0.0072318376 0.04332471
0000d0 35 5c 72 be 7e 63 dd 3a 77 10 07 be 88 86 fe bd
       -0.23667987 0.0016890613 -0.13189875 -0.124280035
0000e0 8f bf 04 be 56 48 9d bd 69 0f eb 3c 35 ec e0 3d
       -0.12963699 -0.076798126 0.028693872 0.10982553
0000f0 70 d1 cb 3c 89 c2 2a be fe 0c 45 3c db 51 45 3e
       0.024880141 -0.16675772 0.012027023 0.19269507
000100 08 ba 94 3e f1 62 97 bd ef 72 3b be 73 da ee bc
       0.2904818 -0.073919185 -0.18305562 -0.0291569
000110 20 26 11 be c7 c7 85 3e bb 9f e0 3c 37 43 a0 3e
       -0.141747 0.2612898 0.027419915 0.3130128
000120 48 7d 34 bd 5d 86 fc bc f5 fb 0d 3e 93 53 31 3e
       -0.04406479 -0.030825788 0.13865645 0.17317037
000130 2d 00 36 3d 89 be ce 3d 53 39 40 3e 15 88 ef bd
       0.04443376 0.100949354 0.18771867 -0.116958775
000140 0b b1 4a be 2b 81 26 3d da e6 81 bd 7e c6 1b be
       -0.19794099 0.040650528 -0.063428596 -0.15212438
000150 6a 79 92 bd 52 e2 b9 3d 3d ce d3 bd c7 00 60 be
       -0.07152064 0.0907637 -0.10342071 -0.21875297
000160 01 52 ef 3d fe 90 bb be 97 c0 2c 3d 38 20 30 bd
       0.11685563 -0.36634058 0.042175855 -0.042999476
000170 f0 e7 9a bd 3f 32 45 3d e6 72 82 3d e3 c8 57 be
       -0.0756377 0.04814362 0.063695714 -0.21072726
000180 2b 8a 21 3d 8f f7 64 3e 1e ac 33 3e 70 80 5b 3d
       0.039438408 0.22360061 0.17546126 0.053589284
000190 eb 23 66 bc 9e 77 8f 3d 66 78 bd 3d c3 ed 89 be
       -0.014046649 0.07005237 0.0925148 -0.2693921
0001a0 57 3f 09 be cd b4 47 be 85 be af bc 71 f7 07 3e
       -0.13403068 -0.19502564 -0.021453151 0.13277985
0001b0 71 a3 63 3d 55 6d eb bc 2e 8e 28 be 37 b2 11 be
       0.05557579 -0.028738657 -0.16460487 -0.1422814
0001c0 85 0e 2a be aa 42 12 bd 6b 37 77 bc 1c 0e 23 bc
       -0.16607101 -0.035708107 -0.015088896 -0.009952094
0001d0 1e de 05 3d 6a aa 1c 3e 4f e6 c3 3d 5d ca a1 3d
       0.03268253 0.15299383 0.09565412 0.07899926
0001e0 67 d8 48 be 8c 46 1f bc 5f 22 87 3c 05 07 5a 3c
       -0.19613801 -0.0097214095 0.016495882 0.013307338
0001f0 e0 f6 0f bd ef e6 58 be b3 c7 80 3d 0b d7 1e 3e
       -0.035147548 -0.21181844 0.062880896 0.1551172
000200 06 9c ad 3e 4b 8c 29 bd d2 3b a3 3d 9b b5 cf 3d
       0.339081 -0.04139356 0.07970394 0.1014206
000210 7d 3e fe 3b 2f 39 2b 3e 8f f2 f6 3d ff be b0 3e
       0.007758914 0.16721033 0.12057983 0.34520718
000220 1f 2d 31 bc 5e c3 d6 3d cd 6d aa bb 2d 01 c8 3d
       -0.01081398 0.10486482 -0.0052010776 0.09765849
000230 6b 26 02 be 40 b3 14 3e 00 93 83 3d fb 44 23 be
       -0.12709968 0.14521503 0.064245224 -0.15944283
000240 1a 42 b0 3a 7f 98 00 bd a3 14 51 be 7d f9 74 bd
       0.0013447434 -0.03139543 -0.20418029 -0.059808243
000250 04 e1 3c 3e 13 2d 8e bd 3f 59 de 3d a9 7a 46 be
       0.18445212 -0.06942191 0.10856866 -0.19382729
000260 7f a7 83 3d 1f aa 96 be fc f8 2a 3d 55 74 ad bd
       0.06428432 -0.29426667 0.041741356 -0.08469454
000270 ca 53 ff bd 1b bb 12 3c a0 7b c9 3d 71 8a 2c be
       -0.12467153 0.008955742 0.09838033 -0.16849686
000280 c6 e5 d1 bd ee d2 84 be 96 eb 33 be 2b a2 f7 3b
       -0.10248904 -0.25942177 -0.17570338 0.0075571737
000290 4f 16 c5 3c 43 6e 36 bb cb 61 6d bd 85 ad fa 3d
       0.02405849 -0.0027836717 -0.05795459 0.122401275
0002a0 bb 79 5f 3e e7 86 a7 3d fa b0 ec bd 94 a6 8f bc
       0.2182378 0.081800275 -0.11557193 -0.017535485
0002b0 ad 12 12 3e 2a 57 0b bc 09 04 91 bd 9e b1 0e 3e
       0.14264937 -0.008504668 -0.07080848 0.13934943
0002c0 8c dc 28 3e 0d 95 b8 bd ee 52 0d 3e 3a bc d2 bd
       0.16490382 -0.09012804 0.13801166 -0.102898076
0002d0 28 52 5e bd 99 35 41 bd d7 23 8a 3d 83 0f 44 bb
       -0.05427757 -0.047170255 0.06745117 -0.0029916472
0002e0 b5 73 da bc 87 ed b8 bd 68 13 d4 bd 16 bc 56 3e
       -0.026666502 -0.0902968 -0.10355264 0.20970187
0002f0 7e 91 87 bd c4 65 98 bc f7 00 22 3e 7c 11 38 bc
       -0.06619547 -0.018603213 0.1582068 -0.011234637
000300 ef 72 d5 3e 92 5e 6f be f6 3a 02 be 8d ac 3c 3d
       0.4168925 -0.2337592 -0.12717804 0.046062995
000310 8b bb 31 be ee 82 20 3d a6 eb 64 3c 3a 63 31 3e
       -0.17356698 0.039187364 0.013972199 0.17323008
000320 f0 4a 7d 3d fc d9 da 3d a1 60 34 3e 66 e2 16 3e
       0.061839044 0.106861085 0.17614986 0.14734802
000330 fc f8 4a 3d 21 5d 07 3e db 4e 27 3c 7f 82 2e bd
       0.049553856 0.1321912 0.010211672 -0.04260492
000340 71 df 1f 3d e3 48 b1 bb 0e 5c 09 bd 25 5d da bd
       0.03903145 -0.0054103 -0.033535056 -0.10662297
000350 6c 07 75 3e 54 a0 2e bd d6 f1 ed bd cb 0c 8a 3d
       0.23928612 -0.04263337 -0.11618392 0.06740721
000360 2e c0 6c bd eb d3 58 be 56 dd 2f 3d 73 8c a3 3c
       -0.057800464 -0.2117459 0.04293569 0.019964432
000370 00 11 cc bd ab 66 c1 3d ac 11 58 3c 14 26 63 bd
       -0.0996418 0.094434105 0.013187807 -0.055456236
000380 ae 8c e7 3d e1 59 22 bd a9 c6 40 3e b1 56 be bd
       0.113061294 -0.039636496 0.18825783 -0.09293879
000390 bc 37 32 bc a8 65 5a bc fc 7e 6a 3e 12 34 a8 3d
       -0.010877546 -0.013329901 0.22900003 0.082130566
0003a0 ef f2 0d 3d b8 01 ca 3d 09 c1 d6 bd ef 2e 8a bd
       0.034655508 0.09863609 -0.10486037 -0.06747233
0003b0 47 a7 42 3d 2a f0 37 3d 99 81 82 3d e7 21 2f be
       0.04752281 0.044906773 0.06372375 -0.17102776
0003c0 cb 99 87 bc af bc 11 be 14 98 63 3e 40 47 56 bd
       -0.016552826 -0.14232133 0.22225982 -0.052314043
0003d0 87 be 1b be c0 95 28 bd 7d 52 e8 3d 84 22 41 3e
       -0.15209399 -0.041158438 0.113438584 0.18860823
0003e0 45 28 32 be 2a ec 25 3d e2 2b 32 be 52 29 ee bd
       -0.17398174 0.040508427 -0.17399552 -0.11628975
0003f0 80 b0 10 3e ef 0a 1a bb 68 50 b6 bd df 45 ef 3d
       0.1412983 -0.0023505052 -0.08902055 0.11683249

rnn.weight_hh_l1 f4 [32, 32]
000000 5d cf 3b be cd 96 cd 3d 8f 02 99 3d 13 37 34 3e
       -0.18340822 0.100385286 0.07471191 0.17599134
000010 ef 5e cd 3c 3c 6f 28 bd d6 fb 7f be af 19 62 be
       0.025069682 -0.041121706 -0.24998412 -0.2208011
000020 f2 b8 96 3e 32 c9 1a be 4d b9 10 bd 4b f6 2c bd
       0.29437977 -0.15115812 -0.035332967 -0.04222707
000030 ee 50 ea bd 69 9f 37 bd 51 57 b7 bd 1e 4f 46 be
       -0.11441217 -0.04482976 -0.08952201 -0.19366118
000040 ae 12 c9 3e d8 90 c3 3d bd ed 1d 3e 56 03 9d bd
       0.39272064 0.09549111 0.15422721 -0.07666652
000050 60 50 4a 3e 6b 11 14 3d 8c 0d 5d be c7 21 93 bd
       0.19757223 0.036149424 -0.21587199 -0.07184177
000060 81 9a e1 bd dd a7 15 bd 0a 6c 59 3e 9b 59 90 3e
       -0.110157974 -0.03653704 0.2123262 0.28193364
000070 d2 32 8d 3c 76 80 78 bd 6e 34 e1 bd 42 27 d9 bd
       0.017236147 -0.060669385 -0.10996328 -0.10603191
000080 f1 c6 4d 3e 1b e8 36 3e f8 49 2b 3d 9d bb 2e 3d
       0.20095421 0.17861979 0.04181859 0.04265939
000090 e3 e5 b4 bd 22 e8 6a be b4 10 0e be aa 46 59 be
       -0.0883291 -0.22940114 -0.13873559 -0.21218362
0000a0 75 ee 83 bb 61 f2 82 3c c3 66 83 3d bb db 0b bd
       -0.004026229 0.015984716 0.064160846 -0.0341451
0000b0 2a cd 3d 3e 3e 69 18 3e 37 32 bc bd 8a 8d 37 be
       0.18535295 0.14883897 -0.09189265 -0.17925087
0000c0 87 06 48 3e b2 e6 54 3a 1e 85 e4 3e 77 36 89 bd
       0.1953374 0.00081215345 0.4463281 -0.066998415
0000d0 ee 6f cf 3d 9c 58 03 3e 0d 31 93 3d d0 a5 dc bd
       0.10128771 0.1282677 0.0718709 -0.10773814
0000e0 24 68 d3 bd ae 0a 4d 3e 37 4c 29 bd 3e 54 ee 3d
       -0.103225976 0.20023605 -0.04133245 0.11637162
0000f0 be 76 4c 3e 74 07 2f 3e 29 18 88 bd 96 c3 90 be
       0.19967172 0.17092687 -0.06645233 -0.2827422
000100 94 a2 30 3c 6f 84 b5 3d 33 b0 da bb 05 e8 8f 3e
       0.010780949 0.0886315 -0.0066738366 0.28106704
000110 8a e1 c4 3d 49 98 0d bc 1c d6 ed 3d d4 db 48 3d
       0.09613331 -0.008642265 0.11613104 0.04903777
000120 c1 e9 f6 3d e7 89 53 3e 00 ad f0 3b a5 78 58 3e
       0.12056304 0.20658074 0.007344842 0.21139772
000130 e6 3d 66 3e 65 f4 2c 3e 73 1b 32 3e e2 e4 91 3d
       0.2248455 0.16890104 0.17393284 0.07123734
000140 70 76 2b bd 11 1a 23 be 39 f3 80 be 16 aa 52 be
       -0.041860998 -0.15927912 -0.25185564 -0.20572695
000150 63 10 55 bb fd 2f 10 3e df 0e 69 3e 58 d9 4e 3e
       -0.0032510988 0.14080806 0.22759579 0.20200098
000160 b3 af 08 3e 64 de 0f 3d 9a 45 d1 bb 20 54 e1 3d
       0.13348274 0.035124198 -0.006386471 0.11002374
000170 26 94 ef bd cb cd 42 be b4 88 5b bd 6b 86 0d 3d
       -0.11698179 -0.19023816 -0.053597167 0.03455202
000180 48 a6 89 bd ea 5d 96 3d 2f 98 bf bd b8 6b 32 be
       -0.06721169 0.073421314 -0.093551986 -0.17423904
000190 2f 3d af bd 72 2d 81 3e 5b d2 84 bd 41 a9 1a 3e
       -0.08556592 0.25229985 -0.064854346 0.15103628
0001a0 8a ce b2 3d a2 c8 e8 3d 97 3a 44 3d f7 54 46 3d
       0.087308004 0.11366393 0.047907438 0.048420873
0001b0 ad 4a 04 3e ea 9c 0f 3d b0 e1 91 bd 03 68 94 be
       0.12919112 0.035061754 -0.071231246 -0.28985605
0001c0 db ca b8 3d ab 46 31 3b 57 a2 b0 3d cc 63 e6 bd
       0.090230666 0.0027050178 0.08624714 -0.112495035
0001d0 a5 08 32 be f6 b5 51 3c 20 ba 70 3d b5 d9 5f be
       -0.1738611 0.0127997305 0.058771253 -0.21860392
0001e0 cc 3e 95 bd a4 f0 e6 bb df c3 1f 3e 01 bd 57 be
       -0.07287368 -0.0070477296 0.15602063 -0.21068193
0001f0 62 98 bd bd c9 82 88 3d 4e 28 10 bd 0d 46 77 bd
       -0.0925758 0.0666557 -0.035194688 -0.06036954
000200 7a df e5 3c 6e ca fd bc fa 40 19 3e 0a 49 4c 3d
       0.028060663 -0.030980315 0.14966193 0.049874343
000210 dc 79 31 bd e9 e0 69 3d 61 cf 70 3d e1 d4 53 bc
       -0.043329105 0.057099257 0.058791522 -0.012929172
000220 aa ae 32 be 29 a8 9a bb c2 43 67 3e 42 0c 41 3c
       -0.17449442 -0.0047197533 0.22584441 0.011782708
000230 20 5e 90 bc 02 11 ae 3e 3e f9 31 3e d0 21 82 3d
       -0.017623007 0.3399735 0.17380235 0.063541055
000240 17 23 6c be cf 27 91 3d 7e c3 85 bd 13 96 80 be
       -0.2306026 0.07087671 -0.06531428 -0.25114498
000250 b2 d5 4b be 34 e8 dd bd 1a 08 a5 bc a7 df 14 bd
       -0.19905737 -0.10835305 -0.020145465 -0.036346104
000260 77 16 49 3e eb 81 33 be aa 6d 3c bd ee a6 27 bd
       0.19637476 -0.17530029 -0.04600302 -0.04093068
000270 2d 42 21 bd f5 82 d6 bb 13 08 6a bb a0 8e c7 bd
       -0.03936975 -0.006546373 -0.003571038 -0.097440004
000280 28 7f 79 3d 9c e7 9f bd 12 83 a8 bd f4 a9 38 3e
       0.06091228 -0.07807848 -0.08228125 0.18033582
000290 c1 09 aa 3d b0 ab 30 be 00 27 5c 3e 25 73 89 be
       0.08302642 -0.17252994 0.21499252 -0.2684566
0002a0 24 f1 f5 3a 92 79 8a 3e b3 a3 3e 3e 1e af 89 bd
       0.0018763882 0.27045876 0.18617134 -0.06722854
0002b0 df 04 0a 3d 76 cc 97 3e 54 79 86 bd 72 ea 55 3d
       0.03369605 0.2964818 -0.0656611 0.052225538
0002c0 85 41 7a bd c5 15 2c 3e 58 2a 4d be 0b ed da 3d
       -0.06109764 0.1680518 -0.20035684 0.106897436
0002d0 6b f4 8a 3d 7f 9d 4d bd cb 89 c5 3e ff 00 75 3d
       0.067849 -0.050199028 0.3858169 0.059815403
0002e0 73 21 30 3d 1e 11 a5 3d a2 f4 31 be 4d 77 f3 39
       0.04300065 0.080599055 -0.17378476 0.00046437458
0002f0 19 d4 59 3e f2 a2 35 be 00 e6 1a bc 9d 18 c5 3d
       0.21272315 -0.1773794 -0.00945425 0.09623835
000300 3d 72 55 bd 9f 74 54 be 36 06 7c 3e 01 02 2c 3e
       -0.0521109 -0.20747612 0.24611744 0.1679764
000310 0f b9 8a bb ee ab 31 3d 29 f7 48 3e 1f 3e 05 be
       -0.0042334865 0.043376856 0.19625534 -0.13011979
000320 28 c5 88 bc 3e 9e 25 3e f1 3b ae 3d 30 bb eb 3d
       -0.016695574 0.16173646 0.08507527 0.115103126
000330 69 a4 97 3d 59 0e 8d 3e 87 ac 61 3e 3b 43 1a 3e
       0.074044056 0.2755001 0.2203847 0.15064709
000340 fa e2 2e be 90 69 c2 bd 79 c4 43 be af f4 25 3c
       -0.17078772 -0.09492791 -0.19117917 0.010129138
000350 ce dc 40 be ee 38 9e 3b 44 59 d1 3c 9f 5b 97 3e
       -0.1883423 0.004828564 0.02555526 0.2956209
000360 e8 c4 6f 3e 41 fa 42 be 38 82 66 be 5c 1c 22 bd
       0.23414958 -0.19040777 -0.22510612 -0.039577827
000370 11 59 94 3d 2d 39 8c be 74 9a 2a be 41 f0 dd 3d
       0.072435506 -0.27387372 -0.16660482 0.108368404
000380 0e 12 49 be 4a bd d7 bd 24 9f 56 bc 68 77 bf 3d
       -0.19635794 -0.10534151 -0.0130994655 0.09348947
000390 84 12 fc bc e3 24 5c 3e d6 30 ec 3d 2a ee fe 3c
       -0.030770548 0.21498446 0.11532752 0.031119425
0003a0 5c 91 8f be ca 51 89 bc ef fd 86 3e 46 7d 2a 3e
       -0.28040588 -0.016762633 0.2636561 0.1664935
0003b0 9a f6 62 3d 82 bb a9 3c d9 7f b5 3d d0 d2 fe 3d
       0.05541096 0.020719294 0.08862276 0.12442553
0003c0 a9 38 49 be 67 21 c0 bc 47 3c 25 3d dc 06 01 be
       -0.1965052 -0.023453427 0.040340688 -0.12600273
0003d0 b9 56 b1 3d 7e 87 6e be f2 29 a4 3d 57 6c 03 be
       0.08659119 -0.23293874 0.08015813 -0.12834297
0003e0 15 a1 62 3e 6e 0d dc bd 05 b6 a4 3c fb 6e 8c be
       0.2213176 -0.10744749 0.020106325 -0.2742842
0003f0 5e ad 20 bd 47 6e f9 3c 0d ab 4c bd dd 11 63 3e
       -0.039227836 0.030448092 -0.049967814 0.22174783

rnn.bias_ih_l1 f4 [32]
000000 93 3d e9 3d b2 22 2c bd 65 f1 23 be f4 c4 50 be
       0.113886975 -0.042025276 -0.16010053 -0.20387632
000010 25 ad 2f 3e 7e cc 64 3e 64 9b 34 3e 39 d5 99 bd
       0.17155893 0.22343633 0.17637402 -0.07511372
000020 8a 9b d6 bc 99 8b ae 3d 55 89 97 3d 4f 5e 89 3e
       -0.026197214 0.0852272 0.07399241 0.26829764
000030 d3 42 6b 3c b3 c4 97 bd 09 f9 57 be 4f cb 9b 3c
       0.014359194 -0.07410564 -0.21091093 0.019017844
000040 f1 6a a8 bb 60 45 5c 3e 58 e2 19 be c7 14 df bd
       -0.0051397015 0.2151084 -0.1502775 -0.10892635
000050 1d 81 51 be 89 7e 92 be 20 0a 30 bd db 9c 22 bd
       -0.20459409 -0.28612164 -0.042978406 -0.03970037
000060 4a 58 11 3e 3c 17 a2 be 8e 48 0b be 25 c0 61 be
       0.14193836 -0.3165835 -0.13601896 -0.22045954
000070 38 66 55 3c 2f 87 2d 3c 81 47 6f bc 53 b2 f2 bc
       0.013024859 0.010591312 -0.01460445 -0.029626047

rnn.bias_hh_l1 f4 [32]
000000 f2 76 30 be 5e 5b 54 be fe f7 55 bc 34 e2 3c be
       -0.17232874 -0.20737979 -0.013059614 -0.18445665
000010 4e bf fc 3b a5 e5 92 3e 85 b7 fd 3c 47 bd 4b 3e
       0.007713235 0.2869083 0.030971298 0.19896422
000020 f2 f5 33 be 1b 81 fb bd a2 79 2b bc 09 6f 04 bd
       -0.1757429 -0.12280484 -0.010466011 -0.032332454
000030 35 ef 13 be 8e 02 22 3b c0 46 52 be 5f 55 19 3d
       -0.14446719 0.002472076 -0.20534801 0.03743493
000040 11 0c c6 3d 1e 87 8e 3e 97 d3 4c bc 3f fc 53 bd
       0.0967027 0.2783746 -0.012501619 -0.051754232
000050 82 b4 2e be 46 d6 10 bd a9 0e 13 be 6e ea 81 3c
       -0.17061046 -0.035360597 -0.14361061 0.015858855
000060 8a 62 03 3b 4e 3e 21 be 12 26 5d 3e b9 cf 0d be
       0.0020047748 -0.15746424 0.21596554 -0.13848771
000070 fd 2f df 3b 9b b5 d4 bd 25 07 d7 3c 2e 0a 91 3c
       0.0068111406 -0.10386201 0.026248524 0.01770505

fc.weight f4 [2, 32]
000000 d3 09 a1 3e 29 1f 46 bd e0 0e 70 be 27 dc 05 3e
       0.31452808 -0.04836956 -0.23443174 0.13072263
000010 5e 61 60 be b1 6d a0 bb 06 30 1b be 71 51 20 be
       -0.21912143 -0.0048958887 -0.15155038 -0.15656067
000020 d1 a5 dd 3e 4f 7c e3 be 97 e8 43 be 05 d5 1c be
       0.4329057 -0.44430777 -0.19131695 -0.15315636
000030 80 47 e9 3b 2b e6 9b be 52 16 78 be 94 4c 8b be
       0.007119119 -0.30449042 -0.24227265 -0.27206862
000040 77 57 30 3e 8e 91 f2 3d 75 9c 8f bc 0a e7 68 3d
       0.17220865 0.118441686 -0.01753066 0.05686096
000050 27 a5 11 3c c2 e6 ad 3d 4a 9c db be b6 03 a5 be
       0.008889473 0.08491279 -0.42892677 -0.32229394
000060 a3 05 5e be 82 b1 86 bb 12 a4 68 3e 06 c1 10 3e
       -0.21681838 -0.004110516 0.22718838 0.14136133
000070 89 fe a7 bc ae d8 6f 3e 65 02 49 be fe 39 09 be
       -0.020507114 0.234225 -0.1962982 -0.13401029
000080 05 19 b2 bd ee a7 0b be 6c 4a 80 3e ce 04 e2 3d
       -0.08696178 -0.13638279 0.2505678 0.11036073
000090 38 d8 ac 3d 20 5b a4 3d b8 d0 94 3e e6 ee 80 3e
       0.08439678 0.08025193 0.2906549 0.25182265
0000a0 cf b6 b6 be ae 7c a6 3e 05 5d 88 3e ad 4a 8b 3e
       -0.35686347 0.32516998 0.26633468 0.2720541
0000b0 65 fe 8f 3e 87 d1 e0 3e 8a f9 38 3e f8 1e 97 3e
       0.28123775 0.43909857 0.18063942 0.29515815
0000c0 25 bb b0 be 19 e3 be bd 9b fd d7 bd 06 79 ab be
       -0.3451778 -0.09320659 -0.10546418 -0.3349077
0000d0 b9 d5 01 3e 5b a6 cc be 77 cb c4 3e 7f 15 77 3e
       0.12679185 -0.3997067 0.3843648 0.24129294
0000e0 20 c7 7f 3e 43 ad 0d 3e 16 51 78 be 7c 7c 96 be
       0.24978304 0.13835625 -0.24249682 -0.2939185
0000f0 19 5c be bd 89 ca 70 be 6b 4b b5 bd cf 32 10 3e
       -0.0929491 -0.23514761 -0.088522755 0.14081882

fc.bias f4 [2]
000000 53 24 87 3e bb a8 43 3d
       0.263949 0.047768336
