detector/models/64_1_16_5_32_0.001_covert_detector_4.pth (torch, 21617 bytes, 6 tensors)

rnn.weight_ih_l0 f4 [64, 3]
0	0xbedaab0d	-0.42708626
1	0xbcf4d731	-0.029887768
2	0xbdad6101	-0.08465768
3	0x3e3fafd0	0.18719411
4	0xbd42bc71	-0.047542993
5	0x3dcd5637	0.1002621
6	0xbdd6aa09	-0.104816504
7	0xbd07360f	-0.03301054
8	0xbe14034b	-0.14454381
9	0x3e0373e8	0.12837183
10	0x3d0206c2	0.031744726
11	0x3d92f76f	0.071761005
12	0xbe1e5e1b	-0.15465586
13	0xbd12a39a	-0.035800554
14	0xbe702f6b	-0.23455589
15	0xbdacc8aa	-0.08436711
16	0xbd2e602e	-0.042572193
17	0xbe399908	-0.18124783
18	0xbe39fa7a	-0.18161955
19	0x3c7aa949	0.01529915
20	0xbe53fb6b	-0.20701377
21	0xbde9a7ff	-0.11408996
22	0xbd0abf03	-0.03387357
23	0xbdbcceef	-0.09219157
24	0xbd0ee0d5	-0.034882385
25	0xbd422e75	-0.047407586
26	0xbdae3a36	-0.085071966
27	0xbec453be	-0.3834514
28	0x3b50cc78	0.0031860154
29	0xbefe7f4c	-0.49706495
30	0xbd2d3f9e	-0.042297
31	0xbd42db45	-0.047572393
32	0x3d902c07	0.070396475
33	0x3df0a48d	0.117501356
34	0x3d071d2d	0.03298681
35	0x3ba6f331	0.0050949086
36	0xbddd8a80	-0.108174324
37	0x3d0495a4	0.03236927
38	0xbcc58368	-0.024110511
39	0xbd0b1a2d	-0.03396051
40	0xbdf25bde	-0.118339285
41	0xbe0b3174	-0.13593084
42	0xbcbdfb09	-0.023190992
43	0x3cf601db	0.030030182
44	0x3d4e3a96	0.05034884
45	0xbcf3f20f	-0.029778508
46	0x3d08f2b7	0.033434596
47	0xbd920928	-0.07130653
48	0xbeecc6cf	-0.4624543
49	0xbbd6d00e	-0.006555564
50	0xbe71da8e	-0.23618528
51	0xbd12317a	-0.035691716
52	0xbd0a7880	-0.033806324
53	0xbd5cdbc3	-0.05392052
54	0xbc8fe71d	-0.017566258
55	0xbd2b332a	-0.04179684
56	0xbe21c95f	-0.15799473
57	0xbd2f30cf	-0.042771157
58	0xbd042719	-0.03226385
59	0x3d763f87	0.06011918
60	0x3d1be8c5	0.038063783
61	0xbd1611ba	-0.036638
62	0x3d362953	0.044473004
63	0xbe955ec8	-0.29173875
64	0xbc5c2083	-0.013435486
65	0xbe815eb2	-0.2526756
66	0xbe0ac0e1	-0.1355014
67	0xbcf8f088	-0.030388132
68	0xbc213e47	-0.009841508
69	0x3d227687	0.039663818
70	0xbd7fa36b	-0.062411707
71	0x3d008559	0.03137717
72	0x3dca39a2	0.09874274
73	0x3cffb339	0.03121339
74	0x3e0d500d	0.13800068
75	0x3cde3f26	0.02712972
76	0x3d16838f	0.036746558
77	0x3d835ce7	0.06414204
78	0x3ea56eab	0.32310995
79	0x3d03644e	0.03207808
80	0x3e7e5c92	0.2484
81	0xbe59c7c5	-0.21267612
82	0xbd330f13	-0.043715548
83	0xbc9c42d9	-0.019074844
84	0xbdceaffe	-0.100921616
85	0xbd127f13	-0.03576572
86	0xbe8f6bd6	-0.2801196
87	0xbc0a70c3	-0.008449736
88	0x3e226193	0.15857534
89	0x3df27d36	0.11840288
90	0xbe942a3e	-0.28938478
91	0xbd020b02	-0.03174878
92	0xbd824280	-0.0636034
93	0xbd990f95	-0.07473675
94	0x3d0db263	0.03459395
95	0x3d8a75b2	0.0676073
96	0x3d4bca87	0.049753692
97	0x3d28d486	0.041218303
98	0xbe016546	-0.12636289
99	0x3da43b92	0.08019175
100	0xbd14cddb	-0.03632913
101	0xbbcfc48d	-0.0063405694
102	0x3e56a5cf	0.20961688
103	0x3d04c515	0.032414515
104	0x3e008421	0.12550403
105	0x3db73d9f	0.089473
106	0x3d00ba12	0.03142745
107	0xbd0c27fd	-0.034217823
108	0xbe392d27	-0.1808363
109	0xbd8ce857	-0.06880253
110	0x3d11cbba	0.03559468
111	0xbc342fad	-0.010997695
112	0x3c8d3ffa	0.01724242
113	0x3dbc0274	0.091801554
114	0x3de25f6e	0.11053358
115	0x3d4d0255	0.050051052
116	0x3e06a6a7	0.1314951
117	0x3e8b6ce6	0.2723152
118	0x3d087f6a	0.033324637
119	0x3e71fe1c	0.23632091
120	0xbe94f213	-0.29090938
121	0xbd31fa67	-0.043451693
122	0x3d5f974b	0.054587644
123	0xbe6487b8	-0.22317398
124	0x3c87e586	0.016588937
125	0xbe76c923	-0.24100165
126	0x3b28c8c3	0.002575443
127	0x3d08245d	0.033237804
128	0x3ce44666	0.0278656
129	0x3d0c2d76	0.034223042
130	0xbcfff24e	-0.03124347
131	0x3d9fbc99	0.07799644
132	0x3d339630	0.0438444
133	0x3daf35b7	0.08555167
134	0xbd97ba9b	-0.07408639
135	0xbd006c3a	-0.031353213
136	0x3d47be52	0.048765488
137	0xbb88937a	-0.004167971
138	0xbd550176	-0.052003346
139	0xbce52544	-0.027971871
140	0xbe22b9d3	-0.15891199
141	0xbbc25c5d	-0.0059314207
142	0x3d2bb91f	0.041924592
143	0x3d82c9dc	0.06386158
144	0xbd9b9ced	-0.075982906
145	0xbd02ba51	-0.031915966
146	0xbd66f8e4	-0.056389704
147	0xbe4bb742	-0.19894126
148	0xbc8d5be9	-0.01725574
149	0xbdf8d532	-0.12150039
150	0xbe622a7b	-0.22086518
151	0xbd057417	-0.032581415
152	0x3d211ed7	0.03933605
153	0x3e386d8d	0.1801054
154	0x3d14e366	0.036349677
155	0x3e522c3b	0.20524685
156	0xbe590b70	-0.2119577
157	0xbc1fdd92	-0.009757416
158	0xbe9fe652	-0.31230408
159	0xbd5dcbea	-0.054149546
160	0x3d1eec07	0.038799312
161	0x3e63a4ad	0.22230788
162	0x3e355c42	0.17710975
163	0x3d1ecedf	0.038771506
164	0x3daac440	0.08338213
165	0x3f7cd0c5	0.9875606
166	0x3bc9ec6b	0.0061622164
167	0x3f390d29	0.72285706
168	0xbd2c66d9	-0.04209027
169	0xbd034e1a	-0.032056905
170	0xbd983d92	-0.074336186
171	0xbe0e07da	-0.13870183
172	0xbd126c49	-0.0357478
173	0xbd0d6f12	-0.034529753
174	0xbdbd28a4	-0.09236267
175	0x3d0c8e23	0.03431524
176	0x3befed4d	0.0073219896
177	0xbdb563aa	-0.088569
178	0x3d0a43e3	0.033756148
179	0xbd400c3b	-0.046886664
180	0x3d87d44c	0.06632289
181	0x3dd44cc2	0.10366203
182	0xbd61e27b	-0.05514763
183	0xbce778c9	-0.028255837
184	0xbd076213	-0.033052515
185	0xbd3c1aa0	-0.04592383
186	0x3d5dd233	0.05415554
187	0x3d0a5187	0.033769157
188	0xbcda56b2	-0.026652668
189	0xbdd2e05d	-0.102967
190	0x3d070dea	0.032972254
191	0x3e0336f5	0.12813933

rnn.weight_hh_l0 f4 [64, 64]
0	0x3d35879b	0.044318777
1	0xbf1496a6	-0.5804237
2	0xbf0467ec	-0.5172107
3	0x3ebda982	0.37043387
4	0xbe47062e	-0.19435951
5	0x3c80c80d	0.015720392
6	0x3f0d5ba4	0.5521796
7	0x3f0e939e	0.55693996
8	0xbee49e6d	-0.4465212
9	0xbe68bd4b	-0.2272846
10	0xbf22c0f2	-0.6357566
11	0x3f24a42f	0.64313024
12	0x3e34c0c3	0.17651658
13	0x3f2ad49f	0.66730684
14	0xbea16fdf	-0.31530663
15	0x3f05319f	0.5202884
16	0x3efd311e	0.49451536
17	0xbe9005dc	-0.2812947
18	0x3f2fb270	0.6863165
19	0xbee608d8	-0.44928622
20	0xbe1bc93c	-0.15213484
21	0x3ecadfa2	0.39623743
22	0x3e96d880	0.2946205
23	0x3ea50772	0.32232243
24	0x3a8e1f13	0.0010843001
25	0x3e9995d0	0.2999711
26	0xbe89b6a1	-0.26897147
27	0xbee14d33	-0.4400421
28	0xbeaa21bc	-0.33228862
29	0xbef3e52b	-0.4763578
30	0xbdc6b2f3	-0.097021006
31	0xbe6871d2	-0.22699669
32	0x3e4d73f5	0.20063765
33	0xbeca08bc	-0.3945979
34	0x3e910652	0.28325135
35	0xbe6dc2e4	-0.23218876
36	0xbf04c05d	-0.51856023
37	0xbed23018	-0.41052318
38	0x3ec9a9e3	0.39387426
39	0xbeb02412	-0.3440252
40	0x3ed523fb	0.41629013
41	0xbf3c0488	-0.73444414
42	0x3e4bb72a	0.1989409
43	0x3e4f0394	0.20216209
44	0xbe617a34	-0.22019273
45	0x3ee3ea5b	0.44514737
46	0xbea1a11a	-0.31568223
47	0x3e704792	0.23464802
48	0xbdbcb925	-0.09215001
49	0x3f0c7b6d	0.5487583
50	0x3e00554a	0.12532535
51	0xbef4c5d4	-0.4780718
52	0x3f24d9cb	0.64394826
53	0x3e39e554	0.18153888
54	0x3eacba2e	0.33735794
55	0xbf86d986	-1.0535133
56	0xbeaafd88	-0.33396554
57	0x3ed6af2c	0.4193052
58	0x3f232173	0.63722914
59	0x3e83beee	0.25731605
60	0xbee6d73c	-0.45086086
61	0x3e812155	0.25220743
62	0xbe9f6208	-0.3112948
63	0x3f00bcc7	0.5028805
64	0x3d226a23	0.039652
65	0xbe27c583	-0.16383938
66	0x3e145d51	0.14488722
67	0xbdb30478	-0.08741087
68	0x3c9b567f	0.018962143
69	0x3e66850b	0.2251169
70	0x3d8fb2f9	0.07016558
71	0x3e265bb7	0.16245924
72	0x3d1ce4c9	0.038304124
73	0x3dd9a273	0.10626688
74	0x3e6b8d27	0.23003064
75	0x3da574a0	0.08078885
76	0xbd9e693f	-0.07734918
77	0x3d3d4327	0.04620662
78	0x3d890d38	0.066919744
79	0x3cf1b339	0.029504405
80	0x3cc4048e	0.023927953
81	0x3e86652a	0.26249057
82	0xbdccb052	-0.09994568
83	0x3da42cf3	0.08016386
84	0x3e39383c	0.18087858
85	0xbda5a6f4	-0.080884844
86	0x3e00334f	0.12519573
87	0xbdaea8f2	-0.085283175
88	0xbe08a6a3	-0.13344817
89	0xbdec9fc8	-0.11553913
90	0xbce1b0dc	-0.027550153
91	0xbd2c4eb9	-0.042067263
92	0x3df02f06	0.11727719
93	0x3e11b847	0.14230452
94	0x3e6e2b35	0.2325867
95	0x3cb1a4f4	0.021685101
96	0x3d1021a8	0.035188347
97	0x3df52567	0.119700246
98	0xbdc5f472	-0.09665765
99	0xbe840da5	-0.2579166
100	0x3df43271	0.119236834
101	0x3e75fee3	0.24023013
102	0xbe40c90b	-0.18826692
103	0x3d532831	0.051552
104	0x3cf2dd81	0.029646637
105	0xbe012796	-0.12612757
106	0xba8cdd18	-0.0010747043
107	0xbdb1b8ff	-0.08677863
108	0x3daefce7	0.08544331
109	0xbde4bc0f	-0.11168682
110	0xbcd769f3	-0.026295638
111	0x3d142755	0.036170322
112	0xbd35e006	-0.0444031
113	0x3ddba445	0.10724691
114	0xbce08921	-0.027409138
115	0xbda28b14	-0.07936683
116	0x3e6d4311	0.23170115
117	0xbe15cdd0	-0.14629292
118	0x3c8ab29d	0.016930873
119	0x3d60750a	0.054799117
120	0xbb83b241	-0.0040190523
121	0xbd8c54f4	-0.06852141
122	0xbb46e994	-0.0030351626
123	0xbc860854	-0.016361393
124	0xbda22854	-0.07917848
125	0xbdd0c032	-0.10192908
126	0xbd350ec9	-0.044203553
127	0xbd998951	-0.07496894
128	0x3ba22bf3	0.004949087
129	0xbcb97c76	-0.022642355
130	0x3e117aa9	0.14206947
131	0xbd9da396	-0.07697217
132	0x3d9ba8aa	0.076005295
133	0xbd8d051e	-0.06885742
134	0x3dd17f22	0.10229327
135	0x3ddc9dbf	0.10772275
136	0x3e556e5b	0.20842879
137	0xbda4f41f	-0.08054375
138	0x3d22c895	0.03974207
139	0xbd65c3be	-0.056094877
140	0xbd30cd5c	-0.043164596
141	0xbbc7f5d3	-0.0061023026
142	0x3e01b3d9	0.12666263
143	0xbdd3363d	-0.103130795
144	0x3dbbc2be	0.091680035
145	0x3a90e3ee	0.0011054256
146	0x3da080d1	0.0783707
147	0x3cf2228a	0.029557485
148	0xbda96980	-0.08272076
149	0xbdeee34b	-0.116644464
150	0xbd084da3	-0.033277165
151	0x3cb8256b	0.02247878
152	0xbde5a888	-0.112137854
153	0xbcb8fcf0	-0.022581547
154	0x3d9eedbd	0.07760189
155	0x3e918a84	0.28425992
156	0x3ca3d6bc	0.019999854
157	0x3cf5af74	0.02999089
158	0x3e3130e0	0.173038
159	0x3de7cd0e	0.11318408
160	0xbdb796e1	-0.08964325
161	0x3e26c1eb	0.16284911
162	0x3d85e1c6	0.065372035
163	0xbdc22a6a	-0.09480746
164	0x3dbbe01b	0.09173604
165	0x3c944bc5	0.018102536
166	0xbded7b1c	-0.11595747
167	0x3e36c8ec	0.17850083
168	0x3cc2c5fd	0.023776049
169	0x3d01ef84	0.03172256
170	0xbd564242	-0.052309282
171	0x3de0b0c7	0.109712176
172	0xbc597628	-0.0132728
173	0xbe8d6f6a	-0.27624065
174	0x3e3a8631	0.18215252
175	0x3d181c0e	0.03713613
176	0xbda64064	-0.0811775
177	0xbcd25ebd	-0.02567994
178	0xbda6c910	-0.081438184
179	0x3d00d9f7	0.031457867
180	0x3d8a9775	0.067671694
181	0xbe44f1d3	-0.19232874
182	0xbe705be7	-0.23472558
183	0x3c214059	0.009842002
184	0x3e92aa6c	0.28645647
185	0xbc8bd9d8	-0.01707165
186	0x3d93a61c	0.07209417
187	0xbd2c4d79	-0.04206607
188	0x3cbc7d4f	0.02300897
189	0xbe17e3fa	-0.1483306
190	0x3dd24f2e	0.102690086
191	0x3dcab466	0.098976895
192	0xbd906477	-0.07050412
193	0xbd80cc16	-0.06288926
194	0xbdc8fc18	-0.09813708
195	0xbbb7eae5	-0.0056127184
196	0xbd144298	-0.03619632
197	0x3e487276	0.19574913
198	0x3da07648	0.0783506
199	0x3dc54829	0.09632904
200	0x3ba899b5	0.0051452764
201	0x3e1915c6	0.14949712
202	0xbe05f91a	-0.13083306
203	0xbda6f6a3	-0.08152511
204	0x3e66d767	0.22543107
205	0xbe0834cf	-0.13301395
206	0xbd23cdfb	-0.03999136
207	0x3dc1561a	0.09440251
208	0x3d6af4c4	0.057362333
209	0xbe406dfa	-0.18791953
210	0x3d13043a	0.035892703
211	0x3e2f4f86	0.1712018
212	0x3e296fe8	0.16546595
213	0xbd5c7666	-0.05382385
214	0xbd96e586	-0.07367997
215	0x3dad722c	0.08469042
216	0xbe37a957	-0.17935692
217	0x3db8940d	0.090126134
218	0x3e4555fa	0.19271079
219	0xbd582c66	-0.052776717
220	0xbe79fdf9	-0.24413289
221	0x3db23de0	0.08703208
222	0xbe15aa04	-0.14615637
223	0xbdf9b679	-0.12193007
224	0xbdb20330	-0.08692014
225	0xbd1a30d3	-0.03764422
226	0xbdbc2fce	-0.091888055
227	0xbcea8a81	-0.028630497
228	0xbe0fcd6a	-0.14043203
229	0xbdca92de	-0.09891294
230	0x3d2f81c7	0.042848375
231	0x3dd998fa	0.10624881
232	0xbde6b8b4	-0.11265698
233	0xbc4ce8a9	-0.012506642
234	0xbd9841b3	-0.07434406
235	0xb9dbb621	-0.00041906632
236	0x3ddd1bd4	0.107963234
237	0xbdf7685c	-0.12080452
238	0x3c9b3f42	0.018951062
239	0x3dda2dec	0.1065329
240	0x3d22faec	0.03979008
241	0xb979bcce	-0.00023816826
242	0xbc4a0975	-0.012331356
243	0x3d37ab5c	0.044841155
244	0xbe27bae3	-0.16379885
245	0xbca64d70	-0.020300597
246	0x3e0b2122	0.13586858
247	0x3da5a1b3	0.08087482
248	0xbda8dc3d	-0.08245132
249	0x3d9062b9	0.0705008
250	0x3cfb5c78	0.030683741
251	0x3d3bf1a8	0.04588476
252	0x3d894e18	0.06704348
253	0x3c345460	0.011006445
254	0xbe03637b	-0.12830918
255	0xbdd8f13c	-0.10592887

rnn.bias_ih_l0 f4 [64]
0	0xbedf4a6e	-0.43611473
1	0x3deb9636	0.1150326
2	0x3d9236fa	0.07139392
3	0xbce313da	-0.027719427
4	0xbe4c85ef	-0.19972967
5	0xbe1eb0d3	-0.1549714
6	0xbe77862b	-0.24172275
7	0xbd19e3b9	-0.03757069
8	0xbe26f56c	-0.16304559
9	0xbef9b7ed	-0.48773137
10	0x3dff3226	0.12460737
11	0x3dbad14a	0.0912195
12	0x3e1bcf5b	0.15215819
13	0xbe088bb5	-0.13334544
14	0x3d993abb	0.07481905
15	0xbd392496	-0.045200907
16	0xbee20085	-0.4414102
17	0xbdd75d46	-0.10515837
18	0x3a71d66d	0.00092253723
19	0xbdfbbeeb	-0.12292274
20	0xbbee3791	-0.0072698076
21	0xbf04f900	-0.51942444
22	0xbe331fca	-0.17492595
23	0xbccb1b65	-0.024793336
24	0x3e4fbdab	0.20287196
25	0x3e3913b0	0.18073916
26	0x3e68c030	0.22729564
27	0xbe1eb032	-0.154969
28	0xbe1ae6e2	-0.15127137
29	0xbc97fb98	-0.018552586
30	0xbe2c4f34	-0.16827089
31	0x3d96c58f	0.073619
32	0xbd5ffc1b	-0.054683786
33	0x3c9a5b84	0.018842466
34	0x3d80046a	0.06250842
35	0xbd172462	-0.03689993
36	0xbdac0dda	-0.084010795
37	0x3e2e65bc	0.17030996
38	0x3dbcb3ed	0.092140056
39	0x3e049bc1	0.1295004
40	0x3e1b7297	0.15180431
41	0xbea20472	-0.31644017
42	0x3e3fc59e	0.18727729
43	0x3d63c3fb	0.055606823
44	0x3d150a95	0.036387045
45	0xbd03bacd	-0.03216057
46	0x3b28c0e7	0.0025749744
47	0x3e49913d	0.1968431
48	0xbd6623ba	-0.056186415
49	0xbe435893	-0.19076757
50	0xbc6a0cef	-0.01428531
51	0x3d7fb264	0.062425986
52	0xbf098024	-0.5371115
53	0x3ea051ca	0.313124
54	0x3e4b2e0c	0.19841784
55	0x3f8cec32	1.1009581
56	0xbc834a15	-0.016026536
57	0xbcc5191e	-0.024059828
58	0xbd224856	-0.039619766
59	0x3d435edb	0.047697883
60	0x3e0780b5	0.13232692
61	0xbe53eb8b	-0.20695321
62	0xbcaf634c	-0.021409653
63	0x3d80a3a2	0.062812105

rnn.bias_hh_l0 f4 [64]
0	0xbef136db	-0.47112164
1	0x3d988320	0.07446885
2	0x3dabefd4	0.08395353
3	0x3ddd4e23	0.10805919
4	0xbe95f027	-0.29284784
5	0xbdc13cb5	-0.09435407
6	0xbd8a8714	-0.06764045
7	0xbdb64971	-0.089007266
8	0xbd4958c4	-0.04915692
9	0xbf0fef81	-0.5622483
10	0xbb94f5b9	-0.004545894
11	0x3dff3c08	0.12462622
12	0x3ccb1c5d	0.024793798
13	0xbe218422	-0.15773061
14	0xbd00fdca	-0.031492032
15	0xbcdbb431	-0.02681932
16	0xbed2aa81	-0.4114571
17	0xbdf826fb	-0.1211681
18	0xbce00756	-0.027347248
19	0x3d48fce3	0.049069297
20	0xbe229cdc	-0.1588015
21	0xbf02b11b	-0.5105149
22	0xbe196a83	-0.14982037
23	0x3e0082f6	0.12549958
24	0x3e61eaec	0.22062272
25	0xbc729da5	-0.014808093
26	0x3e524451	0.20533873
27	0xbda30b49	-0.07961137
28	0xbdbbc989	-0.09169299
29	0x3df492ac	0.11942038
30	0xbd2c9d31	-0.042142097
31	0x3d25091b	0.040291887
32	0x3d0d7159	0.034531925
33	0x3c923d02	0.017851356
34	0x3e3b43d1	0.18287589
35	0x3df85d58	0.12127179
36	0xbe146c44	-0.14494425
37	0x3d95ef7a	0.07321067
38	0xbc55e663	-0.013055417
39	0x3e8d19c1	0.2755871
40	0xbd415637	-0.04720136
41	0xbec8e52e	-0.3923735
42	0xbc9c3414	-0.019067802
43	0xbcdc8740	-0.026919961
44	0xbba221cd	-0.004947877
45	0xbdb8f133	-0.0903038
46	0x3ceb2d2c	0.028708063
47	0x3e1ded1f	0.15422486
48	0x3ccd4aa1	0.02506
49	0xbe093cf3	-0.13402157
50	0xbd859a80	-0.06523609
51	0x3dbb78cc	0.091538996
52	0xbf0ad56e	-0.5423192
53	0x3ddf25e5	0.108959
54	0x3dc41864	0.09574965
55	0x3f985e9b	1.1903871
56	0x3c562a17	0.013071558
57	0x3d0d07e6	0.03443136
58	0x3db78c37	0.08962291
59	0x3c5fadec	0.013652306
60	0x3d2a41d2	0.041566677
61	0xbe41eb78	-0.1893748
62	0x3e11be1d	0.14232679
63	0x3d37d481	0.044880394

fc.weight f4 [2, 64]
0	0x3eb85a8a	0.36006576
1	0x3e809083	0.25110254
2	0x3e333aa9	0.17502846
3	0x3def08da	0.1167161
4	0x3e814246	0.25245875
5	0x3d6659a0	0.056237817
6	0xbe8c8390	-0.27444124
7	0xbdc66e1f	-0.09688973
8	0xbd92a29d	-0.07159922
9	0x4061b87f	3.5268857
10	0x3e70bd08	0.2350961
11	0xbdae9b7d	-0.08525751
12	0x3dc57d91	0.096430905
13	0xbf0f898f	-0.5606927
14	0xbdd84065	-0.10559157
15	0xbe1bc328	-0.15211165
16	0x3e33a06b	0.17541663
17	0xbdfed407	-0.12442785
18	0xbf01f3ce	-0.5076264
19	0x3e57da6e	0.21079418
20	0x3dd1d3c7	0.102454714
21	0x3e82320a	0.25428802
22	0x3d89e096	0.067322895
23	0xbf23ee7b	-0.6403577
24	0xbc36a7c0	-0.011148393
25	0xbeae24f6	-0.34012574
26	0xbca9a1c1	-0.020707013
27	0x3def540a	0.11685951
28	0xbe34b999	-0.17648925
29	0x3f09383b	0.53601426
30	0xbdee83a9	-0.11646206
31	0x3dc62948	0.096758425
32	0x3dfec93c	0.12440726
33	0x3e1e4c27	0.15458737
34	0x3bf9e2bb	0.0076259053
35	0x3d03327a	0.03203056
36	0xbca3f39d	-0.020013625
37	0xbc6b5c7a	-0.01436531
38	0x3e2d2936	0.16910252
39	0xbd661f4b	-0.056182187
40	0xbf0cf7c7	-0.5506558
41	0x3ee2edcb	0.44322047
42	0x3cb0066c	0.021487437
43	0xbf23f22c	-0.640414
44	0x3f0aafa9	0.54174286
45	0x3e46a0e1	0.19397308
46	0xbde153c9	-0.11002309
47	0x3e559429	0.208573
48	0xbdbbcac7	-0.09169536
49	0xbc1f1716	-0.009710094
50	0x3d9f57b3	0.07780399
51	0xbdb0a430	-0.08625066
52	0x3e78ab2d	0.24284048
53	0xbdb8e185	-0.090273894
54	0x3e7be21b	0.24597971
55	0xc0137fbb	-2.304671
56	0x3d92f5b8	0.071757734
57	0x3e4c08f3	0.19925289
58	0xbef8f3d4	-0.48623526
59	0xbdf4053e	-0.11915062
60	0x3f25a372	0.6470252
61	0x3d2e1682	0.042501934
62	0xbe1c363a	-0.15255061
63	0xbdbfc386	-0.09363465
64	0xbef37604	-0.47550976
65	0xbed81ef1	-0.42211106
66	0xbe07a3a1	-0.13246013
67	0xbd179515	-0.03700741
68	0xbe110e38	-0.1416558
69	0xbdc6a02e	-0.096985206
70	0x3e5622e7	0.20911752
71	0x3d979b49	0.07402665
72	0x3dbb795f	0.09154009
73	0xc06c10df	-3.6885297
74	0xbe723e27	-0.23656522
75	0x3e6ecf51	0.23321272
76	0x3d92d626	0.07169752
77	0x3f22ce76	0.63596284
78	0x3e2c3e95	0.16820748
79	0x3e1b598b	0.15170877
80	0xbe26b677	-0.16280542
81	0x3dbec4b8	0.09314865
82	0x3ee6d7d4	0.4508654
83	0xbdfbfcd6	-0.12304084
84	0xbce123fa	-0.027482975
85	0xbe1b05fe	-0.15139005
86	0xbe21bdf6	-0.1579512
87	0x3f16de0a	0.58932555
88	0xbb573c4a	-0.0032842332
89	0x3eda502b	0.42639288
90	0x3dedc6b4	0.11610165
91	0xbdc1001c	-0.09423849
92	0x3e198b0c	0.14994448
93	0xbf0e0e55	-0.5549062
94	0x3d5c193c	0.053735003
95	0x3dabe0ab	0.083924614
96	0x3d3ac7e0	0.045600772
97	0x3d7aac3c	0.06119941
98	0xbe276fbd	-0.16351219
99	0x3d654c3b	0.055980902
100	0x3db1c1c2	0.086795345
101	0x3c9b3988	0.018948331
102	0xbd440e0f	-0.04786497
103	0x3d8a47d6	0.06751983
104	0x3f24505e	0.6418513
105	0xbef13dc7	-0.47117445
106	0x3d3cc1ee	0.046083383
107	0x3f1bffbc	0.60937095
108	0xbf105c82	-0.56391156
109	0xbdd61570	-0.10453308
110	0x3d448e88	0.04798749
111	0xbe8275c1	-0.25480464
112	0x3e8f6883	0.28009424
113	0x3e00da4b	0.12583272
114	0xbc86483e	-0.01639187
115	0x3cd4df64	0.025985427
116	0xbe04614b	-0.1292774
117	0x3d7cddb8	0.061734885
118	0xbe1f5d6d	-0.15562983
119	0x401fe8f3	2.498593
120	0xbd7dd898	-0.061974138
121	0xbdb885c8	-0.09009892
122	0x3f06a76a	0.52599204
123	0x3e3f7f04	0.18700796
124	0xbf0ffa21	-0.5624104
125	0xbc11fe30	-0.008910701
126	0x3d651168	0.055924803
127	0x3e30a14c	0.1724903

fc.bias f4 [2]
0	0x3f2e06d8	0.6797919
1	0xbf0b5e64	-0.54440904
