detector/models/64_1_32_5_32_0.001_covert_detector_2.pth (torch, 21617 bytes, 6 tensors)

rnn.weight_ih_l0 f4 [64, 3]
-0.03705375 -0.015841093 -0.08459457 -0.01075652 0.017590929 -0.01453677 0.0062710727 -0.11105875
-0.15664437 0.033995625 0.0219552 -0.019280992 0.020371804 0.015282215 0.11271912 -0.13728301
-0.18021159 -0.1548899 -0.1371354 -0.16845596 0.031799555 0.5353659 -0.021383602 0.34532836
0.120744534 0.028010398 0.089488074 0.01715894 0.0059545613 0.017729348 -0.20787507 -0.008496815
-0.34489155 0.011051412 -0.022243895 0.09280648 -0.018052561 0.06268297 0.057074018 0.040150736
0.011777325 0.21915674 0.11711897 0.021168876 0.118236825 -0.07206113 -0.017039653 -0.14875115
-0.07741298 -0.18744072 -0.0945178 -0.18062285 -0.0170581 -0.14217065 0.16780888 0.007459823
-0.030558677 0.054949023 0.012669636 0.1603365 -0.059799775 -0.15807879 -0.041065842 0.21622522
0.014456752 0.16383232 -0.047609728 0.032596167 0.111239985 -0.19556218 -0.011524717 0.03386481
-0.013170722 -0.009596037 0.04170879 -0.20585544 -0.20247638 -0.101813965 0.08004329 0.015990088
0.21175544 0.095999524 0.012424022 -0.027731992 0.07283501 0.015345444 0.0633867 0.048016064
0.00601113 -0.051704627 -0.23728524 -0.004652836 -0.14637 0.08086304 0.022909433 0.19568807
0.17799115 0.01744119 0.20417555 -0.062149517 -0.06952713 0.0032278192 0.06966702 0.14224988
0.007901256 0.11536537 -0.01995943 -0.0002155171 0.024474053 0.01729516 -0.03558442 -0.01016481
-0.1353789 -0.110450946 -0.077457555 0.017303783 -0.02251429 -0.4530045 0.0030189704 -0.28514236
0.14065441 0.0101829395 0.20263258 0.17410764 0.01206208 0.44130534 -0.08151834 -0.009922474
-0.105603024 0.007325594 -0.007727629 -0.08467416 -0.0030065165 0.011128223 -0.020673534 0.14424847
0.10964973 -0.024091879 0.03382656 0.018918054 -0.031556554 0.15664719 -0.029726861 -0.06985432
0.15106821 0.006368406 0.22224793 0.035955682 0.14565821 0.18684107 0.119685054 0.0036297166
0.1323799 -0.09237772 -0.020237776 -0.03318239 0.15738636 0.011253612 0.14731002 0.063426904
-0.036645863 0.01186841 -0.08088723 -0.10133781 -0.059571408 -0.05542382 -0.0054513915 -0.013545575
0.13990879 0.081514746 0.16049418 0.07732326 0.020916827 0.1303115 -0.40300438 -0.0019345786
-0.2505508 0.00807874 -0.13905568 -0.18839002 0.049976926 -0.019109286 -0.114433646 0.033926815
0.0068548787 0.11774564 0.08162549 0.022447541 0.02437264 -0.5146447 0.0038148174 -0.5694882
00000000: acc5 17bd 2ec5 81bc eb3f adbd 1d3c 30bc
00000010: da1a 903c a22b 6ebc 927d cd3b c572 e3bd
00000020: 6267 20be ff3e 0b3d 64db b33c 2cf3 9dbc
00000030: c5e2 a63c 4162 7a3c 48d9 e63d eb93 0cbe
00000040: 6389 38be 759b 1ebe 396d 0cbe b87f 2cbe
00000050: 4040 023d bd0d 093f aa2c afbc e1ce b03e
00000060: e948 f73d 1076 e53c 8645 b73d e890 8c3c
00000070: 7b1e c33b 233d 913c 34dd 54be 3a36 0bbc
00000080: a095 b0be fb10 353c d438 b6bc 5311 be3d
00000090: f7e2 93bc ee5f 803d 72c6 693d 1975 243d
000000a0: aef5 403c a06a 603e 12dc ef3d 5a6a ad3c
000000b0: 2626 f23d c994 93bd be96 8bbc 3952 18be
000000c0: b28a 9ebd 76f0 3fbe 8c92 c1bd 32f5 38be
000000d0: 6ebd 8bbc 2f95 11be 17d6 2b3e 8871 f43b
000000e0: 3156 fabc 3a12 613d 4e94 4f3c 402f 243e
000000f0: 9cf0 74bd 68df 21be a834 28bd 256a 5d3e
00000100: 03dc 6c3c a9c3 273e 6b02 43bd 8f83 053d
00000110: cad1 e33d 7441 48be 2bd2 3cbc d4b5 0a3d
00000120: 03ca 57bc b238 1dbc d6d6 2a3d c5cb 52be
00000130: f855 4fbe d783 d0bd bded a33d a5fd 823c
00000140: 6bd6 583e 669b c43d 208e 4b3c 342e e3bc
00000150: 862a 953d 756b 7b3c e3d0 813d 7eac 443d
00000160: 03f9 c43b 3bc8 53bd e7fa 72be d176 98bb
00000170: 04e2 15be 869b a53d 90ac bb3c 7462 483e
00000180: 5043 363e d4e0 8e3c 6513 513e 7e90 7ebd
00000190: 3d64 8ebd d289 533b 95ad 8e3d f4a9 113e
000001a0: 4574 013c ae44 ec3d f581 a3bc 6efc 61b9
000001b0: cf7d c83c 94ae 8d3c f8c0 11bd 4e8a 26bc
000001c0: c4a0 0abe 1b34 e2bd 11a2 9ebd aac0 8d3c
000001d0: e36f b8bc 35f0 e7be ebd9 453b 2efe 91be
000001e0: b607 103e 58d6 263c ea7e 4f3e 4649 323e
000001f0: 08a0 453c c6f2 e13e 16f3 a6bd df91 22bc
00000200: 6646 d8bd 890b f03b 0d38 fdbb a569 adbd
00000210: fa08 45bb 2653 363c 8b5b a9bc dfb5 133e
00000220: 0a90 e03d 555c c5bc b88d 0a3d 09fa 9a3c
00000230: 7241 01bd 1f68 203e bf85 f3bc c80f 8fbd
00000240: a0b1 1a3e 10ae d03b f694 633e 4446 133d
00000250: 6d27 153e 4453 3f3e 701d f53d 8ae0 6d3b
00000260: 998e 073e 8830 bdbd b1c9 a5bc 42ea 07bd
00000270: e429 213e 1261 383c 70d8 163e f7e5 813d
00000280: f919 16bd b873 423c 34a8 a5bd 338a cfbd
00000290: 2601 74bd 1604 63bd 96a1 b2bb 42ee 5dbc
000002a0: 4044 0f3e 34f1 a63d 9658 243e a85b 9e3d
000002b0: c459 ab3c 6170 053e 9756 cebe b091 fdba
000002c0: 3248 80be b15c 043c 9d64 0ebe 50e9 40be
000002d0: 9bb4 4c3d 148b 9cbc 305c eabd d8f6 0a3d
000002e0: e49e e03b a024 f13d 442b a73d e8e3 b73c
000002f0: 21a9 c73c c1bf 03bf 0402 7a3b fbc9 11bf

rnn.weight_hh_l0 f4 [64, 64]
-0.17934677 -0.10279975 0.08820233 0.0013293393 -0.13694003 0.026466524 0.026366547 -0.19489478
-0.042738177 -0.026130708 -0.064763054 -0.070361905 -0.20820259 0.028762408 0.1676043 -0.034388818
0.25843075 0.08215842 0.1733999 -0.04431464 0.051275793 0.08515332 0.010003976 -0.06081246
0.023586843 0.19954701 -0.12574078 0.23608325 -0.16782205 0.059351098 -0.02322968 0.012299004
0.030646516 0.065365456 -0.041700598 0.017574389 -0.009731666 0.030309796 0.037734427 -0.13659595
-0.092514776 0.09764511 -0.012469762 0.02641288 -0.0574966 -0.017982222 0.114696555 -0.03979674
-0.03615143 -0.034210593 0.09788909 -0.10063702 -0.204199 -0.090186544 0.15462507 0.08674342
-0.0046706777 0.09813555 -0.047310397 0.25894287 -0.087718874 0.004632959 0.18919052 0.09141098
0.034207683 -0.046430327 0.017834876 -0.081835575 0.08917705 -0.019174358 -0.19076441 0.14888538
-0.16320734 -0.13074827 0.1215521 0.007990433 0.08520732 -0.12712584 -0.1687827 -0.009255163
-0.1903935 -0.053797737 0.047007386 0.06319459 -0.18399733 0.017125763 0.0023970306 0.07440603
-0.03152382 -0.034313023 -0.007037253 0.03122696 0.014108728 0.015690804 0.06616826 -0.09855042
-0.17974956 -0.13989016 0.082987934 0.09334754 -0.021968346 -0.080675684 -0.01703357 0.07471532
0.10939305 -0.13482383 0.054721255 0.1110005 0.045890097 0.2197417 0.06594743 0.0666364
0.16626215 -0.01949255 0.040878363 -0.01564966 0.13315827 0.13884765 -0.10581989 -0.075127736
0.17093274 -0.07950029 -0.04481317 -0.06086975 -0.052807953 0.02711931 0.03388473 0.061918344
0.021013988 -0.1144313 0.04762607 0.09344955 -0.011953874 0.11788791 -0.01732087 -0.12188409
-0.10496476 0.067620866 -0.04458823 0.0927102 -0.10770063 -0.15891732 0.08522226 0.108000435
0.15854126 0.13311355 -0.061251044 -0.17668423 0.12535717 0.08859162 0.08040965 0.08409648
-0.08221648 0.20559165 0.04374812 0.10183523 -0.08835117 -0.08000559 -0.029617177 -0.06634619
-0.11776773 0.1408363 -0.09651441 0.14166476 0.032876574 0.11684953 0.00671924 -0.037807293
-0.019517463 -0.013647939 -0.101985715 0.069050334 0.12209787 0.013854284 -0.11527747 0.05883713
0.035711657 -0.034202848 -0.12105429 0.08896322 -0.005044609 -0.04401506 0.21715942 0.046242017
-0.19732171 0.03380729 0.06039694 0.0389413 -0.09928106 0.010612842 0.045915492 0.054361865
0.0047515 0.14136507 -0.088877104 -0.02966841 0.079071485 0.024080047 -0.18380743 0.13735923
-0.16324298 0.21582906 -0.17292115 -0.108936995 0.07323033 0.02130713 0.22957072 -0.041847393
-0.00087881804 -0.05547554 -0.16018051 0.003962091 -0.073672906 0.053079236 -0.1668798 -0.1492587
0.1310003 -0.10739139 0.14819574 0.14037023 -0.0671306 0.030765537 -0.10176456 0.2165285
0.020857288 -0.2711102 0.07582696 -0.20278117 0.18817358 -0.12672909 0.17716269 0.07930229
-0.10566568 -0.025336515 -0.12751472 -0.038449854 0.09057604 0.12868588 -0.019622259 0.04830896
0.12939404 -0.019596118 -0.10082071 -0.2481762 -0.064274274 0.033276808 -0.07239817 0.055423714
-0.026852848 0.020148246 0.06499728 -0.023838367 0.08627369 -0.11299285 0.00967372 -0.09615935
00000000: aea6 37be ad88 d2bd 6ca3 b43d 3a3d ae3a
00000010: 023a 0cbe 53d0 d83c a8fe d73c 7f92 47be
00000020: 3a0e 2fbd 1110 d6bc 7ea2 84bd e719 90bd
00000030: 0f33 55be 249f eb3c 76a0 2b3e 4adb 0cbd
00000040: 0951 843e ac42 a83d be8f 313e 4583 35bd
00000050: 9106 523d dd64 ae3d b7e7 233c 7c16 79bd
00000060: 3239 c13c 0d56 4c3e 31c2 00be cfbf 713e
00000070: 8bd9 2bbe 231a 733d 2b4c bebc c381 493c
00000080: 670e fb3c 53de 853d 3fce 2abd 2af8 8f3c
00000090: 9171 1fbc 404c f83c 6a8f 1a3d cfdf 0bbe
000000a0: 6378 bdbd 29fa c73d f94d 4cbc d35f d83c
000000b0: 8e81 6bbd 744f 93bc 07e6 ea3d e801 23bd
000000c0: 8613 14bd 6820 0cbd 137a c83d c81a cebd
000000d0: 8b19 51be b9b3 b8bd 0956 1e3e 89a6 b13d
000000e0: 7c0c 99bb 4bfb c83d 8cc8 41bd 2994 843e
000000f0: f4a5 b3bd 14d0 973b 29bb 413e ae35 bb3d
00000100: 5b1d 0c3d ba2d 3ebd 721a 923c 6999 a7bd
00000110: 75a2 b63d 8b13 9dbc bf57 43be 6975 183e
00000120: d31f 27be e0e2 05be 4ff0 f83d 4eea 023c
00000130: 2d81 ae3d 472d 02be 5fd5 2cbe f8a2 17bc
00000140: 83f6 42be 045b 5cbd d18a 403d 2a6c 813d
00000150: cc69 3cbe 544b 8c3c 8017 1d3b 3062 983d
00000160: 1f1f 01bd d08b 0cbd c298 e6bb aecf ff3c
00000170: 4b28 673c 008a 803c 3a83 873d cdd4 c9bd
00000180: 4510 38be 5e3f 0fbe 94f5 a93d ff2c bf3d
00000190: f6f6 b3bc 4b39 a5bd fc89 8bbc 5804 993d
000001a0: 7709 e03d 420f 0abe 6523 603d 3b54 e33d
000001b0: 41f7 3b3d f803 613e 720f 873d aa78 883d
000001c0: a040 2a3e d7ae 9fbc 1270 273d b733 80bc
000001d0: a45a 083e 142e 0e3e 19b8 d8bd 92dc 99bd
000001e0: fe08 2f3e 0cd1 a2bd 048e 37bd 8f52 79bd
000001f0: 274d 58bd 5129 de3c b7ca 0a3d 179e 7d3d
00000200: 8725 ac3c f55a eabd 8e13 433d 7a62 bf3d
00000210: 2eda 43bc 376f f13d 7fe4 8dbc 5e9e f9bd
00000220: c4f7 d6bd cf7c 8a3d 26a2 36bd d8de bd3d
00000230: 2692 dcbd 39bb 22be 0289 ae3d 552f dd3d
00000240: a458 223e eb4e 083e 60e2 7abd b6ec 34be
00000250: a15d 003e 866f b53d d1ad a43d c63a ac3d
00000260: 1d61 a8bd 9e86 523e 3b31 333d fd8e d03d
00000270: 75f1 b4bd f9d9 a3bd b99f f2bc 83e0 87bd
00000280: 3530 f1bd 6437 103e 59a9 c5bd 9110 113e
00000290: 96a9 063d ce4e ef3d 122d dc3b d2db 1abd
000002a0: 16e3 9fbc 9b9b 5fbc e3dd d0bd 436a 8d3d
000002b0: 730e fa3d 14fd 623c 9816 ecbd 34ff 703d
000002c0: 6346 123d 4918 0cbd 50eb f7bd 5932 b63d
000002d0: 3f4d a5bb 2349 34bd 0a5f 5e3e 4568 3d3d
000002e0: b40e 4abe 8379 0a3d c862 773d ea80 1f3d
000002f0: de53 cbbd 7ce1 2d3c e211 3c3d 8caa 5e3d
00000300: 79b2 9b3b 01c2 103e 3305 b6bd 2a0b f3bc
00000310: 3bf0 a13d 8543 c53c 0438 3cbe e6a7 0c3e
00000320: 2b29 27be 4b02 5d3e 3e12 31be 5c1a dfbd
00000330: c9f9 953d 4a8c ae3c 9614 6b3e 2c68 2bbd
00000340: 7b60 66ba 523a 63bd 5c06 24be 6ed4 813b
00000350: d2e1 96bd 9d69 593d 8ae2 2abe 46d7 18be
00000360: f124 063e 04f0 dbbd a0c0 173e 37bd 0f3e
00000370: c57b 89bd 0208 fc3c f069 d0bd a6b9 5d3e
00000380: e7dc aa3c f5ce 8abe 2a4b 9b3d dea5 4fbe
00000390: 93b0 403e 45c5 01be 236a 353e 3d69 a23d
000003a0: 3f67 d8bd 868e cfbc 3893 02be 987d 1dbd
000003b0: ee7f b93d 3bc6 033e dcbe a0bc 9edf 453d
000003c0: df7f 043e 0a88 a0bc 177b cebd e721 7ebe
000003d0: 3ba2 83bd 434d 083d 7e45 94bd fa03 633d
000003e0: 81fa dbbc ef0d a53c 4b1d 853d ae48 c3bc
000003f0: 43b0 b03d cc68 e7bd 867e 1e3c 31ef c4bd

rnn.bias_ih_l0 f4 [64]
-0.25148043 0.18984298 -0.027971651 0.13217017 0.18455912 -0.10315033 0.035166107 0.6734566
-0.06988247 -0.011831781 -0.20404287 -0.0048322277 0.14046136 0.19796827 -0.02444774 -0.0638388
-0.1593968 -0.05147302 0.050025437 0.14980486 0.0054731965 0.01929671 -0.038346004 -0.013645628
0.10642312 -0.19831493 0.23819005 -0.09483276 0.15792146 -0.15764253 -0.3492875 0.19938217
0.07875271 -0.15926108 -0.026265822 -0.079690605 0.1436555 -0.09992287 0.029589897 -0.41494825
0.022278093 0.26362368 0.028699422 -0.052690398 0.0055202446 -0.014563783 0.19613509 0.07693979
0.17939791 -0.028388508 0.09851659 -0.14693926 0.038087245 0.0045475424 -0.023514459 -0.16947943
0.09676485 0.07051391 -0.28789634 -0.18696493 0.1110378 0.058737192 0.13504979 -0.79633534
00000000: 0bc2 80be 3366 423e ce24 e5bc 9e57 073e
00000010: 11fd 3c3e 7b40 d3bd 560a 103d a767 2c3f
00000020: 8a1e 8fbd 16da 41bc 9df0 50be aa57 9ebb
00000030: 1ad5 0f3e 32b8 4a3e a046 c8bc ebbd 82bd
00000040: ea38 23be 60d5 52bd 79e7 4c3d 7266 193e
00000050: 8058 b33b 2214 9e3c b310 1dbd e991 5fbc
00000060: 5df4 d93d 1213 4bbe 18e8 733e ae37 c2bd
00000070: 2ab6 213e 0b6d 21be d0d5 b2be d72a 4c3e
00000080: 1a49 a13d 5615 23be 6c2b d7bc d434 a3bd
00000090: 6d1a 133e 5da4 ccbd 8366 f23c 1974 d4be
000000a0: 8c80 b63c aff9 863e 0d1b eb3c e3d1 57bd
000000b0: 2be3 b43b ef9c 6ebc a3d7 483e 9c92 9d3d
000000c0: 16b4 373e 048f e8bc 11c3 c93d 3f77 16be
000000d0: 5f01 1c3d 8d03 953b 65a1 c0bc 048c 2dbe
000000e0: a62c c63d 9969 903d 2667 93be bc73 3fbe
000000f0: c967 e33d 6996 703d 7e4a 0a3e a2dc 4bbf

rnn.bias_hh_l0 f4 [64]
-0.15192935 0.06018165 -0.058499474 -0.021317575 0.039898593 0.02259434 -0.04961358 0.60827655
-0.12878756 0.06941874 -0.1931332 -0.03024851 -0.06294296 0.14010826 0.08017471 -0.17778783
-0.028072393 -0.06345586 -0.13046049 0.033294395 -0.053561278 0.21520956 -0.15492429 -0.0057722293
-0.057097215 -0.06147674 0.2251384 -0.13837476 0.18653537 -0.0463624 -0.17574339 0.17525803
0.052203044 0.017219193 0.1213653 -0.14934354 0.0339906 -0.16936547 0.09077282 -0.35334486
0.24977967 0.2874518 -0.10811076 -0.057073586 0.0061693885 0.15955178 0.06287195 0.03453803
0.14010984 0.096031904 -0.014544797 0.05019536 0.2075944 0.10681206 -0.119022496 -0.018637178
0.12426608 0.07331811 -0.32185593 -0.009218131 0.0049788863 0.085161164 0.18647611 -0.8747482
00000000: 5e93 1bbe 0981 763d 259d 6fbd 32a2 aebc
00000010: b56c 233d c417 b93c 9c37 4bbd 03b8 1b3f
00000020: e3e0 03be 6a2b 8e3d b6c4 45be b9cb f7bc
00000030: 3de8 80bd 8a78 0f3e a332 a43d 030e 36be
00000040: 13f8 e5bc 25f5 81bd 6f97 05be b45f 083d
00000050: 1263 5bbd e55f 5c3e 79a4 1ebe f824 bdbb
00000060: c5de 69bd 09cf 7bbd ae8a 663e 1db2 0dbe
00000070: 2103 3f3e 80e6 3dbd 13f6 33be d776 333e
00000080: dcd2 553d 440f 8d3c 5f8e f83d 83ed 18be
00000090: ba39 0b3d 246e 2dbe 1ae7 b93d 9ee9 b4be
000000a0: 3ec6 7f3e e22c 933e 2d69 ddbd fec5 69bd
000000b0: 9528 ca3b 8b61 233e 02c3 803d c077 0d3d
000000c0: f478 0f3e 60ac c43d 4d4d 6ebc a699 4d3d
000000d0: a093 543e 48c0 da3d 11c2 f3bd ffac 98bc
000000e0: 377f fe3d ce27 963d 4dca a4be a507 17bc
000000f0: ed25 a33b fa68 ae3d 98f3 3e3e 7fef 5fbf

fc.weight f4 [2, 64]
-0.04785724 0.026986495 -0.15330707 -0.11548415 -0.038135167 -0.02589781 -0.027654624 -1.4532144
-0.11543264 -0.014877922 0.123164214 -0.07101963 0.1645445 0.055186223 0.06738914 -0.025726348
-0.04448398 0.051866435 -0.06877691 0.077177025 -0.0385001 -0.3679653 -0.09716526 -0.05978035
0.06238049 -0.11392138 -0.059262525 -0.05279174 -0.04858917 -0.06284311 0.041275464 -0.06998384
-0.09068964 -0.11032286 0.046025313 -0.08245432 0.04609093 -0.12756158 0.04658283 1.4089913
0.019615484 -0.23616554 0.05419587 0.092080176 -0.059066653 0.03093509 0.0135335745 0.14532815
0.016230823 0.040098995 -0.1620932 -0.0374876 -0.040418427 0.040997453 -0.1201795 0.03016595
0.027048092 0.07101018 0.6980887 -0.07335584 0.083268456 0.014901985 0.0731737 2.4750588
-0.091799155 -0.02050211 0.061409798 0.017414846 0.061530817 0.021864949 0.1025847 1.518584
0.06289909 0.09152874 -0.17717253 -0.08178785 -0.09494022 0.07269718 0.13106243 -0.014059505
0.13020676 -0.01962248 0.060101487 -0.0160284 0.1434571 0.26995173 0.20788528 -0.13693725
0.05680734 0.04873474 -0.017650811 -0.055205192 0.027312156 0.011823008 -0.08866782 0.01491127
-0.0031900343 0.07739376 -0.09603639 -0.14669839 -0.07162089 0.07809225 0.05648304 -1.2916191
0.16271532 0.19414149 -0.013524708 -0.046174098 0.03762353 -0.16296388 0.025111498 -0.08055301
0.05015719 -0.078240946 0.05185294 -0.109550565 0.023992669 -0.06519284 0.03527844 0.058073364
-0.07346833 0.058830608 -0.6613651 0.039637446 -0.01589141 0.10443423 0.11689556 -2.6121883
00000000: f405 44bd c812 dd3c 87fc 1cbe f482 ecbd
00000010: 9f33 1cbd a527 d4bc f38b e2bc ee02 babf
00000020: f367 ecbd 87c2 73bc 853d fc3d bd72 91bd
00000030: 5a7e 283e f30a 623d 5103 8a3d 10c0 d2bc
00000040: d534 36bd e671 543d e9da 8cbd fd0e 9e3d
00000050: 48b2 1dbd f365 bcbe 94fe c6bd 3edc 74bd
00000060: af82 7f3d 9d4f e9bd 43bd 72bd 273c 58bd
00000070: 7005 47bd e3b3 80bd 7610 293d b053 8fbd
00000080: 7dbb b9bd f4f0 e1bd 0a85 3c3d cfdd a8bd
00000090: d8c9 3c3d 819f 02be a3cd 3e3d d459 b43f
000000a0: a7b0 a03c 61d5 71be 7dfc 5d3d 8894 bc3d
000000b0: e0ef 71bd 966b fd3c edbb 5d3c e7d0 143e
000000c0: 81f6 843c d83e 243d c3fb 25be 998c 19bd
000000d0: cb8d 25bd f2ec 273d ab20 f6bd 951e f73c
000000e0: f693 dd3c c96d 913d f1b5 323f 963b 96bd
000000f0: a788 aa3d 7527 743c 18dc 953d 5d67 1e40
00000100: 3201 bcbd 0af4 a7bc d788 7b3d 94a9 8e3c
00000110: bd07 7c3d 1f1e b33c ed17 d23d f660 c23f
00000120: 3dd1 803d 6c73 bb3d b76c 35be 6380 a7bd
00000130: 0570 c2bd 42e2 943d 3b35 063e d759 66bc
00000140: ec54 053e 53bf a0bc fa2c 763d fe4d 83bc
00000150: 6be6 123e 1d37 8a3e e1df 543e 4739 0cbe
00000160: d0ae 683d 149e 473d 6f98 90bc d71e 62bd
00000170: bebd df3c 4ab5 413c 7997 b5bd 664e 743c
00000180: e50f 51bb 9f80 9e3d baae c4bd 1a38 16be
00000190: f9ad 92bd d4ee 9f3d c35a 673d c653 a5bf
000001a0: d89e 263e 07cd 463e bd96 5dbc 0d21 3dbd
000001b0: 211b 1a3d 01e0 26be a1b6 cd3c faf8 a4bd
000001c0: a071 4d3d ca3c a0bd c063 543d 0c5c e0bd
000001d0: 468c c43c d383 85bd 2080 103d 56de 6d3d
000001e0: 9076 96bd 5df8 703d 394f 29bf e05a 223d
000001f0: b42e 82bc 9de1 d53d f066 ef3d 182e 27c0

fc.bias f4 [2]
0.19020572 -0.11142459
00000000: 4ac5 423e 9332 e4bd
