detector/models/64_1_64_5_32_0.001_covert_detector_1.pth (torch, 21617 bytes, 6 tensors)

rnn.weight_ih_l0 f4 [64, 3]
00000000: b08f 7b3d 0dc0 a63c 199a 283e bfc0 c7bd
00000010: 639a 373c 8e67 f9bd 79e8 be3d 5bd4 6c3c
00000020: 869b 533e 2408 3c3e bcc6 003e 1b86 0e3d
00000030: c596 e73b c6ec 2fbe 3bea 4f3d b9eb b03d
00000040: d502 54bc a77a 003e 4db6 01bd 6410 d93c
00000050: 4ed2 8abd 3798 1f3e 08d4 3a3d 2ce0 513e
00000060: 534c 75bd 8856 8bbc 8272 263d 8d02 b9be
00000070: 6bbb 1ebb c14b 33be fd8c 3b3c 1af4 213c
00000080: edab a13d c7c5 c93d f862 673b 3d3a 7c3e
00000090: 556b c9be 6971 5cbc 8993 acbe f9ec 3f3d
000000a0: 848b 723c 8160 fdbc 19a0 7c3c 2dba e23d
000000b0: 4fd6 9e3d cf8a 4d3e 1523 643c 496a f53d
000000c0: 5509 6cbb ec88 883c 050e 24bc cb97 02bd
000000d0: d66a d83b 2d60 a03d ac0a 003e 051b b93c
000000e0: ef67 d73d 8893 ecbd 3e11 8cbc 7f99 c1bd
000000f0: 0ab9 e1bd 3070 06bd 36ad fabd 135f d6bc
00000100: 7094 0ebb 0ecc 00be e4b1 313c d3bc e33c
00000110: 1f3b 9b3d fe82 d1bd 1039 e23a 1392 c4bd
00000120: f6ac 78bc fafa af3b 175e 1a3e 2ef3 023b
00000130: 72fd aebc 728e 003d 8ba0 a33c 237b 8bbc
00000140: 8a02 4fbc 862a 6c3e 3ac2 783c 442a d83d
00000150: 86c3 e9bd 4dc4 43bc 67eb 34bd b23a be3d
00000160: e488 8bbc 1612 2e3d edf0 f5bc 9e3b 98bc
00000170: 285d 2dbd 570d 973d bd22 a73c 9098 463d
00000180: 6202 06bc 84fd 1d3e 2512 993d 599d 6f3e
00000190: c15b bc3c da2b cf3d 4215 983d abd7 283c
000001a0: ea87 193d d6bb 2dbd 039e 1abe 6f8d f7bd
000001b0: f26a 81bd d470 06be a9d0 4e3d 84ac 8bbb
000001c0: 49ea 2bbc 79aa 493c f1cb 97bc 4d2d bb3c
000001d0: 2839 183e e750 1fbe 8988 7bbc 9705 2cbe
000001e0: 6089 2abe 48b6 9a3b 4b72 0abe 777a 433d
000001f0: 3703 133e 7084 9fbc e918 c0bd 2265 fe3c
00000200: 6f5a ae3d 6087 14be e5c8 2ebe 1791 b6bd
00000210: 7f3a 413e ddcd 593c 73db 243e 43d2 1fbd
00000220: 755e 903c b192 163e 8dea 5dbe 0b10 d1bc
00000230: 7df5 1cbf 58e8 f7bd 04f6 9cbc a031 b7bd
00000240: 6f29 ff3d 95fe 023d cf00 e63d c159 123f
00000250: 0f63 edba 1392 a43e 7407 693d c434 f63b
00000260: 0c8e 143e b828 2a3e 7577 9f3c 8fee d93d
00000270: 45e6 0f3c a5d1 bbbc de47 f23c 51ee f23d
00000280: 4395 d8bb 1557 243e 8a46 d03d 545b 99bc
00000290: 6dfd bc3d c942 b3bd 81d5 09be cb1a c4bd
000002a0: fa03 9b3e a0bf 933c 16d8 363e f128 5fbc
000002b0: 3e9a ab3c 8849 f33c ccca 96bd 62f0 3dbd
000002c0: 0c27 213c 86d0 d73c d444 373c a991 6d3d
000002d0: d0e2 86bc b854 c23c c3e8 a2bd c984 16be
000002e0: c60c 63bc e175 92be 4c47 733d a177 aa3d
000002f0: 244a 553d 7a4d 0bbe 411b 45be ba2a bcbc
0.061416328 0.020355249 0.16465034 -0.0975356 0.011206242 -0.121779546 0.093216844 0.014454926
0.20664796 0.1836248 0.12575811 0.03479586 0.0070675337 -0.17180166 0.05076049 0.086387105
-0.012940128 0.12546788 -0.031667996 0.026497073 -0.06778394 0.15585409 0.045612365 0.20495671
-0.05988724 -0.017009035 0.040636547 -0.3613476 -0.0024220597 -0.17509367 0.011447188 0.0098848585
0.0789412 0.09852176 0.0035306793 0.24631591 -0.393397 -0.013454773 -0.3370631 0.046856854
0.014803771 -0.030929806 0.01541903 0.110706665 0.0775572 0.20072483 0.01392438 0.11983163
-0.0036016305 0.016666852 -0.010013108 -0.031883042 0.0066045327 0.07830844 0.12504071 0.022595892
0.10517871 -0.11551577 -0.017098065 -0.09453105 -0.110216215 -0.032821834 -0.122400686 -0.026168382
-0.0021755956 -0.1257784 0.010845635 0.0278 0.07579636 -0.10230063 0.0017259438 -0.09598174
-0.015177956 0.005370495 0.15074955 0.0019981372 -0.021361087 0.031385846 0.019974014 -0.01702649
-0.012634883 0.23063096 0.015183026 0.105549365 -0.11414246 -0.011948657 -0.04416981 0.09288539
-0.017033048 0.042497717 -0.030022109 -0.018583115 -0.04232517 0.07375591 0.020402307 0.04848534
-0.008179279 0.1542874 0.07474164 0.23399867 0.02299297 0.10115786 0.074259296 0.0103053255
0.037483133 -0.042415462 -0.15099339 -0.12087523 -0.06319226 -0.13128978 0.050491963 -0.004262509
-0.01049287 0.01230871 -0.018529864 0.02284875 0.14865553 -0.15558206 -0.015352377 -0.16799007
-0.16653967 0.0047214366 -0.13520162 0.047724213 0.14356695 -0.01947233 -0.09379751 0.031054083
0.085133426 -0.14504766 -0.17068823 -0.089143924 0.1886997 0.013293711 0.16099338 -0.03901888
0.017623166 0.14704396 -0.21671505 -0.025520345 -0.61312085 -0.12104863 -0.019160278 -0.08945012
0.12459075 0.03198107 0.11230623 0.57168204 -0.0018111187 0.32142696 0.056891873 0.0075136144
0.14507312 0.16617095 0.019466141 0.106412046 0.008782928 -0.022927115 0.029575285 0.118618615
-0.0066095903 0.16048844 0.10169704 -0.018720306 0.09228025 -0.08752973 -0.13460352 -0.09575423
0.3027647 0.01803571 0.17855868 -0.013620601 0.020947572 0.029698148 -0.07362899 -0.046371825
0.00983597 0.026344549 0.0111858435 0.05800024 -0.016465575 0.023722038 -0.07954552 -0.14699091
-0.013858026 -0.2860556 0.059394166 0.08323599 0.05207266 -0.13603774 -0.19248678 -0.022969592

rnn.weight_hh_l0 f4 [64, 64]
00000000: a36a a8bc 3e7e 1ebe b2e7 ff3d a836 163e
00000010: 6174 6dbd ee0c 373e c881 c7bd eb53 22be
00000020: 19c6 1f3e 4a6e 2a3e 56ed 4dbe a48c 0c3d
00000030: 5443 0c3d 7adb 473d d851 8a3d 4713 bf3d
00000040: d843 b73d 5d32 52be 6535 0b3e ebc7 363d
00000050: 2c5f c53d 00f4 41be 6835 74be 8a25 3b3e
00000060: ef2d 743e 75a4 c53d 08ce 133d f5ff 633b
00000070: fea7 9ebb 8c14 323e 0c52 93bd 06f8 24be
00000080: c571 f13d b392 853e 7685 3abd 4a0c 37be
00000090: f09e 38be d6f2 b03c 449a 39be e5bb 69bd
000000a0: 19e6 1a3e 1385 0f3d f02f 8dbd d62e 1dbe
000000b0: 9858 003e 7d23 313e 59db 0b3e 055a 03be
000000c0: 32fd 833b 225f 673d 95e8 243e 0519 773d
000000d0: 22af b03d ebfe 0f3e f6e0 753d 01a8 51be
000000e0: 7b56 55be 273c 283d 49f4 f13d 2e5a 8abd
000000f0: 5af6 47be cf28 1f3d bae7 b33d c74f 0abe
00000100: e800 053c d0ac d53d 8dee 063d 62da fbbc
00000110: 9c64 383e 8700 0f3e a28a 61bd 0e8b 8cbc
00000120: 5070 34bd a177 3dbd d919 57be 7646 d9bd
00000130: 7c77 783d 777e d43c ee8f 01bd 986e 88bd
00000140: 930d a7bd bfcc 08be 49d5 b7bc b645 f6bd
00000150: f38b 4d3d e30a 0b3e 330d df3d 0a11 263e
00000160: d388 1ebe b853 4c3e c148 2e3c f9ec 923d
00000170: 9850 213c 4455 07be 423e 05bd 5056 7abd
00000180: f247 15bb 0ca8 25be e361 c1bc 77fc 33bd
00000190: 7bf7 323e f33d d53d a621 ba3b 22da fdbc
000001a0: 930c 063e 4ac3 f2bc a523 da3c e6af 783d
000001b0: dbc8 97bc 8ea5 753d 4750 013e 1bed 5abd
000001c0: bafc b9bd a6a9 dcbd 7529 a23d 8f77 dabd
000001d0: 8849 62bd c3dc 123e 06e1 0b3e ce08 26bd
000001e0: 6021 92bd c3cf c7bd 98ec 323e 16fd 893d
000001f0: 5d88 703d 75b2 2d3e 28a9 2dbd b108 953d
00000200: c477 a73d 46d1 353c dff4 793b d425 473d
00000210: 7416 7fbe 14d6 8cbc 8bbb a73d a64d 2b3a
00000220: f3d0 b3bd 0ed7 3b3d 3e83 a73d ac02 0c3e
00000230: f7b9 f53c 3e99 29be f3a6 1f3e 19e7 62bb
00000240: b3fb 823d 5d50 2f3e 47fd 9b3d 256f a93c
00000250: ff70 8a3d 8749 bf3d f46b d2bd 9dcf 983d
00000260: b94d 043e 45fc d53d d8b9 91bd f37b 003d
00000270: 981a 163d 04ee 65bc 38e7 e53d 27b1 d73c
00000280: 50b7 8a3e e502 83bc c3ea 3cbd a685 01bd
00000290: ff2b 07be 8c86 403d a5ec 573c 89c4 fa3d
000002a0: 72a8 17be 9591 473b d54e d13d ea60 b3bd
000002b0: 4d09 02bd 1f4b 0bbe 0c43 203d abf2 2d3e
000002c0: 4107 3f3d 0844 5e3e 9270 f5bb a299 27bd
000002d0: 8614 983d 605b 553e 57a1 2a3e e220 d4bd
000002e0: 9ddc dcbd dfc3 c13d c0a2 433b b97d e5bd
000002f0: 51e1 843d 4720 0fbe a8d3 933d d6d0 41be
00000300: 5325 d63d eea6 0fbd 4b84 c03d ee72 073e
00000310: 9eab 8ebc 5bde c53c 3912 693b f2d6 c03d
00000320: 3c48 45bc e40b a0bc 4104 f13d 2397 e2bb
00000330: 0f3f 7cbc b327 a33d 8862 c4bc 4bae 613d
00000340: 7bd3 b73d 5e2b 163d cf6f 6cbd d68c 77bd
00000350: 29b2 8e3d 7271 6f3c a112 afbc 5f17 4fbd
00000360: dd56 81bd 4a60 90bd cd0a 9cbd af71 fb3d
00000370: 6df0 fd3d 9aed 6cbd e008 0ebe 1b48 73bd
00000380: df95 253e 8abf 0ebd ffa5 2e3e bdd3 9cbd
00000390: 18b5 21bd 8b14 69bd ec76 b73d 53e0 cbbd
000003a0: 17a8 acbd 7966 3d3d 988a d1bc 8c2b 52be
000003b0: 4360 433b 4156 6abb 49de c23d a016 babc
000003c0: e526 303d 7b5f 513e 2018 ef3d 5f2b 263d
000003d0: 7137 373d 172f 4cbd 4bbe ac3d 6b72 a5bd
000003e0: 393c 473b 0548 aabd 8539 7f3d 77c9 913d
000003f0: 4bc6 03bd 05ea 653d e3c3 1d3e 06d3 42be
-0.02055866 -0.15477845 0.12495364 0.14669287 -0.057972316 0.17876026 -0.09741551 -0.15852325
0.15602912 0.16643634 -0.20110068 0.034313813 0.034243897 0.048793294 0.06753892 0.09329849
0.08948487 -0.20527025 0.13594587 0.04462425 0.09637293 -0.18940735 -0.23848498 0.18276039
0.23845647 0.09650508 0.03608516 0.0034790013 -0.0048418036 0.1739065 -0.071933836 -0.16110238
0.11789278 0.26088485 -0.045537435 -0.17875782 -0.1802938 0.021600168 -0.18125254 -0.057063956
0.15126838 0.03503902 -0.06893909 -0.15349898 0.12533796 0.17298694 0.13657893 -0.12827308
0.004027986 0.05648721 0.16104348 0.060326595 0.08627154 0.14062087 0.060028993 -0.20474245
-0.20833771 0.04107299 0.11814172 -0.06755482 -0.1952757 0.038857277 0.08784433 -0.13506995
0.008117892 0.10433352 0.032942344 -0.030743781 0.1800713 0.13965045 -0.05506385 -0.01715615
-0.044052422 -0.046256665 -0.21005954 -0.106091425 0.060660824 0.02593921 -0.031631403 -0.06661719
-0.08156886 -0.13359354 -0.02244057 -0.12025015 0.050182294 0.13578372 0.108911894 0.16217437
-0.15481882 0.19953811 0.010637463 0.07174105 0.009845875 -0.1321612 -0.032530077 -0.06111747
-0.0022778478 -0.16177386 -0.023606246 -0.04394194 0.17477219 0.104122065 0.0056802807 -0.030987803
0.13090734 -0.029634137 0.026628325 0.060714625 -0.018528393 0.05997234 0.1262828 -0.053448778
-0.09081407 -0.10774545 0.079180636 -0.10667335 -0.055245906 0.14342026 0.13660058 -0.04053574
-0.07135272 -0.09756424 0.17473066 0.067377254 0.058723796 0.16962607 -0.042397648 0.072770484
0.0817714 0.011097258 0.003814034 0.04862006 -0.24910909 -0.017191924 0.08190068 0.0006534703
-0.08780088 0.04585939 0.08179329 0.13672894 0.029995902 -0.16562364 0.1559103 -0.0034622608
0.06395664 0.171205 0.07616668 0.02068288 0.067598335 0.09340196 -0.10274497 0.07461474
0.12920274 0.10448507 -0.07115525 0.031368207 0.036646456 -0.014033798 0.11225742 0.02632959
0.2709298 -0.015992591 -0.046122324 -0.031621598 -0.13200377 0.047003314 0.013178979 0.12244517
-0.1481035 0.0030451764 0.10220114 -0.08758719 -0.03174715 -0.13602875 0.03912644 0.16987102
0.046637777 0.2170564 -0.007490226 -0.040918 0.074257895 0.20835638 0.16663109 -0.103578344
-0.10784266 0.094611876 0.0029851645 -0.1120562 0.06488288 -0.13977157 0.072181046 -0.18927321
0.10456338 -0.035071306 0.09400233 0.13227436 -0.017415818 0.024153879 0.003556384 0.094159976
-0.012041148 -0.01953692 0.117683895 -0.0069149896 -0.015395894 0.079665564 -0.023972765 0.05509786
0.089758836 0.036662452 -0.057723816 -0.060437046 0.06967575 0.01461445 -0.021371188 -0.050559398
-0.06315396 -0.07049616 -0.076192476 0.12277543 0.12399373 -0.057843782 -0.13870573 -0.059394937
0.16170453 -0.034850635 0.1705551 -0.07657573 -0.039479345 -0.056904357 0.089582294 -0.09954896
-0.08430498 0.046240304 -0.025578782 -0.20524424 0.0029812015 -0.0035756978 0.09515054 -0.022715867
0.043005843 0.20446579 0.11674523 0.040568706 0.044730607 -0.049849596 0.08434733 -0.08078464
0.0030400886 -0.08314518 0.062310714 0.071185045 -0.03217153 0.05613138 0.15406756 -0.19025812

rnn.bias_ih_l0 f4 [64]
00000000: 4354 c53c ef0f 09be 325a c13c a62e e53d
00000010: 64dc ccbd 6e1d 4a3d 266a 643b f4a6 173e
00000020: d6d3 ebbd 7453 ccbe 7bce e9bb b7d3 853e
00000030: 279c c1be 92ee 173e 7470 4d3d 3e0f 243e
00000040: 4b38 873c 3ac3 55bd 3c26 153e 85b1 2abe
00000050: b627 e03b b8cf 79bd cac3 763d d3b2 a7be
00000060: b919 2c3e 8132 4bbd c6fe 6dbd 9ef8 943e
00000070: 339c 16be faf1 5cbd 9c1c f9bc 1f3f fe3b
00000080: 2f5a 8d3d a75a 293d 2361 fd3d 67c7 eebd
00000090: e5fe a4bd 280e 36be b054 223d e36d 3ebe
000000a0: a3f8 7bbe dc04 e53d 593b a23d c6cc 1c3c
000000b0: b9c0 b73d e841 863d 18e5 c9be 27d5 2dbe
000000c0: bf99 1d3e e625 413f edb3 753e 865c bb3d
000000d0: 2a0f 2ebe 782b 6b3c 59fd 0abe 263a f8bc
000000e0: 1a66 b03e d585 92bd 8ac6 073c a98f 0b3e
000000f0: 6a1b 5bbd bedf 46be 8e8c 3b3e aca3 f7bd
0.02408803 -0.13384984 0.023602579 0.11190538 -0.10002974 0.049344473 0.0034853308 0.14809781
-0.11515014 -0.3990742 -0.00713521 0.26138088 -0.37814447 0.14837101 0.05015607 0.1602144
0.016506335 -0.052188136 0.14565367 -0.16669281 0.0068406714 -0.06098911 0.060245313 -0.3275362
0.16806687 -0.04960871 -0.0581043 0.2909593 -0.14708023 -0.053941704 -0.03040915 0.0077589895
0.06901967 0.04134622 0.12372043 -0.11659127 -0.0805643 -0.17778838 0.039631546 -0.18596606
-0.24606566 0.111825675 0.07921476 0.009570306 0.08972306 0.06555539 -0.39432597 -0.16975842
0.1539068 0.75448453 0.23994417 0.09148507 -0.16997972 0.0143536255 -0.13573207 -0.030301165
0.34452897 -0.07154433 0.0082870815 0.13629021 -0.05349294 -0.19421288 0.18315336 -0.12091765

rnn.bias_hh_l0 f4 [64]
00000000: badd 153e f07d dbbd e8aa 1c3e 09db cf3d
00000010: 7bfa 08bd 4533 5d3d 96f9 06be 0bce 403e
00000020: d694 a7bd a208 37be 10c6 9cbd f857 7b3e
00000030: 87c1 c3be 1cb8 ee3b 269d ba3c f44e 2a3d
00000040: 131e 1d3d 78c4 43bc f6a9 483e ca62 12be
00000050: 4790 ab3c f8a5 a93b da8b 653d c733 3abe
00000060: 7d47 183e 2d34 c2bd 2d6e 983c 55b2 393e
00000070: 2ce6 f1bd 2f9d 953d 35ff a13c 3bd1 1fbe
00000080: eaa8 8e3d f951 ab3d 7993 a43c db2e 36be
00000090: 8555 b3bd b6f9 b5bd 1da7 4d3e 5b2d c4bd
000000a0: fb1d ddbd f2ca ad3d 977d f33d 2dd4 00bd
000000b0: 5224 143e 89ee 3d3e 96c3 06bf bdf0 00be
000000c0: 2497 933c 1b90 3f3f 50b9 783e 2512 49bd
000000d0: a233 5b3d f73f c1bd f00a a63d bd01 0ebd
000000e0: 3fb2 9a3e 2ff6 c33c d696 d2bc 9d44 183e
000000f0: f93b 9cbd 3034 97be 9b77 703d d17e 2ebe
0.14635363 -0.1071738 0.1529957 0.101491995 -0.033442 0.054003973 -0.13181147 0.18828599
-0.08182685 -0.17874387 -0.07654965 0.24545276 -0.38233587 0.007285131 0.022780012 0.0415792
0.03835876 -0.011948697 0.19596085 -0.14295498 0.02094282 0.0051772557 0.056041576 -0.18183814
0.1487102 -0.09482608 0.018607223 0.18134435 -0.1181148 0.07305371 0.019775013 -0.15607159
0.069658116 0.083652444 0.020089852 -0.17791311 -0.08756546 -0.08885519 0.2008328 -0.09578963
-0.10796734 0.08485974 0.11889189 -0.031452347 0.1446698 0.18548025 -0.5264219 -0.12591834
0.018016405 0.7482926 0.24289441 -0.04908957 0.053516038 -0.094360285 0.08107555 -0.034669627
0.30214116 0.0239211 -0.02570669 0.14869924 -0.076286264 -0.29532003 0.058707815 -0.17040564

fc.weight f4 [2, 64]
00000000: 07d4 bf3d 2b56 f13c 06c4 173d 34ab 7b3d
00000010: bf81 7abe bb11 7dbc c858 a3bd 6564 acbd
00000020: 9d3e 053d c0d8 1c3e a394 c9bd 3836 233d
00000030: 440f e43e 57ea 27bd 8b0c af3d b5e1 123c
00000040: 4d95 4bbd 04ee d1bc 4ea5 ee3d 40a5 b83d
00000050: 3227 d83c c482 903c f459 9c3d db60 323e
00000060: 2311 3d3c e711 903d 666f 16bd b638 c2bd
00000070: 1466 303e a331 ae3c a26b 04bc 0c11 95bc
00000080: fe36 aa3d 5be8 3fbd a90c 873b d87f bdbd
00000090: f47d 16be dd2a f43a 5942 bdbd 7d0e 11bc
000000a0: a9fe b23d da3d 543e 97c6 9c3d d3d1 2ebe
000000b0: 1e79 d03c 722d fa3d 67bd bd3e 9f54 4bbd
000000c0: 7446 093a 8c73 0bc0 f950 1fb9 4447 73bc
000000d0: 46f5 e03b 6f13 073e 7b52 143d f3b7 0dbe
000000e0: 23f9 9cbe db87 b7bc 8176 d03c 2446 d83d
000000f0: 6d72 f7bd 03a8 5a3d d4a3 053e e4e8 07be
00000100: 003a b63d 03a3 3abd 48f0 a03c 7e04 e3bd
00000110: 4a7f 673d 9b9f 09bd cf93 83bd 6051 e63c
00000120: c7d4 e3bb 2d3d 3ebe 1960 b93b 1696 6c3c
00000130: aad0 08bf 7f2a 96bd e8ee b2bd aebd d0bd
00000140: 0a3e c2bd 0910 803d 6063 3e3d ffc6 1a3e
00000150: 218e 93bd 05e6 6ebc 7c5d 803d 58e9 20be
00000160: 54a3 e3bc d3b6 f33c 3d79 00bd 9fe3 9fbd
00000170: d2ae 653d d297 ae3d fcd7 d83d 1307 393c
00000180: 4b67 bcbd be7b 403c 8d19 d23c ba9a 453e
00000190: f19f ab3d b2b3 84bd 7939 97bc 07a2 953d
000001a0: 0799 81bd b01c ecbd c4e3 ef3d f3fd 963d
000001b0: 5524 16bd 315f 253d 7efe 47be 0e96 57bd
000001c0: 1167 b53c 507c 0540 296d 45bd 4b60 c6bd
000001d0: f1e4 373c 35c4 52bd 6621 8d3d 33f6 be3d
000001e0: 55de ca3e ba2c f23c b413 58bd ddc6 de3d
000001f0: 0251 cebc 7069 b0bd b920 8cbd d5f8 073e
0.09366613 0.029460033 0.037052177 0.06144257 -0.24463557 -0.015446122 -0.07975918 -0.08417586
0.032530416 0.15317059 -0.09842803 0.03984663 0.44542897 -0.04099497 0.08547314 0.008964946
-0.04970293 -0.02562619 0.11652623 0.09015894 0.026385877 0.017640479 0.07634345 0.1741976
0.01153973 0.070346646 -0.03672733 -0.09483473 0.1722644 0.021263903 -0.008082302 -0.018196605
0.0831127 -0.04685245 0.0041213823 -0.092529 -0.14696485 0.0018628497 -0.092411704 -0.008853552
0.08739979 0.2072672 0.076550655 -0.17072229 0.025448378 0.12215699 0.37058565 -0.049641248
0.00052366336 -2.1789274 -0.00015193586 -0.014848534 0.0068651764 0.13191007 0.036211472 -0.13839702
-0.30658826 -0.022403648 0.025447132 0.10560253 -0.12082372 0.053382885 0.13050777 -0.13272434
0.08897781 -0.045565616 0.019645825 -0.11084841 0.056517877 -0.033599477 -0.064246766 0.028114974
-0.0069528553 -0.18578024 0.0056572077 0.01444008 -0.53443396 -0.07332324 -0.08736974 -0.101924285
-0.09484489 0.062530585 0.04648149 0.15114973 -0.07204843 -0.014581208 0.06267831 -0.15714014
-0.027787842 0.029750263 -0.03136562 -0.07807087 0.056074925 0.08525051 0.10588071 0.0112931905
-0.09199389 0.011748252 0.02564695 0.19297305 0.08380116 -0.06479587 -0.018460022 0.07306295
-0.06328016 -0.11528909 0.11713365 0.07372656 -0.036655743 0.040373985 -0.19530675 -0.052633338
0.022143872 2.0857124 -0.048199806 -0.09686335 0.0112240175 -0.05145665 0.06891136 0.093243025
0.3962275 0.029562343 -0.052753165 0.10877774 -0.025185112 -0.086138606 -0.06842179 0.13278516

fc.bias f4 [2]
00000000: 11e9 513e b6b3 3fbe
0.20499064 -0.18720898
